results/model_1661312075.6494646/network_10.pth (torch, 130543 bytes, 16 tensors)

feature_net.act_cnn1.weight f4 [1, 1, 5, 1]
0.51981217 0.4685221 0.049322657 -1.2226782 0.2681734
00000000: 6912 053f 21e2 ef3e 8e06 4a3d b880 9cbf
00000010: 064e 893e

actor_logit.actor_1.weight f4 [64, 110]
0.14569671 -0.12740721 -0.11503389 0.022074802 0.06667365 -0.05231545 -0.14264102 0.006457046
0.1659373 0.078004606 0.12671234 -0.5341477 0.046153788 -0.13206513 -0.094593376 -0.21582976
0.06367334 0.344857 -0.32130525 -0.00061894394 0.030721642 -0.013291438 0.15650618 0.09009965
-0.027966846 0.07193117 0.047823288 0.08578602 -0.15865761 -0.12521154 0.067504026 0.0067122937
0.013127062 0.024242222 0.075186305 0.11425256 0.044256978 -0.09095188 0.09545847 0.1589012
0.076878645 -0.24158789 -0.24911235 0.014453281 -0.14950149 -0.15137151 0.005027488 -0.048915748
-0.14143646 0.055193763 0.022894215 -0.1753696 0.13086525 -0.11615576 0.05344516 -0.1040416
0.1251776 0.020857548 0.005516446 -0.017261773 -0.03555328 0.04123 0.12780385 0.06728676
0.16697742 -0.011654205 0.25981513 0.034801085 0.09698717 -0.23412739 -0.12796749 0.23566082
0.25612727 0.1957271 0.115339056 0.02079166 0.091174774 -0.1732836 0.15720722 0.022809345
-0.08646311 0.18683413 0.012103283 -0.03819787 -0.17639714 -0.06718058 -0.06001822 -0.25934985
0.10463929 0.050410263 0.07418309 -0.08814195 -0.09283871 -0.07707505 -0.03543167 -0.006359931
-0.1878399 0.11152962 -0.093555085 -0.042989217 -0.21324995 -0.08835833 0.07646484 -0.03657521
-0.1295658 0.029669814 -0.07542134 0.16488257 -0.15664124 -0.042733215 0.14733191 0.15730803
-0.008303192 0.24390902 -0.011265198 -0.23809966 -0.051890284 -0.0063045514 -0.412613 0.155133
0.2547513 0.14453201 -0.072260305 -0.12665871 0.08330805 -0.015789013 0.03320534 -0.09683519
-0.056552753 -0.21509698 -0.05353423 0.07691017 0.043890703 -0.000464525 -0.06431189 -0.05878479
-0.0035044283 0.061519563 -0.10040178 0.059941076 -0.11046135 0.07318971 -0.12287318 -0.058412462
-0.15139627 -0.030730521 0.026493961 -0.044052836 -0.18967159 -0.090258546 -0.16288652 -0.05683915
-0.039218575 0.044638805 -0.2713197 -0.095615245 -0.23135158 -0.008303379 0.122095115 -0.042383995
-0.15893155 0.1268264 0.11941282 0.28685734 -0.11488708 -0.0056887604 -0.022589287 0.1276608
-0.0737255 -0.0302178 -0.02081806 0.09973827 0.20690632 0.06188608 0.3042472 0.06337571
-0.077033475 -0.077940024 -0.23402815 0.07555403 0.035727724 -0.22735217 -0.004518538 -0.014665118
0.013302171 0.11650082 0.017112855 0.005782088 -0.05122918 -0.0074647316 0.009721069 -0.029795395
0.028203253 -0.14878434 -0.18596545 -0.061779004 -0.4335008 0.035879016 -0.038540922 -0.12101407
0.2843034 0.06350017 0.17748325 -0.03636224 0.12102497 -0.078258775 -0.23116903 0.12337458
0.15555264 0.13051884 -0.13755648 -0.181398 0.047229942 0.19106616 -0.13714127 0.023355754
-0.20786808 0.094438165 0.07047425 -0.062185984 -0.07793737 0.20622656 0.13151707 0.2730133
-0.07944787 0.06405592 0.06661183 -0.32018468 0.06273729 0.12092253 0.03727251 -0.20224027
0.059819613 0.09909821 -0.07302444 0.052774172 0.11537448 0.16061811 0.20136464 -0.010301887
0.10987855 -0.15777904 -0.1424912 -0.018769987 -0.22406071 -0.18401481 0.113575585 0.02358613
-0.16954316 -0.0068705394 0.12442104 -0.08894087 0.20590849 -0.041433886 0.03824286 -0.018155728
00000000: 8531 153e 0977 02be e396 ebbd 37d6 b43c
00000010: 328c 883d ba48 56bd 7d10 12be a195 d33b
00000020: 78eb 293e e1c0 9f3d e1c0 013e e7bd 08bf
00000030: c10b 3d3d 153c 07be 2cba c1bd 7a02 5dbe
00000040: 2b67 823d 1991 b03e 1f82 a4be a040 22ba
00000050: f4ab fb3c 55c4 59bc 2843 203e 2a86 b83d
00000060: ba1a e5bc a650 933d 5ae2 433d 95b0 af3d
00000070: 2477 22be 7437 00be 8d3f 8a3d cdf2 db3b
00000080: e312 573c a097 c63c 47fb 993d 3ffd e93d
00000090: ce46 353d fb44 babd bb7f c33d ffb6 223e
000000a0: 8d72 9d3d d162 77be 4f17 7fbe 74cd 6c3c
000000b0: eb16 19be 2201 1bbe a0bd a43b e15b 48bd
000000c0: b8d4 10be db12 623d a68c bb3c 1794 33be
000000d0: 8a01 063e 12e3 edbd 50e9 5a3d c313 d5bd
000000e0: 8f2e 003e 73dd aa3c 4ec3 b43b 9068 8dbc
000000f0: 51a0 11bd cae0 283d 03df 023e a4cd 893d
00000100: 21fc 2a3e 47f1 3ebc 7d06 853e 958b 0e3d
00000110: 36a1 c63d 17bf 6fbe e909 03be 1251 713e
00000120: 1d23 833e af6c 483e e236 ec3d 4553 aa3c
00000130: d7b9 ba3d 4271 31be eefa 203e aada ba3c
00000140: 9213 b1bd 7251 3f3e d94c 463c 5f75 1cbd
00000150: 74a1 34be f995 89bd aad5 75bd 81c9 84be
00000160: 204d d63d fe7a 4e3d 4eed 973d c483 b4bd
00000170: 3922 bebd 86d9 9dbd cc20 11bd f866 d0bb
00000180: 1a59 40be a469 e43d cf99 bfbd 7615 30bd
00000190: 325e 5abe 36f5 b4bd 9999 9c3d e3cf 15bd
000001a0: e6ac 04be 1c0e f33c 8176 9abd fad6 283e
000001b0: 9066 20be 0609 2fbd 2dde 163e 5b15 213e
000001c0: 1d0a 08bc 49c3 793e aa91 38bc 66d0 73be
000001d0: e88a 54bd 6996 cebb 0342 d3be 2fdb 1e3e
000001e0: c36e 823e 3300 143e 36fd 93bd d2b2 01be
000001f0: 699d aa3d f657 81bc 5302 083d 8751 c6bd
00000200: dca3 67bd 6242 5cbe b546 5bbd 1483 9d3d
00000210: bdc6 333d 7d8b f3b9 f4b5 83bd 52c8 70bd
00000220: 8daa 65bb f0fb 7b3d 739f cdbd c684 753d
00000230: 8f39 e2bd 7de4 953d efa4 fbbd e841 6fbd
00000240: a007 1bbe 93be fbbc dd09 d93c bf70 34bd
00000250: 4539 42be 79d9 b8bd b9cb 26be 2bd0 68bd
00000260: a8a3 20bd 2ed7 363d 6aea 8abe edd1 c3bd
00000270: 6ee7 6cbe e50a 08bc 010d fa3d d79a 2dbd
00000280: f4be 22be c8de 013e b58e f43d f7de 923e
00000290: eb49 ebbd c868 babb 2b0d b9bc 83b9 023e
000002a0: 65fd 96bd 528b f7bc a38a aabc 9443 cc3d
000002b0: 40df 533e 427c 7d3d 4ac6 9b3e 20cb 813d
000002c0: bac3 9dbd 059f 9fbd 13a5 6fbe 12bc 9a3d
000002d0: 3c57 123d 02cf 68be 3e10 94bb f745 70bc
000002e0: 59f1 593c fb97 ee3d 4230 8c3c ab77 bd3b
000002f0: b0d5 51bd b59a f4bb 1e45 1f3c 7915 f4bc
00000300: 820a e73c ec5a 18be ba6d 3ebe fb0b 7dbd
00000310: d1f3 ddbe e0f5 123d 16dd 1dbd 3ad6 f7bd
00000320: 3790 913e 610c 823d 2bbe 353e 92f0 14bd
00000330: f1db f73d 2346 a0bd 93b7 6cbe d0ab fc3d
00000340: 3149 1f3e bba6 053e 9bdb 0cbe 66c0 39be
00000350: 2f74 413d d9a6 433e c36e 0cbe 9154 bf3c
00000360: 5fdb 54be cc68 c13d ce54 903d bbb6 7ebd
00000370: a19d 9fbd 0e2d 533e 69ac 063e 66c8 8b3e
00000380: 91b5 a2bd c02f 833d c86b 883d 3fef a3be
00000390: 697c 803d 3ba6 f73d 0fab 183d 1318 4fbe
000003a0: 6905 753d 01f4 ca3d d68d 95bd bb29 583d
000003b0: 7549 ec3d 1379 243e 8832 4e3e 3fc9 28bc
000003c0: 0108 e13d d490 21be 37e9 11be 84c3 99bc
000003d0: 2c70 65be 616e 3cbe 519a e83d b337 c13c
000003e0: b99c 2dbe 4322 e1bb 75d0 fe3d a126 b6bd
000003f0: add9 523e 94b6 29bd 8ca4 1c3d 52bb 94bc

actor_logit.actor_1.bias f4 [64]
0.005845268 -0.005872148 0.005014783 -0.0014752531 0.01000736 -0.010947985 0.024015058 -0.0001634521
-0.009710717 -0.0069183316 -0.004150607 -0.005559498 0.009933591 -0.0036063362 -0.0025015825 0.005612817
0.00842283 0.011224369 -0.005877381 0.00070961704 -0.0002113435 0.0049098823 -0.0019011335 -0.00030277253
-0.0019967675 0.0081133675 0.0053353584 -0.011569793 -0.004323826 -0.0074767037 0.003627124 -0.004503305
0.0002634986 0.00070998864 0.012889867 0.0142130805 0.0029134057 0.0071720155 0.008968364 -0.005542965
0.004753589 0.012025432 -0.0009911283 0.005364871 0.016887976 0.0041319383 0.012241057 -0.0042031095
0.0039738202 -0.0039978693 -0.0051348284 -0.004514613 0.0029338636 -0.0012059154 0.020323936 -0.0027633053
-0.0036432266 0.0018698958 -0.009943303 -0.013347158 -0.001279479 -0.01100692 0.0059609846 -0.0073094973
00000000: a989 bf3b 266b c0bb 0c53 a43b 485d c1ba
00000010: e9f5 233c 2d5f 33bc 3abb c43c 5764 2bb9
00000020: b319 1fbc 2cb3 e2bb d101 88bb 732c b6bb
00000030: 80c0 223c 4858 6cbb 97f1 23bb b9eb b73b
00000040: e9ff 093c 6ae6 373c 0c97 c0bb 9805 3a3a
00000050: 179c 5db9 14e3 a03b 742f f9ba 71bd 9eb9
00000060: 33dc 02bb eeed 043c 3bd4 ae3b 3b8f 3dbc
00000070: e2ae 8dbb 23ff f4bb 0bb5 6d3b 7690 93bb
00000080: 2f26 8a39 881e 3a3a 0530 533c fbdd 683c
00000090: d6ee 3e3b 3a03 eb3b 0cf0 123c c3a1 b5bb
000000a0: ffc3 9b3b 5106 453c bfe8 81ba cdcb af3b
000000b0: a758 8a3c 3665 873b b78e 483c 3dba 89bb
000000c0: d236 823b 8f00 83bb 1042 a8bb 52ef 93bb
000000d0: 1046 403b ce0f 9eba 627e a63c 9218 35bb
000000e0: 33c3 6ebb 4b17 f53a 3ce9 22bc 0aae 5abc
000000f0: 31b4 a7ba 5e56 34bc 5d54 c33b 8284 efbb

actor_logit.actor_2.weight f4 [64, 64]
0.06021124 0.048900645 0.15884735 0.13530733 0.2830972 0.0006992958 0.10767087 -0.017248575
-0.15297517 -0.072781794 0.06261898 -0.1839442 -0.23123354 0.21458197 -0.109818414 0.0975253
0.1384999 0.29355216 -0.0494969 0.068151936 0.22359875 0.045831416 0.064744346 0.11032405
-0.09686185 -0.46036804 0.16273955 0.18791549 0.13302538 0.12214835 -0.19528615 0.5643985
0.1816558 -0.22111103 0.37398443 0.20958309 -0.020028507 -0.1686809 0.06906725 -0.07248901
-0.03593908 -0.007919009 0.048124738 -0.025426412 -0.15399306 -0.235545 0.119069114 0.06711634
-0.049489032 0.16346452 -0.06272665 0.05002733 -0.14345853 0.27845857 0.18818118 -0.031090608
0.23300903 -0.008579919 -0.04629533 -0.30358 -0.28523588 -0.20040219 0.13354808 -0.090401016
-0.16220714 -0.012314465 -0.2670753 -0.31387323 -0.071789205 0.035950053 0.3549401 0.36692005
-0.085577294 0.28964984 0.09207517 0.15971126 0.1410041 -0.114064425 -0.023996362 0.095319405
-0.100087546 -0.031666115 -0.10651746 0.12303239 -0.011035712 0.17112218 -0.17348248 -0.10571681
-0.23548914 -0.14122084 -0.028760457 0.05079823 0.08410245 0.10954479 -0.12611662 -0.19214326
0.18105009 -0.020890066 -0.012185394 -0.13098332 -0.16310026 -0.13084607 0.12059748 -0.06638009
-0.47084314 -0.11518644 -0.15205568 0.19621748 0.14108668 0.34101558 0.20017494 -0.17305402
0.06194595 -0.12712404 0.25642875 -0.0037296556 -0.08645497 0.009416464 -0.074424036 -0.16826871
0.30101627 -0.09755533 -0.30225047 -0.07157415 -0.24449772 0.106139824 0.21122153 -0.24700795
-0.0055580623 0.0001677148 0.09595985 -0.136163 0.3708022 -0.021049097 -0.06019782 -0.12070813
0.13012967 0.21014659 0.07195874 0.024725663 0.17435643 -0.009193841 -0.10663321 0.12356513
0.46753445 -0.122023664 0.005249077 -0.13283458 -0.16351287 -0.09596247 0.08950949 -0.25942138
0.0707344 0.17997092 0.065112986 -0.14289679 -0.012578952 -0.16765082 0.012864415 -0.18292928
-0.29985112 -0.24701732 -0.24549775 0.33565345 0.13887684 0.077347286 0.21822964 -0.25964355
-0.10712868 0.08862307 0.27880582 0.033313237 -0.17675114 0.08701774 0.20465654 0.18133168
-0.19198284 0.02406979 0.06984621 -0.26221073 -0.30505002 -0.14085604 0.15724784 -0.02558182
-0.23757112 -0.116329856 -0.12766992 -0.027539555 -0.34064987 -0.12368233 0.16810526 -0.115277454
-0.11487775 0.19752796 -0.039416138 0.08899569 0.21159694 0.024368051 0.22410628 -0.09703309
0.15642792 -0.07109323 -0.0039241747 0.031679783 0.16501102 -0.055801675 0.09905189 0.026645524
-0.11623306 0.003957551 0.43328598 0.33888972 -0.13094236 0.097916864 -0.06967914 -0.04494619
-0.29760444 0.1256564 0.020453438 -0.27606332 0.14699987 -0.18151525 0.03381636 -0.02036841
-0.18755184 0.056365542 -0.08238649 -0.11187636 0.01837172 -0.028861633 0.12801333 0.18482651
-0.23643336 -0.1820417 0.5136618 -0.18796691 0.05036587 -0.2933705 -0.38981467 0.14314923
-0.12194984 0.13037728 -0.16645382 0.11297724 0.05005669 -0.07502426 -0.14061315 0.04171685
0.50326693 -0.11072526 -0.009096127 -0.22032714 0.012149472 -0.024049478 0.06371788 0.05563249
00000000: 10a0 763d 0b4c 483d e1a8 223e 018e 0a3e
00000010: 1ef2 903e f250 373a 8c82 dc3d e24c 8dbc
00000020: 86a5 1cbe 9f0e 95bd 613e 803d de5b 3cbe
00000030: 7cc8 6cbe 60bb 5b3e 7ae8 e0bd 58bb c73d
00000040: ebd2 0d3e 784c 963e 43bd 4abd 3e93 8b3d
00000050: 12f7 643e b9b9 3b3d af98 843d 93f1 e13d
00000060: 815f c6bd 5cb5 ebbe 32a5 263e eb6c 403e
00000070: ce37 083e ea28 fa3d 18f9 47be 6c7c 103f
00000080: fa03 3a3e ee6a 62be e37a bf3e f39c 563e
00000090: d312 a4bc b0ba 2cbe 2173 8d3d 1e75 94bd
000000a0: db34 13bd bbbe 01bc 721e 453d 0d4b d0bc
000000b0: 5bb0 1dbe b532 71be 82da f33d 4b74 893d
000000c0: 03b5 4abd 3e63 273e d476 80bd 75e9 4c3d
000000d0: cbe6 12be 1f92 8e3e 91b2 403e bbb1 febc
000000e0: eb99 6e3e ca92 0cbc 2ca0 3dbd d66e 9bbe
000000f0: 700a 92be 3b36 4dbe d4c0 083e 2b24 b9bd
00000100: a119 26be 9cc2 49bc 18be 88be feb3 a0be
00000110: 3806 93bd 5d40 133d b5ba b53e f2dc bb3e
00000120: 2643 afbd fc4c 943e e891 bc3d 598b 233e
00000130: 6163 103e 9c9a e9bd 0594 c4bc d236 c33d
00000140: b3fa ccbd 54b4 01bd d325 dabd 68f8 fb3d
00000150: 22cf 34bc a73a 2f3e 64a5 31be 0e82 d8bd
00000160: 1124 71be 329c 10be 0d9b ebbc ce11 503d
00000170: e83d ac3d 0559 e03d b724 01be 34c1 44be
00000180: 3265 393e a521 abbc 3fa5 47bc 7e20 06be
00000190: c103 27be 83fc 05be d0fb f63d 49f2 87bd
000001a0: 5a12 f1be dee6 ebbd 7cb4 1bbe 3ced 483e
000001b0: 0779 103e 9899 ae3e a9fa 4c3e 1335 31be
000001c0: 09bb 7d3d ce2c 02be a14a 833e 3d6d 74bb
000001d0: 4e0f b1bd 8347 1a3c a16b 98bd a24e 2cbe
000001e0: ce1e 9a3e 17cb c7bd 93c0 9abe 7895 92bd
000001f0: 9c5d 7abe d65f d93d 754a 583e a7ef 7cbe
00000200: 6820 b6bb 99dc 2f39 9986 c43d 506e 0bbe
00000210: c9d9 bd3e 286f acbc fd91 76bd d335 f7bd
00000220: b640 053e ab30 573e 1b5f 933d 798d ca3c
00000230: 7e8a 323e c4a1 16bc 8362 dabd b70f fd3d
00000240: ad60 ef3e 8be7 f9bd 7300 ac3b ca05 08be
00000250: eb6f 27be f987 c4bd c050 b73d e1d2 84be
00000260: 32dd 903d 4c4a 383e f559 853d 8953 12be
00000270: f317 4ebc a8ac 2bbe 44c5 523c d051 3bbe
00000280: 1686 99be 1cf2 7cbe c363 7bbe c5da ab3e
00000290: bb35 0e3e 4168 9e3d 9777 5f3e 00f0 84be
000002a0: 4866 dbbd 0380 b53d a3bf 8e3e 7673 083d
000002b0: 40fe 34be 5b36 b23d 7c91 513e 03af 393e
000002c0: 2697 44be 022e c53c 880b 8f3d 7c40 86be
000002d0: 842f 9cbe 913c 10be 9405 213e f790 d1bc
000002e0: d845 73be 593e eebd e7bb 02be a29a e1bc
000002f0: a969 aebe 294d fdbd c923 2c3e 9616 ecbd
00000300: 0745 ebbd c544 4a3e d172 21bd 5f43 b63d
00000310: deac 583e 829f c73c 1e7c 653e 49b9 c6bd
00000320: a42e 203e 5499 91bd 5d96 80bb a9c2 013d
00000330: a6f8 283e 4c90 64bd b8db ca3d b747 da3c
00000340: 990b eebd 58ae 813b a9d7 dd3e f482 ad3e
00000350: c115 06be a388 c83d f0b3 8ebd 7f19 38bd
00000360: 9c5f 98be 12ac 003e f88d a73c 2c58 8dbe
00000370: 2287 163e 22df 39be 0683 0a3d a7db a6bc
00000380: 970d 40be 8edf 663d 40ba a8bd 6f1f e5bd
00000390: 4a80 963c 3b6f ecbc ed15 033e 2943 3d3e
000003a0: 961b 72be 2469 3abe 577f 033f 667a 40be
000003b0: 714c 4e3d a834 96be ca95 c7be b695 123e
000003c0: d6c0 f9bd 9f81 053e df72 2abe 9c60 e73d
000003d0: 3e08 4d3d 52a6 99bd e5fc 0fbe 4adf 2a3d
000003e0: 1ad6 003f edc3 e2bd ec07 15bc 709d 61be
000003f0: 940e 473c 6903 c5bc 857e 823d e5de 633d

actor_logit.actor_2.bias f4 [64]
0.002201496 0.0009287457 0.011058256 -0.007840174 0.0022444432 0.0064241593 0.013677072 0.007366068
-0.0042873686 -0.011115327 0.014445642 -0.0107747065 -0.0050030337 -0.00053161813 -0.002610511 0.0064550065
-0.0032434212 -0.00063505856 0.0027318054 -0.0036741546 -0.005155913 0.0041287355 -0.0048285453 -0.0001523293
0.0030671281 0.0028157244 0.0038205264 -0.0006727845 -0.008661068 0.026036425 -0.0021825626 -0.0044850847
0.009003482 0.0030666473 -0.0010015205 0.0036350756 0.002384674 0.0020130998 -0.0142391985 -0.003401242
-0.0024681573 -0.0074690604 -0.0053404057 0.0015114291 -0.00030273816 -0.010363699 -0.00885663 -0.003172996
0.0058900993 0.0041356767 -0.0077487547 0.0058791325 0.0011215376 -0.0010891588 0.01272452 0.0112993615
0.008621954 -0.0076651922 -0.0007082378 0.004468996 0.0022298263 -0.007168514 0.011064047 0.0054145763
00000000: f946 103b 1277 733a b02d 353c 1374 00bc
00000010: 8217 133b c181 d23b cc15 603c 0f5f f13b
00000020: 0e7d 8cbb 0f1d 36bc 6aad 6c3c 6588 30bc
00000030: 7df0 a3bb 4a5c 0bba 1b15 2bbb 8584 d33b
00000040: 948f 54bb 0f7a 26ba 1708 333b 16ca 70bb
00000050: eff2 a8bb 584a 873b c638 9ebb 96ba 1fb9
00000060: df01 493b 0488 383b cc61 7a3b ce5d 30ba
00000070: 27e7 0dbc 574a d53c 5309 0fbb 9ef7 92bb
00000080: 5783 133c cef9 483b 7445 83ba 733a 6e3b
00000090: 3148 1c3b 36ee 033b 874b 69bc 5fe7 5ebb
000000a0: cfc0 21bb 05bf f4bb 92fe aebb 251b c63a
000000b0: d4b8 9eb9 81cc 29bc 661b 11bc 0af2 4fbb
000000c0: bc01 c13b 9284 873b 44e9 fdbb bda5 c03b
000000d0: 8f00 933a 1bc2 8eba 817a 503c f520 393c
000000e0: 1943 0d3c 4b2c fbbb 09a9 39ba a870 923b
000000f0: 4722 123b dbe5 eabb fa45 353c c26c b13b

actor_logit.actor_3.weight f4 [64, 64]
0.15207809 -0.1519072 -0.06415616 0.28632778 -0.103799835 0.17399044 0.042506468 -0.099537864
0.21716015 -0.18112274 -0.13780412 0.21696244 0.06761085 0.0019171168 -0.037872218 -0.25344235
-0.20108312 -0.23243813 0.15798214 0.03401918 -0.09332686 -0.17205454 -0.044570558 0.14949462
-0.18270603 0.054919545 0.122093886 0.006933744 -0.184969 0.11165583 0.057856966 0.0011821819
0.14249177 -0.15031375 -0.30383813 0.12785983 -0.15247193 -0.13031796 0.046906635 -0.3102954
0.106700495 0.077016614 -0.057823613 0.08623192 0.11086206 0.017692305 -0.118732505 -0.329152
-0.06358599 -0.3497027 -0.38373768 0.2273458 -0.06865125 0.017125232 0.28075263 -0.27693784
0.25130105 -0.21424146 -0.038320735 0.06261279 0.16866438 -0.060927413 0.42242512 -0.18233204
-0.16483766 0.048149265 -0.19475055 -0.20898357 0.14980756 -0.25789192 -0.20892914 0.0644672
0.22977114 -0.092090756 0.059395146 0.012574665 0.1304114 0.41512153 0.063490346 0.29163218
0.22773828 0.046761 0.17674606 0.12171868 0.06103066 -0.048863716 0.064732745 -0.054914244
-0.35982436 0.24640116 -0.046469625 -0.04326003 -0.037367005 0.10820129 -0.21486011 0.0045834156
-0.02703071 0.04002933 -0.20101841 0.22111781 -0.3097047 -0.15210299 0.13118573 -0.17761786
0.27036268 0.065809496 0.09795417 0.16915809 0.18092412 0.06733598 0.101722 0.39245936
-0.21372789 0.083999306 -0.057757184 -0.17107172 -0.3642138 -0.0012524582 0.102268495 -0.13676003
-0.14932203 0.09594134 -0.17266682 -0.195633 -0.12671028 -0.24956334 0.070256926 0.22946474
0.21839122 0.20120136 0.3221543 0.070826724 0.38850552 0.05010081 -0.113923095 -0.34145546
0.020441126 -0.16135472 0.08322021 -0.0028050807 0.25649846 -0.25085986 -0.3015953 -0.073220335
-0.07501128 0.10072592 -0.20881732 -0.045415673 0.186466 0.20508255 0.10149865 0.13080321
0.0047745793 -0.21172284 0.30568898 -0.06511845 -0.20863439 0.113914356 -0.17501293 -0.09674907
-0.14873356 0.17566454 0.009077999 0.123742916 -0.05983722 0.22701453 -0.16682449 -0.32857805
0.041336752 0.08507639 0.39870113 0.012675464 -0.33720714 0.022706462 -0.0796237 0.06451462
0.046225376 -0.059761785 0.22225264 -0.02046889 -0.18918844 0.19288258 -0.12247996 -0.026378695
-0.12254072 0.2150316 -0.06482577 -0.02569706 -0.08320699 -0.11037275 0.27039436 -0.047257017
0.072456546 0.04850758 0.48619932 -0.15011887 -0.1654288 0.069267206 -0.28987983 0.07764608
0.16484171 -0.15415144 0.18514378 -0.051720113 -0.12977777 0.33937892 0.19386463 0.031135729
0.009114831 0.18152438 0.051274784 -0.053670723 0.08507458 -0.03126683 0.1158508 0.09324444
-0.045880668 0.36278316 -0.103084214 -0.09311007 0.22499853 -0.1584414 -0.07018991 -0.30964807
0.318868 0.30812737 0.12517212 -0.10419599 0.12313759 -0.12782966 -0.047359668 -0.099382244
-0.060114782 0.22937672 0.07679482 0.08788834 -0.049753208 -0.02932381 -0.16730727 -0.17449175
0.07159617 -0.35189417 0.2635218 0.12578174 0.09596201 -0.27111375 -0.2337789 -0.25160903
0.24251764 0.099778906 -0.15964256 0.043183874 -0.03838982 -0.04772895 -0.11499613 -0.26140615
00000000: 5cba 1b3e 908d 1bbe 4e64 83bd 8e99 923e
00000010: 0295 d4bd 8d2a 323e 431b 2e3d 82da cbbd
00000020: 3b5f 5e3e 3d78 39be 861c 0dbe 672b 5e3e
00000030: 8f77 8a3d c447 fb3a e61f 1bbd 32c3 81be
00000040: bce8 4dbe 4304 6ebe 12c6 213e b257 0b3d
00000050: 2722 bfbd 112f 30be 9e8f 36bd 1e15 193e
00000060: 4a17 3bbe 51f3 603d 5c0c fa3d 7634 e33b
00000070: 8368 3dbe d0ab e43d 6dfb 6c3d 71f3 9a3a
00000080: 5de9 113e d9eb 19be ac90 9bbe b0ed 023e
00000090: 9a21 1cbe 1272 05be 2c21 403d 0adf 9ebe
000000a0: ca85 da3d e3ba 9d3d 74d8 6cbd 5c9a b03d
000000b0: a60b e33d 74ef 903c 072a f3bd 9c86 a8be
000000c0: 5f39 82bd 3b0c b3be 4479 c4be 56cd 683e
000000d0: 0799 8cbd 374a 8c3c cfbe 8f3e ccca 8dbe
000000e0: 88aa 803e 1d62 5bbe 34f6 1cbd 223b 803d
000000f0: 5bb6 2c3e 068f 79bd 1b48 d83e 40b5 3abe
00000100: 34cb 28be 2a38 453d b06c 47be caff 55be
00000110: 2767 193e 690a 84be 85f1 55be 6107 843d
00000120: 2049 6b3e 149a bcbd 5348 733d f805 4e3c
00000130: 918a 053e cf8a d43e 3a07 823d d050 953e
00000140: 3934 693e 7688 3f3d ebfc 343e a547 f93d
00000150: 49fb 793d 5225 48bd 9a92 843d c2ed 60bd
00000160: e63a b8be 9650 7c3e ef56 3ebd 6e31 31bd
00000170: 250e 19bd a398 dd3d 4a04 5cbe 7a30 963b
00000180: 826f ddbc cbf5 233d c5d7 4dbe b56c 623e
00000190: 9d91 9ebe e3c0 1bbe 8d55 063e 75e1 35be
000001a0: fa6c 8a3e 21c7 863d 329c c83d c737 2d3e
000001b0: 2c44 393e 72e7 893d a053 d03d 6ff0 c83e
000001c0: 7cdb 5abe d407 ac3d cc92 6cbd 6d2d 2fbe
000001d0: 3b7a babe 8629 a4ba 2572 d13d d20a 0cbe
000001e0: e0e7 18be e57c c43d 92cf 30be 0454 48be
000001f0: 57c0 01be 888d 7fbe dde2 8f3d cef8 6a3e
00000200: f3a1 5f3e bb07 4e3e 69f1 a43e 9a0d 913d
00000210: 32ea c63e 8236 4d3d 8350 e9bd 40d3 aebe
00000220: 2674 a73c 2c3a 25be 5c6f aa3d 72d5 37bb
00000230: c453 833e b470 80be b36a 9abe 8bf4 95bd
00000240: 849f 99bd 6449 ce3d 35d4 55be c905 3abd
00000250: f1f0 3e3e 2901 523e 86de cf3d 47f1 053e
00000260: 1374 9c3b dfcd 58be 4483 9c3e d25c 85bd
00000270: 41a4 55be ee4b e93d 9736 33be 6024 c6bd
00000280: 9c4d 18be 68e1 333e e3bb 143c ed6c fd3d
00000290: df17 75bd 7f76 683e 0ad4 2abe 623b a8be
000002a0: ba50 293d 883c ae3d 8e22 cc3e c0ac 4f3c
000002b0: 6aa6 acbe e702 ba3c c011 a3bd 3e20 843d
000002c0: d256 3d3d c6c8 74bd 3296 633e 60ae a7bc
000002d0: 9dba 41be 0383 453e c6d6 fabd 2218 d8bc
000002e0: a1f6 fabd 3e31 5c3e 60c3 84bd a482 d2bc
000002f0: 6d68 aabd 1c0b e2bd 2171 8a3e 9390 41bd
00000300: 1964 943d e2af 463d 1eef f83e c3b8 19be
00000310: 2b66 29be f7db 8d3d 216b 94be e804 9f3d
00000320: 44cc 283e e0d9 1dbe 5596 3d3e 78d8 53bd
00000330: 77e4 04be 13c3 ad3e 7384 463e 5b10 ff3c
00000340: 5f56 153c 87e1 393e 8205 523d d5d5 5bbd
00000350: 953b ae3d a611 00bd 2f43 ed3d f1f6 be3d
00000360: 5eed 3bbd b7be b93e d11d d3bd 7eb0 bebd
00000370: 0466 663e 763e 22be babf 8fbd 318a 9ebe
00000380: ab42 a33e dfc2 9d3e 1f2d 003e b564 d5bd
00000390: 902f fc3d c7e5 02be 36fc 41bd eb88 cbbd
000003a0: eb3a 76bd bbe1 6a3e 9a46 9d3d cdfe b33d
000003b0: 05ca 4bbd 7d38 f0bc 9952 2bbe f7ad 32be
000003c0: 03a1 923d 792b b4be 54ec 863e eecc 003e
000003d0: bb87 c43d 6ccf 8abe bc63 6fbe e6d2 80be
000003e0: 8b56 783e e258 cc3d 5779 23be 93e1 303d
000003f0: a53e 1dbd 6e7f 43bd 1783 ebbd 07d7 85be

actor_logit.actor_3.bias f4 [64]
0.0075108767 -0.0070580384 0.0 -0.003307086 -0.002281128 0.0056254463 0.020212032 -0.008145682
-0.0018860946 0.0046910816 -0.009342384 0.042650726 0.004396552 0.0102938935 -0.0019185273 -0.008670147
-0.00016583472 -0.0016222537 -0.0016496325 0.0064521157 -0.004797266 0.0035399473 -0.0025018372 -0.0057674143
0.00019990174 -0.0017247483 0.0052711517 0.007133066 -0.0017959018 0.0012944625 0.013935057 0.005245845
-0.00061387994 -0.0036128424 0.0039374917 0.004371227 -0.0046449727 0.007230884 -0.00036844757 0.009277705
-0.005453522 2.7925485e-05 0.00605111 -0.006582482 0.0011944881 -0.005040429 0.004111659 0.011083148
-0.0059401514 0.010551806 0.0015296282 -0.006452781 -0.00783999 -0.013811731 -0.0035953848 -0.0083851395
0.0 0.00264072 0.015675476 0.002054479 -0.0010763588 -0.004209193 0.0 0.0035985587
00000000: cd1d f63b 1e47 e7bb 0000 0000 b2bb 58bb
00000010: fa7e 15bb aa55 b83b b493 a53c 7775 05bc
00000020: d536 f7ba a5b7 993b cc10 19bc 87b2 2e3d
00000030: f410 903b b8a7 283c 1877 fbba 3b0d 0ebc
00000040: ebe3 2db9 cda1 d4ba 7b38 d8ba 456c d33b
00000050: 6232 9dbb 76fe 673b ddf5 23bb 94fc bcbb
00000060: b79c 5139 f310 e2ba a0b9 ac3b 7fbc e93b
00000070: 7764 ebba f4aa a93a de4f 643c 56e5 ab3b
00000080: c9ec 20ba 70c5 6cbb 1306 813b 833c 8f3b
00000090: db34 98bb 0df1 ec3b 322c c1b9 8401 183c
000000a0: 75b3 b2bb 8641 ea37 6448 c63b dcb1 d7bb
000000b0: 5f90 9c3a 2f2a a5bb 18bb 863b 1896 353c
000000c0: 9aa5 c2bb 7be1 2c3c ce7d c83a da71 d3bb
000000d0: 4d73 00bc 994a 62bc 8ca0 6bbb d361 09bc
000000e0: 0000 0000 ee0f 2d3b db69 803c 70a4 063b
000000f0: 9c14 8dba 45ed 89bb 0000 0000 ccd5 6b3b

critic_value.critic_1.weight f4 [64, 110]
0.10576196 0.009679088 0.19637407 0.15903546 0.015722143 0.3893973 -0.23669763 -0.008609573
0.0278924 0.033286847 -0.044087946 0.17415062 -0.07956351 0.08190107 -0.04937032 0.12574661
0.22015707 0.020825375 0.2695919 0.0144034745 0.25882778 -0.0063176733 -0.08092049 -0.0076492475
-0.15529473 0.03636545 0.2573341 0.25628603 -0.0636663 -0.20272963 -0.08430892 0.09616682
0.12422176 0.12513998 0.1902804 -0.14653103 -0.047376525 -0.1450083 0.051642586 0.103576
0.06588836 0.15637475 0.1364189 0.24360974 0.16263132 0.1701724 0.3112386 0.5711015
0.34081525 0.063535005 -0.19336858 0.034610663 0.13402928 -0.033750348 0.03733433 0.035319887
-0.048386157 0.109738715 0.24280825 0.26782152 0.18190286 0.14739485 0.081526875 0.090858474
0.019455444 0.24168357 -0.2092183 0.056973904 -0.09450923 0.23022643 0.12907438 0.095916934
-0.019113634 -0.00026335183 -0.011172753 -0.09750238 0.21646944 0.03379994 -0.24515298 -0.07527294
-0.11906597 0.15666112 0.121355526 0.14749493 0.041121557 0.07128347 0.2096444 -0.26016927
0.027644847 -0.031310055 0.3132178 0.16304514 0.2757356 0.20914167 0.048657358 0.091891736
-0.17212714 0.041313272 0.13454707 -0.028866874 -0.060407564 -0.034537636 0.0167161 -0.12873961
0.008415838 -0.111695446 0.004396099 -0.22083224 0.006232902 0.008278192 0.24692954 0.15701045
0.07810749 0.17855248 0.15881112 0.11785489 -0.027297033 0.07912392 0.14057727 0.17924152
-0.050063927 -0.09580725 0.037057117 0.27187988 -0.20150433 -0.06456096 0.110182464 0.2782925
0.035953134 0.035690505 0.152378 -0.20793843 0.15830138 0.13199097 0.13844083 0.13075095
0.11734277 0.020147165 0.024429316 0.03058773 0.18395108 -0.08414999 0.35394725 0.2546029
0.31354213 0.10770552 0.004414065 0.19565547 -0.22515889 0.0436148 -0.19248016 -0.18094166
-0.16188641 0.07627621 0.071467325 0.25703713 0.051967375 0.12470681 0.1747993 -0.08249269
0.126794 0.10060122 0.059277814 0.20062704 0.1644226 0.012017447 -0.22355767 0.22679627
0.02948161 -0.02432183 0.2541677 -0.18549234 -0.08246622 -0.2287961 -0.101261444 -0.13772812
-0.1874573 -0.0674637 0.1377933 0.15970959 -0.16855751 -0.25486544 -0.08676145 -0.20912078
0.08319697 -0.09819379 0.08038811 -0.04567135 -0.26264897 -0.020816172 0.110600606 -0.17734432
-0.024465442 0.097943544 0.17409928 0.21175414 -0.0164717 -0.004830957 -0.072418846 -0.05486891
0.0714247 0.09234702 -0.1324932 -0.07272606 0.21587978 -0.07651098 0.03579492 0.10982991
-0.005639974 0.32023022 -0.009771292 0.059116933 0.14116421 0.022476848 0.22877775 0.14256792
0.1272217 0.05665384 0.034416337 0.1073971 0.121459655 -0.27033788 -0.08484272 -0.05834652
0.22106747 0.22849733 0.021163605 0.0614322 0.073605895 0.041147396 -0.31906298 -0.17283563
-0.017390292 0.26146656 0.0091826795 0.0074218637 -0.003615689 -0.013554715 0.091220595 0.09802292
0.063491255 0.16679186 -0.13274202 -0.0005818055 -0.022092039 -0.05701043 0.02411587 -0.085503735
0.22007063 0.24545814 0.011449411 -0.009958323 0.12618175 -0.3304152 -0.0043334654 -0.2812003
00000000: ba99 d83d 0a95 1e3c 4916 493e 31da 223e
00000010: b9cb 803c 155f c73e dd60 72be 2b0f 0dbc
00000020: 9a7e e43c ca57 083d 9095 34bd 8a54 323e
00000030: 32f2 a2bd c0bb a73d 8838 4abd b8c3 003e
00000040: db70 613e fa99 aa3c f307 8a3e 8dfc 6b3c
00000050: 1385 843e 7c04 cfbb a4b9 a5bd 8aa6 fabb
00000060: 9505 1fbe f0f3 143d 4cc1 833e ec37 833e
00000070: 7a63 82bd 5b98 4fbe 28aa acbd 1cf3 c43d
00000080: fa67 fe3d b224 003e ddd8 423e 3b0c 16be
00000090: e30d 42bd 0e7d 14be 2d87 533d a71f d43d
000000a0: 7af0 863d b420 203e 65b1 0b3e d574 793e
000000b0: d388 263e ac41 2e3e aa5a 9f3e b533 123f
000000c0: 567f ae3e a41e 823d 6a02 46be e9c3 0d3d
000000d0: f93e 093e ce3d 0abd e2eb 183d 96ab 103d
000000e0: 9030 46bd b1be e03d baa2 783e e71f 893e
000000f0: be44 3a3e adee 163e 90f7 a63d 0214 ba3d
00000100: 0661 9f3c e67b 773e 523d 56be 785d 693d
00000110: 0e8e c1bd 7ac0 6b3e 132c 043e 1970 c43d
00000120: 3294 9cbc 7c12 8ab9 ec0d 37bc 54af c7bd
00000130: 2aaa 5d3e ce71 0a3d 6209 7bbe b328 9abd
00000140: dcd8 f3bd c66b 203e 3f89 f83d e908 173e
00000150: 146f 283d 11fd 913d 06ad 563e e834 85be
00000160: 7277 e23c f93e 00bd 155e a03e 4ef5 263e
00000170: 372d 8d3e 3c29 563e f04c 473d bc31 bc3d
00000180: 1942 30be 1b38 293d b5c6 093e 397a ecbc
00000190: ec6d 77bd 5677 0dbd 34f0 883c 51d4 03be
000001a0: 95e2 093c 95c0 e4bd 270d 903b d921 62be
000001b0: 5f3d cc3b 41a1 073c 19db 7c3e 59c7 203e
000001c0: d2f6 9f3d 76d6 363e 629f 223e e85d f13d
000001d0: 079e dfbc b90b a23d 7df3 0f3e 178b 373e
000001e0: d50f 4dbd 9736 c4bd 34c9 173d d733 8b3e
000001f0: 2757 4ebe 8938 84bd 58a7 e13d 5b7c 8e3e
00000200: 9843 133d 3530 123d fa08 1c3e d0ed 54be
00000210: c219 223e a428 073e 6fc3 0d3e 94e3 053e
00000220: 6851 f03d ab0b a53c fd1f c83c 1f93 fa3c
00000230: ac5d 3c3e d456 acbd 9338 b53e 505b 823e
00000240: 9888 a03e b694 dc3d dca3 903b e859 483e
00000250: 0d90 66be 6fa5 323d 8519 45be c548 39be
00000260: 8dc5 25be b436 9c3d 765d 923d 5f9a 833e
00000270: bedb 543d 4966 ff3d 96fe 323e edf1 a8bd
00000280: 49d6 013e 0308 ce3d 4bcd 723d 2d71 4d3e
00000290: 665e 283e d3e4 443c 4dec 64be 483d 683e
000002a0: 6b83 f13c 933e c7bc 4522 823e b4f1 3dbe
000002b0: 0de4 a8bd 8649 6abe 2962 cfbd 9a08 0dbe
000002c0: cef4 3fbe 692a 8abd b019 0d3e e98a 233e
000002d0: 579a 2cbe b97d 82be fdaf b1bd c223 56be
000002e0: 2c63 aa3d d319 c9bd 85a2 a43d e211 3bbd
000002f0: ed79 86be ad86 aabc 9282 e23d c099 35be
00000300: c06b c8bc a096 c83d 1547 323e 14d6 583e
00000310: a9ef 86bc 014d 9ebb 5550 94bd 39be 60bd
00000320: 1d47 923d 6f20 bd3d 4cac 07be 67f1 94bd
00000330: 970f 5d3e cab1 9cbd b29d 123d 81ee e03d
00000340: 88cf b8bb 37f5 a33e c517 20bc 9924 723d
00000350: 5a8d 103e 5e21 b83c b744 6a3e 53fd 113e
00000360: 6846 023e db0d 683d 25f8 0c3d 03f3 db3d
00000370: d7bf f83d ba69 8abe 05c2 adbd c3fc 6ebd
00000380: 835f 623e 34fb 693e 4c5f ad3c 55a0 7b3d
00000390: b0be 963d 2c8a 283d 395c a3be d3fb 30be
000003a0: 1676 8ebc f2de 853e f372 163c 1b33 f33b
000003b0: 32f5 6cbb 9814 5ebc ddd1 ba3d 3ec0 c83d
000003c0: b407 823d 7ccb 2a3e 86ed 07be 4e84 18ba
000003d0: 5dfa b4bc c583 69bd a58e c53c 951c afbd
000003e0: 325a 613e 6159 7b3e 4f96 3b3c 3c28 23bc
000003f0: ca35 013e 2e2c a9be beff 8dbb 7cf9 8fbe

critic_value.critic_1.bias f4 [64]
0.076971725 0.04416568 0.0014437279 0.058242694 0.088702835 0.030243803 0.07705253 0.048938137
0.04597975 0.046785824 0.101621315 0.054210573 0.05200971 0.063432075 0.04646535 0.0322337
-0.003955788 -0.02618684 0.0010811515 0.03427653 0.09145852 0.019064952 0.055307254 0.033277214
0.025307398 0.045848552 0.00036670736 -0.013996553 0.0777838 0.0682166 0.004868989 0.064079344
-0.0064503257 0.03562399 0.072943784 0.04993651 0.056460407 -0.0070261355 0.048218805 0.04239405
0.06857086 0.10169774 0.038811762 -0.0075899586 -0.0006576951 -0.0120716635 0.053930037 0.028609436
0.00964308 0.07901481 0.012447929 0.07516318 0.05956288 0.035464708 -0.010459432 0.06891152
0.07853828 0.052460942 0.024345657 0.05635928 -0.0052507147 0.026670864 0.061089575 -0.04433512
00000000: 5aa3 9d3d 12e7 343d 783b bd3a e48f 6e3d
00000010: d5a9 b53d dac1 f73c b8cd 9d3d 5b73 483d
00000020: 4355 3c3d 7ea2 3f3d d61e d03d e80b 5e3d
00000030: 2208 553d ade8 813d 7352 3e3d 7c07 043d
00000040: 8e9f 81bb c985 d6bc 6db5 8d3a 8c65 0c3d
00000050: 9b4e bb3d 1a2e 9c3c dc89 623d b04d 083d
00000060: 7651 cf3c b1cb 3b3d a142 c039 cc51 65bc
00000070: 1d4d 9f3d 25b5 8b3d 0a8c 9f3b 083c 833d
00000080: 415d d3bb 76ea 113d 8d63 953d 3a8a 4c3d
00000090: 0743 673d 7f3b e6bb 1581 453d 62a5 2d3d
000000a0: e16e 8c3d e846 d03d 15f9 1e3d 30b5 f8bb
000000b0: 2c69 2cba 3ac8 45bc bee5 5c3d 565e ea3c
000000c0: 02fe 1d3c 84d2 a13d 66f2 4b3c 27ef 993d
000000d0: 35f8 733d 7143 113d 0a5e 2bbc 7c21 8d3d
000000e0: aed8 a03d 49e1 563d 8b70 c73c fdd8 663d
000000f0: 300e acbb db7c da3c 1039 7a3d be98 35bd

critic_value.critic_2.weight f4 [64, 64]
0.049443647 -0.19088928 -0.10747908 0.0031112698 0.059376605 -0.1412047 0.06133323 -0.058872852
-0.18721992 -0.0010615737 -0.2468229 0.20649551 0.09409653 -0.2608698 -0.25140476 0.089457
-0.399456 -0.07789991 -0.20448346 0.28090975 -0.06579412 -0.20762575 -0.04905341 0.0940988
0.20470549 0.09080785 0.051980183 0.29497507 0.12389991 -0.2637749 -0.089620955 -0.12765123
-0.16918692 0.44955656 0.021515442 -0.27845404 0.111169845 0.09481106 -0.06437417 -0.12308602
-0.35343412 -0.061433066 -0.05548799 -0.054483593 -0.24246772 -0.26889735 0.08242491 -0.1604973
0.15127115 0.119252495 0.18105136 0.071921594 0.039395753 -0.27162778 -0.15370196 -0.006948576
-0.008990813 0.20814605 0.02947042 0.21447027 -0.19927813 -0.14571318 -0.2535176 0.025648076
0.28683677 -0.030775277 0.10901009 0.0789418 0.13450356 0.07992985 0.029429229 0.40645048
-0.063376926 0.33709908 0.122135475 -0.189945 0.024267135 -0.056708474 -0.029020347 0.050049912
0.22767133 0.00082629954 0.3136799 0.20529744 0.53948766 -0.26972103 0.087842025 0.40992475
-0.04048803 0.21869084 0.3554505 -0.1918243 0.15561472 0.12664026 0.12005014 0.2737122
-0.15422627 0.09447787 -0.045933615 0.08914254 0.13865015 0.05302524 -0.013283459 0.09452517
0.11058312 0.05588348 -0.06468767 -0.00043680394 -0.17907475 -0.07505609 -0.20894997 0.18108077
0.006828535 0.39298165 0.0073370202 -0.06903668 -0.4352133 -0.051740807 0.017961593 0.010615118
0.12571223 0.28487447 -0.067669466 0.18118517 -0.044165485 0.13063411 0.22881809 -0.011958284
0.26513737 0.08336585 -0.07104145 -0.17526859 0.3307078 0.32455066 0.2239861 0.3798545
0.12429289 0.26920515 -0.17125031 0.30386293 0.03238732 -0.026625734 0.18048528 0.030205848
0.1299766 0.07115315 0.035621602 0.02495206 0.13520333 0.14462419 0.0812756 -0.17929727
-0.327992 0.084560215 -0.052585628 -0.07423261 0.13388482 -0.005006629 0.18542391 0.0024328814
-0.05001432 0.14537196 0.13571948 0.020520497 0.21260674 0.10938854 0.3457019 0.070330836
0.09850314 -0.2404824 0.15641016 0.17587788 -0.05419852 -0.065074354 0.32140183 -0.30338714
-0.12504095 -0.12136678 -0.37960207 0.09515846 0.3784499 0.28201687 0.21652938 -0.16273758
0.16398326 0.27232495 -0.118902504 -0.02981859 -0.24135564 -0.3875273 0.15978608 -0.36227226
-0.2436198 0.25712383 -0.2438819 0.08781405 0.13074145 -0.26019526 -0.18420744 0.33529198
0.13474904 0.056107394 0.054145604 0.051541056 -0.023294246 0.18933268 0.22607672 -0.21851662
0.08104515 -0.2018982 0.3812353 -0.027493633 -0.1990477 -0.009166388 -0.5234827 0.3811985
0.03761934 0.0103574805 0.3080259 -0.092923164 -0.08267281 -0.035654053 0.22114292 -0.17335504
-0.27496392 -0.037992727 0.005646489 -0.03505929 -0.15870501 0.024175549 0.08438892 -0.07941575
-0.017382856 0.30534264 -0.05494052 0.3083648 -0.19863053 0.08129054 0.02937134 0.012672766
0.032499645 0.19322468 0.2695833 -0.016183922 0.3060421 0.14562753 -0.29396054 0.06162075
-0.103672944 0.03335884 0.036260106 -0.015055088 0.24149051 0.10625856 -0.0834838 -0.045158815
00000000: 6c85 4a3d 7b78 43be fe1d dcbd 72e6 4b3b
00000010: e234 733d f797 10be 8e38 7b3d a924 71bd
00000020: 94b6 3fbe 8124 8bba 24bf 7cbe 8f73 533e
00000030: aeb5 c03d ba90 85be 20b8 80be 3b35 b73d
00000040: 7f85 ccbe fd89 9fbd 1d64 51be 67d3 8f3e
00000050: 11bf 86bd d89b 54be 3aec 48bd dfb6 c03d
00000060: 519e 513e 77f9 b93d 2ce9 543d f906 973e
00000070: 3cbf fd3d 810d 87be 318b b7bd 01b7 02be
00000080: 563f 2dbe 472c e63e 2741 b03c 8791 8ebe
00000090: 04ad e33d 4d2c c23d 9bd6 83bd 8614 fcbd
000000a0: 51f5 b4be 3da1 7bbd 6047 63bd 302a 5fbd
000000b0: 7549 78be eaac 89be 64ce a83d 6759 24be
000000c0: d3e6 1a3e a73a f43d 8765 393e a14b 933d
000000d0: 715d 213d cc12 8bbe 0c64 1dbe e1b0 e3bb
000000e0: 344e 13bc 3d24 553e f36b f13c 189e 5b3e
000000f0: 910f 4cbe d635 15be 0fcd 81be ea1b d23c
00000100: 45dc 923e 6f1c fcbc af40 df3d 3dac a13d
00000110: 4dbb 093e 43b2 a33d 9115 f13c 471a d03e
00000120: c3cb 81bd 4098 ac3e 2a22 fa3d f180 42be
00000130: dfcb c63c 2547 68bd 14bc edbc 2301 4d3d
00000140: ac22 693e 069c 583a a79a a03e 7e39 523e
00000150: dd1b 0a3f e018 8abe 85e6 b33d a8e1 d13e
00000160: c7d6 25bd 7ef0 5f3e 9cfd b53e 976d 44be
00000170: 7759 1f3e fcad 013e d9dc f53d 0124 8c3e
00000180: 7eed 1dbe 9d7d c13d e324 3cbd 5d90 b63d
00000190: 4efa 0d3e fe30 593d dda2 59bc 6a96 c13d
000001a0: 6779 e23d 13e6 643d f87a 84bd d502 e5b9
000001b0: 5f5f 37be 02b7 99bd fbf6 55be 3d6d 393e
000001c0: e7c1 df3b e434 c93e 636b f03b 1a63 8dbd
000001d0: 47d4 debe 2bee 53bd 3124 933c 08eb 2d3c
000001e0: b5ba 003e 11db 913e 4a96 8abd 9b88 393e
000001f0: dee6 34bd f3c4 053e 4a4f 6a3e aeec 43bc
00000200: 16c0 873e b7bb aa3d 2e7e 91bd 9c79 33be
00000210: 8852 a93e 812b a63e 9d5c 653e 4a7c c23e
00000220: 458d fe3d 42d5 893e 3e5c 2fbe ec93 9b3e
00000230: 91a8 043d 361e dabc 22d1 383e 4172 f73c
00000240: 9618 053e beb8 913d f5e7 113d 4368 cc3c
00000250: be72 0a3e 5d18 143e d273 a63d b499 37be
00000260: 91ee a7be e82d ad3d 0764 57bd 4407 98bd
00000270: 1a19 093e a60e a4bb c4df 3d3e fa70 1f3b
00000280: d1db 4cbd 63dc 143e 0cfa 0a3e 9a1a a83c
00000290: 95b5 593e 1907 e03d d7ff b03e 9d09 903d
000002a0: 04bc c93d 0541 76be fc29 203e 5519 343e
000002b0: 44ff 5dbd b445 85bd c88e a43e 8f55 9bbe
000002c0: bc0a 00be 258f f8bd 345b c2be 70e2 c23d
000002d0: 2fc4 c13e 8464 903e e1b9 5d3e aea4 26be
000002e0: 3aeb 273e 2d6e 8b3e 2883 f3bd 1e46 f4bc
000002f0: ef25 77be fa69 c6be f69e 233e c07b b9be
00000300: 7877 79be bca5 833e 2dbc 79be dad7 b33d
00000310: 16e1 053e 5038 85be e0a0 3cbe 64ab ab3e
00000320: a7fb 093e ded0 653d c8c7 5d3d b71c 533d
00000330: 93d3 bebc 6de0 413e a880 673e d2c2 5fbe
00000340: 00fb a53d 67be 4ebe 4631 c33e 543a e1bc
00000350: 29d3 4bbe 9e2e 16bc f602 06bf 732c c33e
00000360: bd16 1a3d 6cb2 293c 92b5 9d3e 804e bebd
00000370: 5d50 a9bd fc09 12bd 4a73 623e fc83 31be
00000380: 12c8 8cbe 439e 1bbd 2f06 b93b 549a 0fbd
00000390: 9183 22be cd0b c63c 19d4 ac3d baa4 a2bd
000003a0: 7e66 8ebc df55 9c3e 5009 61bd fee1 9d3e
000003b0: cd65 4bbe a87b a63d 2a9c f03c 6fa1 4f3c
000003c0: 591e 053d b1dc 453e d306 8a3e 2594 84bc
000003d0: 8db1 9c3e 621f 153e ff81 96be 0a66 7c3d
000003e0: 7b52 d4bd 47a3 083d 7a85 143d 9ea9 76bc
000003f0: 4a49 773e 179e d93d 8ef9 aabd 73f8 38bd

critic_value.critic_2.bias f4 [64]
0.0 0.059267517 0.05978212 0.028624255 -0.01779592 0.024293508 0.038443193 0.0
0.0116793 0.020733869 0.058454603 -0.0023587458 0.020132976 0.04748481 0.033473745 0.015436479
0.080743425 -0.018246336 0.051919732 0.04207409 0.06574467 0.06548802 0.06528504 -0.0054811193
0.01927608 0.036891975 0.040146355 0.041896664 0.022739567 -0.012367176 0.06746865 -0.016630372
0.042452976 0.038863365 0.06257563 0.04564283 0.054698862 0.056552887 0.048913125 0.018414471
0.042647652 0.021310836 0.04725479 0.0060434793 -0.00069698854 0.0861302 0.08163389 0.035935286
0.042759646 -0.0054405876 -0.014203713 0.04522903 0.074547626 0.0 0.03517185 0.043627825
-0.019409861 0.04623233 0.08284816 0.09038568 0.045650743 0.045729585 0.020807553 0.04402561
00000000: 0000 0000 7fc2 723d 19de 743d 6a7d ea3c
00000010: c0c8 91bc 2e03 c73c 9c76 1d3d 0000 0000
00000020: 895a 3f3c 13da a93c 186e 6f3d 3095 1abb
00000030: e9ed a43c 6f7f 423d c41b 093d 49e9 7c3c
00000040: cf5c a53d 5779 95bc c9a9 543d e255 2c3d
00000050: 24a5 863d 951e 863d 2ab4 853d f69a b3bb
00000060: dfe8 9d3c 0a1c 173d 8170 243d d69b 2b3d
00000070: 5448 ba3c b29f 4abc 012d 8a3d 6b3c 88bc
00000080: 2ce3 2d3d 312f 1f3d a727 803d faf3 3a3d
00000090: ea0b 603d 00a4 673d 2159 483d f2d9 963c
000000a0: 4eaf 2e3d 1094 ae3c 3d8e 413d 6108 c63b
000000b0: 1cb6 36ba 0865 b03d ab2f a73d e130 133d
000000c0: bd24 2f3d f546 b2bb b1b6 68bc 1342 393d
000000d0: 6dac 983d 0000 0000 5c10 103d 17b3 323d
000000e0: 6e01 9fbc 1d5e 3d3d 4cac a93d 211c b93d
000000f0: 46fc 3a3d f24e 3b3d 9a74 aa3c 3354 343d

critic_value.critic_3.weight f4 [64, 64]
0.43053535 0.03593757 -0.033658843 -0.010793478 0.01718934 -0.31877115 -0.023240313 -0.036777847
0.09250428 0.271044 0.17365867 0.04250001 -0.12471589 0.24635777 -0.1685052 -0.15719509
0.12610665 -0.3711664 0.24541213 0.3235263 0.24410775 -0.08859943 0.042103536 0.041338243
0.21125527 0.1551217 -0.045630567 -0.36232144 -0.02769864 -0.122116975 0.14891008 -0.23905398
0.25178897 0.14103109 0.002538695 0.05107892 -0.17159034 0.35043794 -0.17114162 0.11140701
-0.042828362 -0.13936238 0.3056294 0.24510926 0.07039231 0.1124159 0.044443015 0.31082848
0.05806211 -0.19158974 -0.25507298 0.26948753 0.3473813 -0.0009608648 -0.17028038 -0.13420022
-0.042127043 0.21489383 -0.07897694 -0.07415972 -0.1712197 0.24128498 -0.06382917 0.13705938
-0.07423695 -0.0131552555 0.028702237 -0.28876927 0.011257307 -0.16288215 0.23838773 -0.0190912
0.2599564 -0.06796975 0.10307875 0.05763625 0.01673463 -0.021634132 0.1203164 0.059391525
0.021954041 0.088252835 0.104681164 -0.15613347 0.27583158 -0.093660876 0.1438869 -0.09192318
0.22985063 -0.1267606 -0.03434067 0.07146333 -0.12884262 -0.19635211 -0.3340378 -0.06555209
0.27881306 0.091684856 0.027454088 -0.10478426 0.02558778 0.12228848 -0.19495946 -0.06437221
0.36275133 -0.14988367 0.16156183 0.10331358 -0.05587499 0.69900495 0.415761 -0.04007916
0.24593507 0.13475454 -0.16809778 -0.021858279 0.108977586 -0.45446727 0.3008473 0.020402037
-0.019126698 0.21986783 -0.071018815 0.2765875 -0.033033174 0.0067411554 0.03899883 0.06497642
0.017443653 -0.093023054 0.08422554 -0.34714782 -0.30715412 0.06804376 0.17162159 0.20684046
0.08860459 -0.18956062 0.2315186 -0.183081 0.07864442 0.1330312 0.038994636 0.14506519
0.4975727 -0.21690653 -0.0427465 0.2699343 -0.109697245 0.2798596 0.055682804 -0.08245851
0.36139986 0.24672191 0.39029148 -0.027832163 0.07224883 0.21541986 0.22712459 0.14661568
0.09349634 -0.18192036 -0.17213689 -0.1339645 -0.00051103847 -0.20236365 -0.18997446 -0.07604885
-0.21319498 0.23174125 0.27477956 -0.021965664 0.08853436 0.17379697 0.33355024 0.24960828
0.13083796 -0.10920343 0.21043713 0.07060486 0.16898987 -0.08572797 0.11193779 -0.071187295
0.102137685 0.096445516 0.04305944 0.024013815 0.26295483 0.23413764 0.09972685 -0.11991345
0.11292725 -0.010252555 0.006360297 -0.2411441 -0.1352703 0.110576354 0.14340492 0.09979632
0.04526427 0.2563634 -0.19575152 -0.10396531 -0.09162023 -0.01004068 -0.23599942 0.16096799
0.37548497 -0.06289073 0.24171865 -0.019719554 -0.19507456 -0.26387823 0.21988782 0.34025136
0.07106982 0.09890764 0.14624621 0.17831516 0.33655417 0.07333268 -0.0616755 -0.2106474
0.24200474 -0.13811055 0.17246868 0.23682296 0.5032896 0.17192532 0.059949953 0.035587307
0.041529343 0.011911853 0.17985004 -0.123755954 0.31282938 0.046121225 -0.09625322 0.10921477
-0.0071038585 0.13610101 -0.03375573 0.009702494 0.17027017 0.0821164 0.14447187 0.100656554
-0.15951921 0.20433354 0.10273657 0.6531654 -0.20816217 0.06263128 -0.12661085 0.013649525
00000000: 216f dc3e 4633 133d dbdd 09bd 21d7 30bc
00000010: a9d0 8c3c f935 a3be 7862 bebc 5ea4 16bd
00000020: e272 bd3d 47c6 8a3e 94d3 313e 7e14 2e3d
00000030: 0b6b ffbd 3645 7c3e a18c 2cbe c0f7 20be
00000040: 1a22 013e 8609 bebe 514d 7b3e 3da5 a53e
00000050: 62f7 793e 9e73 b5bd c274 2c3d 4a52 293d
00000060: 4d53 583e 39d8 1e3e 1ee7 3abd 3282 b9be
00000070: 42e8 e2bc 7718 fabd e27b 183e 91ca 74be
00000080: 7cea 803e 746a 103e 3c60 263b 2138 513d
00000090: 61b5 2fbe 9a6c b33e c03f 2fbe 5c29 e43d
000000a0: cb6c 2fbd 03b5 0ebe 757b 9c3e ecfd 7a3e
000000b0: d829 903d 4f3a e63d e109 363d e924 9f3e
000000c0: 89d2 6d3d 1a30 44be ed98 82be 45fa 893e
000000d0: f6db b13e 8ce2 7bba fb5d 2ebe c86b 09be
000000e0: 688d 2cbd 210d 5c3e a9be a1bd 0de1 97bd
000000f0: 3854 2fbe 6913 773e deb8 82bd 4b59 0c3e
00000100: 8b09 98bd 2489 57bc f420 eb3c 91d9 93be
00000110: 9170 383c 94ca 26be ea1b 743e 2665 9cbc
00000120: 0119 853e b933 8bbd f41a d33d fd13 6c3d
00000130: 1017 893c 103a b1bc 7268 f63d 8744 733d
00000140: f6d8 b33c e7bd b43d 1463 d63d 74e1 1fbe
00000150: cc39 8d3e 46d1 bfbd 1657 133e 3842 bcbd
00000160: f75d 6b3e 88cd 01be cda8 0cbd 5e5b 923d
00000170: 52ef 03be 8710 49be 0107 abbe 2d40 86bd
00000180: 96c0 8e3e 45c5 bb3d 65e7 e03c 2199 d6bd
00000190: 779d d13c 6272 fa3d 74a3 47be 94d5 83bd
000001a0: 8bba b93e 1b7b 19be 7770 253e 1296 d33d
000001b0: 2cdd 64bd fdf1 323f a0de d43e 0c2a 24bd
000001c0: 67d6 7b3e 18fd 093e d321 2cbe 2210 b3bc
000001d0: a42f df3d efaf e8be a808 9a3e 2c22 a73c
000001e0: 98af 9cbc 0825 613e 5072 91bd e09c 8d3e
000001f0: cb4d 07bd e9e4 dc3b 3dbd 1f3d 5b12 853d
00000200: fee5 8e3c df82 bebd 717e ac3d 5cbd b1be
00000210: 4e43 9dbe 875a 8b3d 92bd 2f3e fccd 533e
00000220: 5376 b53d 2e1c 42be 3613 6d3e 9679 3bbe
00000230: 5310 a13d 5539 083e d7b8 1f3d f88b 143e
00000240: d9c1 fe3e bf1c 5ebe f416 2fbd d434 8a3e
00000250: f3a8 e0bd c249 8f3e a713 643d 02e0 a8bd
00000260: 6709 b93e aba4 7c3e 49d4 c73e 4700 e4bc
00000270: 32f7 933d 0697 5c3e 5993 683e 6c22 163e
00000280: 027b bf3d 5549 3abe a744 30be fd2d 09be
00000290: 36f7 05ba 6b38 4fbe aa88 42be 80bf 9bbd
000002a0: c94f 5abe 944d 6d3e e8af 8c3e 56f1 b3bc
000002b0: 8151 b53d d5f7 313e 19c7 aa3e 5099 7f3e
000002c0: 63fa 053e 0ca6 dfbd d57c 573e 4899 903d
000002d0: ae0b 2d3e 2592 afbd a43f e53d a5ca 91bd
000002e0: 902d d13d 3a85 c53d 185f 303d 9fb8 c43c
000002f0: 04a2 863e c7c1 6f3e 973d cc3d 2f95 f5bd
00000300: 6746 e73d 55fa 27bc 0a6a d03b 7bee 76be
00000310: 4c84 0abe db75 e23d bdd8 123e 0362 cc3d
00000320: 0767 393d 1042 833e 1673 48be c4eb d4bd
00000330: 63a3 bbbd aa81 24bc d5a9 71be cbd4 243e
00000340: 913f c03e dbcc 80bd 1885 773e e78a a1bc
00000350: a0c1 47be 0c1b 87be 462a 613e 6d35 ae3e
00000360: 0e8d 913d 1790 ca3d 91c1 153e 4098 363e
00000370: d450 ac3e 722f 963d 739f 7cbd f4b3 57be
00000380: 17d0 773e da6c 0dbe a19b 303e b881 723e
00000390: 96d7 003f 310d 303e 158e 753d ffc3 113d
000003a0: ac1a 2a3d ef29 433c 9c2a 383e c373 fdbd
000003b0: 2c2b a03e 9ce9 3c3d 6920 c5bd feab df3d
000003c0: 7cc7 e8bb 105e 0b3e 7343 0abd 36f7 1e3c
000003d0: 4e5b 2e3e a52c a83d 6ff0 133e 0625 ce3d
000003e0: 0159 23be d03c 513e 8d67 d23d d935 273f
000003f0: 7728 55be d444 803d 46a6 01be 42a2 5f3c

critic_value.critic_3.bias f4 [64]
0.028032435 0.037705977 0.024319224 0.022266412 0.0 0.047417104 0.034289602 0.027541269
0.025840353 -0.00042403385 0.049304783 0.070198655 0.003976981 0.0023348944 -0.0029292458 0.022952458
0.03416167 -0.012284587 -0.0033244619 -0.0027443676 0.056338303 0.025841618 -0.0073200073 0.028645603
-0.020298677 0.04228072 0.02688369 0.033612322 -0.019056527 0.025141679 0.053682797 0.03200443
-0.010933232 0.021741612 0.034427457 0.020855688 0.050613876 -0.008737891 0.05393896 0.027957316
-0.026105992 0.0007159331 0.03807791 0.016870694 0.022182444 0.042825285 0.043172255 0.045640685
0.029683588 0.026883205 0.022313382 0.033276994 0.03611151 0.023322733 0.049582187 -0.01125735
0.0284268 0.020919392 0.023598835 0.040300258 -0.015356602 0.021063184 -0.006902139 0.04377134
00000000: 47a4 e53c 9571 1a3d 1c39 c73c 0d68 b63c
00000010: 0000 0000 7038 423d 4173 0c3d 3a9e e13c
00000020: 26af d33c dc50 deb9 d0f3 493d 50c4 8f3d
00000030: 5651 823b 0705 193b 97f8 3fbb cb06 bc3c
00000040: 1bed 0b3d 4b45 49bc 37df 59bb d9da 33bb
00000050: fec2 663d cdb1 d33c acdc efbb 2faa ea3c
00000060: 6949 a6bc 8c2e 2d3d 2f3b dc3c 13ad 093d
00000070: 6f1c 9cbc ecf5 cd3c 7ee2 5b3d 1417 033d
00000080: 4c21 33bc 771b b23c ce03 0d3d 8cd9 aa3c
00000090: 7f50 4f3d 5f29 0fbc 19ef 5c3d be06 e53c
000000a0: 3cdc d5bc 75ad 3b3a 95f7 1b3d 6934 8a3c
000000b0: f5b7 b53c 9169 2f3d 64d5 303d baf1 3a3d
000000c0: ff2a f33c 2b3a dc3c 8eca b63c 754d 083d
000000d0: aae9 133d 510f bf3c b116 4b3d c070 38bc
000000e0: 52df e83c 255f ab3c 5852 c13c e211 253d
000000f0: 429a 7bbc b38c ac3c 572b e2bb 9449 333d

critic_value.critic_output.weight f4 [1, 64]
-0.33568192 -0.13853952 -0.14112398 -0.21593624 -0.033044927 -0.11086249 0.24136168 -0.13576074
-0.30381316 0.28386906 -0.14765334 0.2741322 0.20696314 0.21594712 0.010638693 -0.070710845
-0.25978658 0.027022693 0.023760362 0.09216191 0.36589214 0.32930118 0.07634918 -0.09528933
-0.052193314 -0.19032902 -0.53439546 -0.15309803 0.12501495 0.40092006 -0.21759446 -0.3962207
0.21575347 -0.10122974 -0.09252705 -0.115959115 -0.22460206 0.2566821 0.13977951 -0.12023173
0.017124929 0.376043 -0.24463356 0.3636742 -0.07974657 -0.18634929 0.32814303 0.22608097
-0.1476764 -0.37937793 -0.07278759 -0.10211257 -0.3149083 -0.11553195 -0.37622485 0.101712875
-0.18687375 -0.11988705 -0.4026228 -0.2472398 0.15083413 -0.45079693 0.112138994 0.13974802
00000000: 80de abbe 4edd 0dbe ce82 10be 641e 5dbe
00000010: 1e5a 07bd e00b e3bd 8427 773e dd04 0bbe
00000020: 668d 9bbe 4957 913e 7032 17be 0e5b 8c3e
00000030: 25ee 533e 3e21 5d3e ea4d 2e3c d9d0 90bd
00000040: bf02 85be b25e dd3c 17a5 c23c 62bf bc3d
00000050: 3756 bb3e 2a9a a83e f55c 9c3d 0d27 c3bd
00000060: a8c8 55bd 9ce5 42be 24ce 08bf bbc5 1cbe
00000070: eb03 003e 6545 cd3e 15d1 5ebe 71dd cabe
00000080: 7aee 5c3e 8a51 cfbd d27e bdbd f97b edbd
00000090: 15fe 65be d66b 833e 5c22 0f3e 0e3c f6bd
000000a0: 9449 8c3c b588 c03e 3881 7abe 8133 ba3e
000000b0: 2b52 a3bd 59d2 3ebe 5d02 a83e c581 673e
000000c0: 7b38 17be d33d c2be a911 95bd 6520 d1bd
000000d0: a93b a1be 049c ecbd 8ba0 c0be d74e d03d
000000e0: d55b 3fbe 5787 f5bd 9324 cebe 6e2c 7dbe
000000f0: 4374 1a3e dbce e6be 21a9 e53d 1b1a 0f3e
