results/model_1661312075.6494646/network_20.pth (torch, 130543 bytes, 16 tensors)

feature_net.act_cnn1.weight f4 [1, 1, 5, 1]
000000 68 74 02 3f d3 47 e9 3e 9e a2 eb 3c 4b 6d 9d bf
       0.5095887 0.4556261 0.028764065 -1.2298979
000010 45 a3 84 3e
       0.25905815

actor_logit.actor_1.weight f4 [64, 110]
000000 14 f6 1f 3e e9 5b f6 bd cb e0 d4 bd 22 e0 01 3d
       0.15621215 -0.12029249 -0.10394438 0.03170789
000010 4a 42 9f 3d 61 dc 28 bd 73 b5 06 be e0 25 38 3c
       0.077763155 -0.041225795 -0.13155155 0.011239499
000020 7d 34 31 3e f9 76 b6 3d 87 86 fe 3d 14 e7 05 bf
       0.17305179 0.08909411 0.12428003 -0.5230572
000030 1a 78 6a 3d 15 c2 f7 bd d2 6b ac bd 75 b9 55 be
       0.057243444 -0.12097565 -0.084190026 -0.20871527
000040 43 1d 99 3d 8e 3d b4 3e 94 d4 9e be fd 8c 2b 3c
       0.07476284 0.35203212 -0.3102156 0.010470626
000050 50 42 2b 3d 43 96 3e bb 2d 8c 27 3e 42 3c cf 3d
       0.041811287 -0.0029081262 0.16362067 0.10118915
000060 8e b4 a8 bc be 06 aa 3d b3 4e 71 3d ad 66 c6 3d
       -0.020593908 0.08302067 0.058912944 0.096875526
000070 0d bb 17 be bc dc f1 bd a5 f5 a0 3d 8e 0d da 3a
       -0.14817448 -0.1180968 0.07859353 0.001663612
000080 fc 61 c6 3c 22 b8 10 3d 5f b1 b0 3d f2 27 fb 3d
       0.024216644 0.035331853 0.08627581 0.12263478
000090 11 6b 52 3d e3 8e a3 bd 72 27 d5 3d 09 12 2e 3e
       0.051371638 -0.07986238 0.10407914 0.16999067
0000a0 a5 28 b4 3d c7 07 6c be d9 75 74 be 5b af b0 3c
       0.08796815 -0.23049842 -0.2387308 0.021567991
0000b0 e1 bb 0d be 66 a5 22 be f6 07 84 3c 88 ef 1a bd
       -0.13841201 -0.15883407 0.016117077 -0.03782609
0000c0 ae 79 05 be de 53 8f 3d 41 d5 f5 3c 0d 39 28 be
       -0.13034698 0.06998418 0.030008914 -0.16428013
0000d0 50 b0 0d 3e fa 2c d7 bd cb 2a 84 3d ab 5d be bd
       0.13836789 -0.105066255 0.064534746 -0.092952095
0000e0 5b 06 0d 3e 0e 26 e5 3c 5f 09 88 3c 57 1f 07 bc
       0.13771956 0.027972247 0.016606031 -0.008247218
0000f0 12 68 c8 bc 23 4d 56 3d 0d 3a 0e 3e 7c 27 a5 3d
       -0.024463687 0.052319657 0.13889332 0.08064172
000100 26 45 32 3e 5a 04 14 ba dd aa 82 3e ee f7 3b 3d
       0.1740919 -0.00056464004 0.25520983 0.04589074
000110 4e 57 dd 3d 0d 64 64 be 28 32 fb bd b5 79 79 3e
       0.10807668 -0.22303791 -0.12265426 0.24362834
000120 50 0a 86 3e af 6c 48 3e e2 36 ec 3d 45 53 aa 3c
       0.26179743 0.1957271 0.115339056 0.02079166
000130 d6 f3 a6 3d 42 71 31 be 91 63 1c 3e 8e e9 a0 3c
       0.08151977 -0.1732836 0.15272357 0.019642618
000140 8c 13 b8 bd 72 51 3f 3e d9 4c 46 3c 5f 75 1c bd
       -0.08988103 0.18683413 0.012103283 -0.03819787
000150 04 19 39 be f9 95 89 bd b5 2c 86 bd d5 f1 82 be
       -0.18075949 -0.06718058 -0.06551496 -0.25575128
000160 76 30 cb 3d fe 7a 4e 3d 4e ed 97 3d c4 83 b4 bd
       0.099213526 0.050410263 0.07418309 -0.08814195
000170 ae da ba bd 86 d9 9d bd a9 1f 50 bd 99 cb e4 ba
       -0.09123741 -0.07707505 -0.050811443 -0.0017455696
000180 95 fd 4f be a4 69 e4 3d cf 99 bf bd 76 15 30 bd
       -0.20311578 0.11152962 -0.093555085 -0.042989217
000190 c5 89 50 be 36 f5 b4 bd 92 42 79 3d 22 fd 27 bd
       -0.20365055 -0.08835833 0.060854502 -0.04101289
0001a0 4e c3 14 be 1c 0e f3 3c 81 76 9a bd fa d6 28 3e
       -0.14527628 0.029669814 -0.07542134 0.16488257
0001b0 3a 7d 0f be 06 09 2f bd d0 0e 18 3e b7 37 1f 3e
       -0.14012614 -0.042733215 0.148494 0.15548597
0001c0 4c bf 0f bc e9 fb 76 3e d3 46 40 bc c8 4b 74 be
       -0.008773636 0.24119534 -0.011735636 -0.23857033
0001d0 44 78 56 bd f6 7a 1f bc d5 30 d4 be cd 5f 1e 3e
       -0.052360788 -0.009733906 -0.41443506 0.15466233
0001e0 70 d3 83 3e d1 84 13 3e d1 f3 94 bd 34 2e 02 be
       0.25747252 0.14406134 -0.07273067 -0.12712938
0001f0 c9 cd ac 3d c9 44 90 bc f9 14 06 3d 1b 92 c9 bd
       0.08437688 -0.017610924 0.032734845 -0.098423205
000200 38 91 69 bd c4 bd 5c be 11 34 5d bd 52 ab 9f 3d
       -0.057023257 -0.21556765 -0.054004733 0.07796349
000210 4b 50 2c 3d d3 18 75 ba 11 a4 86 bd ae b5 72 bd
       0.04206876 -0.00093497074 -0.06574262 -0.059255295
000220 9c 3f 82 bb 84 0e 7a 3d 63 4e cb bd 54 0e 6e 3d
       -0.003974868 0.061049 -0.099270605 0.058119133
000230 2a 30 e3 bd 53 f6 92 3d 8b 9b fc bd 44 2f 71 bd
       -0.11093171 0.07175889 -0.12334355 -0.058882967
000240 02 83 1b be a3 c9 d0 bc 1a 1d ca 3c 1b 5e 36 bd
       -0.15186694 -0.025486773 0.02467208 -0.04452334
000250 c0 b6 42 be 14 d0 b9 bd 1b 47 27 be 87 bd 6a bd
       -0.19015026 -0.09072891 -0.16335718 -0.057309654
000260 18 56 1c bd bc 60 2f 3d 01 28 8b be 10 a3 cb bd
       -0.038168043 0.042816862 -0.27178958 -0.09943211
000270 d0 62 6d be 14 c0 0f bc 66 16 f9 3d 27 3e 1b bd
       -0.23182225 -0.008773822 0.12162475 -0.03790107
000280 98 9c 24 be 6a 63 01 3e c0 ac 04 3e 60 a1 92 3e
       -0.16075361 0.1263558 0.12956524 0.28638744
000290 86 40 ec bd 10 d3 c9 bb 00 12 87 bc df db 00 3e
       -0.11535744 -0.006159194 -0.016488075 0.12583874
0002a0 00 f4 97 bd 0c b8 f8 bc 37 65 ae bc f9 4c cb 3d
       -0.07419586 -0.030361198 -0.021288497 0.09926791
0002b0 de 63 53 3e 45 d9 84 3d 78 d7 9a 3e 7b d4 80 3d
       0.20643565 0.064867534 0.30242515 0.062905274
0002c0 25 3a a2 bd a0 95 a0 bd 75 20 70 be 77 c5 99 3d
       -0.079212464 -0.07841039 -0.23449881 0.075083666
0002d0 3c 97 0c 3d ec 27 64 be c9 16 bd bb f7 45 70 bc
       0.034323916 -0.22280854 -0.0057705385 -0.014665118
0002e0 59 f1 59 3c fb 97 ee 3d 2c c9 5e 3c ab 77 bd 3b
       0.013302171 0.11650082 0.013597768 0.005782088
0002f0 db 15 33 bd c4 b8 8e bc d2 ab 8c 3c 79 15 f4 bc
       -0.043722015 -0.017422087 0.017171774 -0.029795395
000300 82 0a e7 3c ec 5a 18 be 1f 73 42 be fb 0b 7d bd
       0.028203253 -0.14878434 -0.18989228 -0.061779004
000310 89 93 dd be cb a6 20 3d ab a3 1a bd 3a d6 f7 bd
       -0.43276623 0.039221566 -0.037753742 -0.12101407
000320 37 90 91 3e 61 0c 82 3d db 9f 30 3e 92 f0 14 bd
       0.2843034 0.06350017 0.1724848 -0.03636224
000330 ac 11 f4 3d fa 60 a2 bd 90 6e 6e be d0 ab fc 3d
       0.11917433 -0.07928653 -0.23284364 0.12337458
000340 31 49 1f 3e bb a6 05 3e 8d 28 0d be 66 c0 39 be
       0.15555264 0.13051884 -0.13785 -0.181398
000350 a7 59 40 3d b6 ae 43 3e ed a2 0c be 91 54 bf 3c
       0.0469605 0.19109616 -0.13734026 0.023355754
000360 5f db 54 be cc 68 c1 3d 84 78 8e 3d bb b6 7e bd
       -0.20786808 0.094438165 0.0695658 -0.062185984
000370 91 4e ad bd 98 78 4c 3e e1 12 0b 3e 29 8f 8a 3e
       -0.08462251 0.19967878 0.1358142 0.27062348
000380 95 e8 99 bd bc fc 8b 3d c4 38 91 3d 86 b0 9a be
       -0.075150646 0.06835315 0.07090905 -0.30212802
000390 16 27 66 3d 89 39 00 3e e5 14 6f 3d 9b b1 4a be
       0.05618962 0.12521948 0.058369536 -0.19794314
0003a0 b2 4f 83 3d fd c0 d3 3d ec 60 a3 bd f9 57 3d 3d
       0.06411685 0.10339544 -0.07977471 0.046226475
0003b0 7c 16 f5 3d 9f 41 1d 3e 00 99 52 3e 50 c3 c4 bb
       0.11967179 0.15357064 0.20566177 -0.0060047284
0003c0 fd d4 e9 3d 2e 7d 28 be ad 9d 18 be 7e 1f 6d bc
       0.114175774 -0.16454002 -0.14903899 -0.01447284
0003d0 41 94 6c be e9 07 38 be 48 67 f1 3d 93 6b e4 3c
       -0.2310343 -0.17971767 0.117872775 0.027883327
0003e0 30 7b 34 be 5e d8 5b bc b2 ce 03 3e 0e 2c 8e bd
       -0.17625117 -0.013418285 0.12871817 -0.069419965
0003f0 25 40 57 3e ae 1c 18 bd 72 3e 2e 3d c6 d8 d9 bb
       0.21020563 -0.037136726 0.04254002 -0.006648156

actor_logit.actor_1.bias f4 [64]
000000 7a 05 89 3c 0a 8f cf bb 66 9c 14 3c 79 f9 06 bc
       0.016726244 -0.0063341903 0.009070491 -0.00823819
000010 23 38 37 3c a0 c4 c4 bb 02 92 13 3d a2 9f 58 bb
       0.011182818 -0.006004885 0.036027916 -0.0033054133
000020 7a b6 e0 bb ba f2 c6 ba a2 9c 5c bb 20 5b 66 bc
       -0.0068576904 -0.0015178539 -0.0033662696 -0.014059812
000030 b8 42 01 3c d1 fb f9 bb 2a b1 83 ba fd 5a f4 3b
       0.007889442 -0.007628896 -0.0010047306 0.0074571357
000040 16 10 81 3c 97 c1 84 3c 95 60 5e bc 94 dc 7c bb
       0.01575474 0.016205592 -0.013572832 -0.0038583623
000050 ca 5c 78 3b e9 a3 b7 3b 3f 01 6e bb ea 78 81 3b
       0.0037897103 0.0056042564 -0.003631666 0.0039511817
000060 a0 73 d1 3b 1a 3a 18 3c 8b b0 b3 bb 5e 33 85 bc
       0.0063919574 0.009291196 -0.005483692 -0.016259845
000070 6f 3c e8 ba 9a a7 d4 bb 92 26 2d 3c a0 10 39 bc
       -0.0017718206 -0.006489706 0.010568278 -0.011295468
000080 6d 25 8d bb ac 88 9e 3a b3 6e 98 3c 7c c0 2c 3c
       -0.00430744 0.0012095175 0.018607473 0.010543939
000090 cf c2 b7 3b d4 57 bb 3b 7c 15 87 3c 17 98 bc b8
       0.00560794 0.005717257 0.016489737 -8.9928675e-05
0000a0 e7 fb eb 3a e0 5f 30 3c 0c e1 af 3b 7e f3 86 3c
       0.001800415 0.010765046 0.005367404 0.016473528
0000b0 4e e7 b2 3c 73 4e 7a 3c 7f fb 33 3c 4a 48 00 bc
       0.02183881 0.015277493 0.010985254 -0.007829735
0000c0 51 08 ff ba a8 77 61 3b 52 4e 5a bb a0 88 18 bc
       -0.0019457435 0.0034403596 -0.0033310843 -0.009309918
0000d0 06 36 bf 3a d8 03 43 3c 9f e0 ce 3c 2b a5 da bb
       0.0014588244 0.011902772 0.025253592 -0.0066725216
0000e0 89 56 79 bb 35 7b a7 ba 7d 96 b9 3b 40 ad 89 bc
       -0.0038045964 -0.0012777807 0.0056636916 -0.016806245
0000f0 d1 12 50 ba af d9 33 bc 62 0e 72 3b df 2b ec bb
       -0.0007937374 -0.010977193 0.0036934842 -0.0072073783

actor_logit.actor_2.weight f4 [64, 64]
000000 6f 4f 65 3d 4a c5 45 3d 15 ee 21 3e 0e b2 08 3e
       0.055983957 0.048283853 0.15813477 0.13349172
000010 e8 4d 8b 3e 65 4e d4 bb 04 9f cc 3d e9 a5 b7 bc
       0.27207875 -0.006479072 0.09991267 -0.02241798
000020 3e 18 1c be 5a 52 af bd d5 f9 8a 3d 96 38 3c be
       -0.15243623 -0.08560629 0.06785933 -0.18380961
000030 05 42 71 be b4 98 5c 3e 31 a4 e0 bd db 7c c6 3d
       -0.2356034 0.21542627 -0.10968817 0.09691783
000040 f3 0c ff 3d 1f 25 95 3e 8b 0e 53 bd c2 74 88 3d
       0.12453642 0.29129884 -0.05152754 0.06662895
000050 ff 46 5e 3e a8 50 2c 3d ea ad 7d 3d b6 80 d9 3d
       0.2170677 0.042069107 0.061933435 0.10620253
000060 45 a2 ba bd c9 c9 ec be c6 58 27 3e d4 84 34 3e
       -0.09112982 -0.462477 0.16342458 0.17628795
000070 b2 fc 07 3e 8b 42 e7 3d b1 56 47 be c3 89 10 3f
       0.1327999 0.11291989 -0.19466664 0.5646021
000080 ac c7 35 3e e0 69 63 be 36 8a bf 3e 62 4d 54 3e
       0.1775195 -0.22208357 0.37410134 0.20732644
000090 93 49 bf bc 2d 0c 32 be 75 e5 90 3d 40 5e 99 bd
       -0.023350513 -0.17387457 0.070750155 -0.0748868
0000a0 34 4c 27 bd d6 9e 45 bc 89 29 44 3d f7 0a d2 bc
       -0.040844157 -0.012061795 0.047891174 -0.025639994
0000b0 ea 9a 1f be 4e db 78 be de ac ec 3d 03 74 80 3d
       -0.15586439 -0.24302408 0.11556409 0.062721275
0000c0 c8 ea 3b bd 17 af 26 3e da b3 79 bd 32 49 4e 3d
       -0.0458782 0.16277729 -0.060962535 0.050362773
0000d0 61 48 1c be 98 b9 83 3e 28 67 3d 3e f1 35 f7 bc
       -0.15261985 0.25727534 0.18496382 -0.030177088
0000e0 44 fe 6c 3e a5 3a b7 bc 2d e9 5d bd 6c 00 9c be
       0.2314387 -0.022366831 -0.054177452 -0.30469072
0000f0 fb 39 95 be 10 e0 49 be be 24 09 3e a6 ed b7 bd
       -0.29145798 -0.1971438 0.13392922 -0.08980875
000100 d0 22 24 be 94 f8 43 bc 0b 08 90 be c8 a4 9d be
       -0.16028905 -0.011961121 -0.28131136 -0.3078978
000110 e0 01 7e bd 75 b6 d2 3c c5 9a ba 3e bc fa bb 3e
       -0.062013507 0.025721768 0.36446205 0.36714733
000120 95 4c 9b bd df 87 98 3e ab bb c0 3d 79 4f 17 3e
       -0.07582966 0.2979116 0.09410795 0.1477641
000130 a9 9a 10 3e 8a 4e d6 bd b8 dc 8f bc 73 b6 d0 3d
       0.14121498 -0.10464199 -0.017561302 0.101910494
000140 9b 6c bc bd 54 b4 01 bd 87 e4 c4 bd 68 f8 fb 3d
       -0.09200402 -0.031666115 -0.09613901 0.12303239
000150 22 cf 34 bc 2e b7 33 3e 64 a5 31 be 05 b3 e0 bd
       -0.011035712 0.17550346 -0.17348248 -0.10971645
000160 93 8c 71 be 32 9c 10 be 65 bd c4 bc 59 7c 6c 3d
       -0.23588781 -0.14122084 -0.024016092 0.057735775
000170 76 b1 b4 3d 10 79 e8 3d a7 61 02 be 1f a9 3f be
       0.088229105 0.11351216 -0.12732564 -0.18716858
000180 28 69 44 3e d6 1d 7d bc dd 14 17 bb 48 69 02 be
       0.19180739 -0.015449008 -0.0023053207 -0.12735474
000190 ab 7b 2b be 25 66 07 be b5 56 fc 3d bd 90 81 bd
       -0.16746394 -0.13222559 0.123212256 -0.06326435
0001a0 12 cc ec be b1 85 e0 bd 5e 22 1a be 1e 71 54 3e
       -0.46249443 -0.109629996 -0.15052173 0.20746276
0001b0 7e 51 15 3e 3c b0 b3 3e a3 cb 57 3e 61 10 2a be
       0.14581868 0.35095394 0.21073775 -0.1660781
0001c0 75 1c 75 3d 71 38 f1 bd 02 3d 84 3e e2 ed 89 bc
       0.059841592 -0.117783435 0.25827795 -0.016837064
0001d0 4b 43 a3 bd 20 87 96 3c 5a c4 81 bd ce e8 2c be
       -0.079718195 0.01837498 -0.06336279 -0.16885683
0001e0 ce 1e 9a 3e e5 4e b4 bd 60 06 9f be 44 db 73 bd
       0.30101627 -0.088041104 -0.3105955 -0.05953528
0001f0 b0 30 71 be 73 e0 d4 3d 8e 75 63 3e 7e 4e 74 be
       -0.23553729 0.10394373 0.22212812 -0.23858067
000200 71 30 2a bc d1 82 05 bc 55 32 b5 3d 3c fd 14 be
       -0.010387526 -0.008148865 0.08847491 -0.14549726
000210 f5 e0 bb 3e 62 6c c7 bc 3f 4d 81 bd 4f 99 fb bd
       0.36695066 -0.024343673 -0.06313562 -0.12285101
000220 b0 55 02 3e c1 73 56 3e d5 cd 9e 3d 17 85 a3 3c
       0.12728 0.20942594 0.07754103 0.019960923
000230 94 c8 36 3e e9 1a 29 bc 7b c2 df bd a3 68 fe 3d
       0.17849952 -0.010321357 -0.10925766 0.124223016
000240 7e fb eb 3e 57 2c 03 be 32 36 dd 3a ca 05 08 be
       0.4609031 -0.12809883 0.0016877113 -0.13283458
000250 be a1 2e be 61 b0 cf bd 22 5a ae 3d 66 02 8a be
       -0.17053887 -0.101410635 0.08513285 -0.26954955
000260 88 bb 98 3d 97 74 31 3e d6 81 84 3d 2e 9f 19 be
       0.07457644 0.17329632 0.06470077 -0.15002128
000270 2a be 9e bc 71 9c 32 be 1a bc 84 3b 0a b2 3d be
       -0.019377787 -0.1744249 0.0040507438 -0.18524948
000280 28 ce 98 be 19 9a 81 be b3 ca 79 be a9 de aa 3e
       -0.29844785 -0.2531288 -0.2439373 0.33373
000290 2e e9 04 3e d6 cb 83 3d 29 5a 64 3e 3f c9 87 be
       0.12979576 0.06435363 0.22300018 -0.26520726
0002a0 93 fb e9 bd 48 38 b3 3d 14 03 91 3e de 8b 0f 3d
       -0.11424937 0.08750969 0.2832266 0.035045497
0002b0 a2 a6 32 be b2 93 a3 3d 46 06 51 3e b7 4f 36 3e
       -0.17446378 0.07987155 0.2041255 0.17803846
0002c0 4b 56 44 be 26 cd ad 3c c7 82 6c 3d 4d 27 87 be
       -0.19173543 0.021215986 0.057741906 -0.26397172
0002d0 ad 29 a1 be 5e 69 18 be 8f 64 20 3e 5c 04 bd bc
       -0.3147711 -0.14883944 0.1566336 -0.023073368
0002e0 9d ed 74 be 56 6e fc bd 6e 57 10 be e1 ed d8 bc
       -0.23918767 -0.123257324 -0.14095852 -0.026480617
0002f0 2c 54 af be 29 4d fd bd 30 72 2b 3e d7 69 de bd
       -0.34243906 -0.12368233 0.16742778 -0.10860031
000300 ca 60 01 be 11 e3 4f 3e ac bd 2a bd 30 94 c2 3d
       -0.12634578 0.20301463 -0.04168479 0.09500921
000310 32 fa 54 3e 29 94 94 3c f0 9c 58 3e ec 70 d6 bd
       0.20798567 0.018137055 0.21153617 -0.10470757
000320 c6 3a 1e 3e fc 7e 94 bd b8 c7 db 3b 15 75 e2 3c
       0.15452108 -0.07250783 0.006707158 0.02764372
000330 4c e1 25 3e 4d ea 6e bd 4a 3b c4 3d f1 09 fe 3c
       0.16199225 -0.058328915 0.09581621 0.0310106
000340 e3 fe f7 bd 26 18 06 bc d7 cc e1 3e 08 3d a9 3e
       -0.12109163 -0.008184468 0.44101593 0.33054376
000350 15 0e 0c be e3 7d c2 3d 39 21 8a bd ec f2 5f bd
       -0.13677247 0.09496667 -0.06744618 -0.054675028
000360 b7 26 95 be 93 86 e8 3d 39 b7 93 3c 80 8d 91 be
       -0.291311 0.11353793 0.018031703 -0.28428268
000370 08 71 17 3e 78 b8 38 be fb f3 21 3d bf 3c b1 bc
       0.14789212 -0.18039119 0.03953932 -0.021635411
000380 4a 60 3a be 59 6c 6b 3d 3a d4 b1 bd fb 17 db bd
       -0.18200794 0.057476375 -0.08683057 -0.10697933
000390 38 0f b7 3c 03 c9 a0 bc 84 ce f3 3d ae 8b 50 3e
       0.022346124 -0.0196271 0.11904624 0.20365784
0003a0 af f6 74 be 91 3d 41 be b0 8a 03 3f 43 f1 45 be
       -0.23922227 -0.18871142 0.51383495 -0.19330315
0003b0 34 2a 1e 3d 84 3b 91 be d5 11 c2 be fc 02 0a 3e
       0.038614467 -0.2836572 -0.3790423 0.13477701
0003c0 d6 c0 f9 bd ae 4d 01 3e 72 25 38 be cf 41 e7 3d
       -0.12194984 0.12627289 -0.17983034 0.11291849
0003d0 a3 f0 21 3d 1f bc a3 bd 5a a0 13 be dc bb 07 3d
       0.03953613 -0.079948656 -0.14416638 0.03313814
0003e0 d3 06 00 3f 8c 82 e8 bd a7 d0 fd bc c5 42 69 be
       0.5001041 -0.11353025 -0.030983282 -0.22779377
0003f0 7f 04 d7 3b 69 03 c5 bc 64 81 7d 3d be 0e 61 3d
       0.0065618153 -0.024049478 0.061890975 0.0549457

actor_logit.actor_2.bias f4 [64]
000000 fb 8e b2 ba 37 5b 30 3c 9b ce 8d 3b 3a cf df bb
       -0.0013622934 0.010763935 0.004327608 -0.0068301233
000010 52 e8 85 3b 54 56 39 3c 13 f9 b9 3c fd 5e 29 3c
       0.0040865326 0.011312086 0.022701776 0.010337588
000020 3e fa 2f 3b 91 e6 42 bc eb 22 a2 3c 34 f5 8b bc
       0.0026852037 -0.011895792 0.01979204 -0.017084695
000030 65 f6 0e 3b 3a 6c ae 3b e5 1d 69 39 1b 96 5e 3c
       0.0021814343 0.00532296 0.00022231748 0.013585593
000040 3b d2 17 bc 67 2d 05 3c 63 02 f5 3b 48 45 03 ba
       -0.009266431 0.008128501 0.007477091 -0.0005007577
000050 6c 22 a2 3a 09 92 49 3c ce 90 40 bb 88 23 26 3a
       0.0012369878 0.012302884 -0.0029383185 0.0006337692
000060 61 b4 23 3b 2d 95 8f 3b 22 a0 97 3b c1 6a e2 bb
       0.002497934 0.004381797 0.0046272436 -0.0069096987
000070 43 32 51 bc cf ce 0a 3d fe 2e b2 ba 44 2b 09 3b
       -0.012768331 0.033888634 -0.0013594327 0.002093033
000080 30 41 fa 3b 7c 13 e7 3b 27 b0 a8 3a 09 25 ef 3b
       0.0076371655 0.0070518833 0.001286988 0.007298116
000090 91 8c cb 3b c2 e0 0f bb 5e 5b 87 bc f7 93 cc bb
       0.006211825 -0.0021954034 -0.01652306 -0.0062432247
0000a0 ac 3c 3d 3c af 2c 9f 3a 8a b2 5a bb ae c0 14 bb
       0.01155011 0.0012144054 -0.0033370578 -0.0022697854
0000b0 70 7c 4d 3b da 9e 3e bc ee 3c 8f ba b3 52 b0 bb
       0.0031354688 -0.011634553 -0.0010928193 -0.0053809523
0000c0 ef b1 2d 3c 22 31 07 bc 71 41 19 bc 5d a3 0c 3c
       0.010601505 -0.00825146 -0.009353981 0.008583871
0000d0 57 ba 54 3c ee b3 18 3b a4 4e fc 3b 95 74 d1 3c
       0.01298388 0.0023300606 0.0076998044 0.025568286
0000e0 35 ba 61 3c 1c 56 03 bc 6c e2 15 bb ec 06 10 3b
       0.013777305 -0.008016136 -0.0022870554 0.0021976782
0000f0 c7 09 16 bb bb bd f2 bb fc b2 41 3c 29 30 30 3c
       -0.0022894011 -0.0074078715 0.011822458 0.01075367

actor_logit.actor_3.weight f4 [64, 64]
000000 93 f5 23 3e c4 5a fd bd 8e 68 8c bd 62 1c 94 3e
       0.16011648 -0.12370828 -0.0685588 0.28927904
000010 00 48 d1 bd a4 58 38 3e 57 42 33 3d aa bd cb bd
       -0.10218811 0.18002564 0.04376444 -0.09948285
000020 d9 b8 4f 3e 38 41 34 be 1b f3 0c be 93 7a 5b 3e
       0.20285358 -0.17603004 -0.13764612 0.21433477
000030 b1 9e 9b 3d 2e 20 29 3c ed 9e 19 bd b5 a7 81 be
       0.07598627 0.010322614 -0.03750508 -0.25323263
000040 68 ba 43 be 64 93 5a be 09 ea 27 3e a9 b2 23 3d
       -0.19114077 -0.21345288 0.16397871 0.039965305
000050 e8 84 b6 bd c9 76 35 be 0c f8 48 bd 9e b2 0d 3e
       -0.089120686 -0.17721094 -0.04906468 0.13837668
000060 c0 b2 38 be 2c 52 62 3d b1 57 f3 3d 54 05 3a 3c
       -0.18036938 0.055254146 0.1188196 0.011353809
000070 1c c5 38 be c0 24 e9 3d 9b 7d 77 3d 1d 62 fd bb
       -0.18043941 0.11383963 0.06042252 -0.0077326433
000080 2f 42 15 3e 8a 22 1b be 21 d2 a1 be e3 57 03 3e
       0.14576028 -0.15149894 -0.31605628 0.12826495
000090 2b 55 1c be d9 1b 01 be 13 d1 3e 3d 21 f0 9a be
       -0.15266864 -0.1260828 0.046586107 -0.3026133
0000a0 a2 8f ec 3d 9a f1 b6 3d be 92 77 bd 91 59 9e 3d
       0.11550833 0.089328006 -0.06044268 0.07731927
0000b0 d3 7e ed 3d 0a 05 85 3c 16 5f e3 bd e0 05 a8 be
       0.115964554 0.016237754 -0.111021206 -0.32816982
0000c0 58 e4 85 bd c6 88 b0 be 84 ce bf be 56 db 66 3e
       -0.06537694 -0.3447935 -0.37462246 0.22544608
0000d0 d0 f4 70 bd 01 02 da 3c f7 04 89 3e 7c af 87 be
       -0.05882722 0.026612284 0.267616 -0.2650107
0000e0 ac a7 86 3e a4 1a 59 be fa 0e 17 bd 70 65 6e 3d
       0.26299798 -0.21201569 -0.036879517 0.058202207
0000f0 0d 36 32 3e 38 cd 6f bd 41 df d6 3e be 44 39 be
       0.17403431 -0.05854532 0.41967204 -0.1809263
000100 74 64 27 be 51 c5 36 3d f5 f2 47 be 39 f9 54 be
       -0.16346914 0.04462177 -0.19526275 -0.20798196
000110 a2 56 17 3e 69 0a 84 be d7 32 56 be a7 31 90 3d
       0.14779142 -0.25789192 -0.20917831 0.070407204
000120 9f 8e 6c 3e 69 27 bc bd c3 d6 73 3d ba c4 82 3c
       0.2310128 -0.091872044 0.059530985 0.015962947
000130 69 e5 02 3e cf 8a d4 3e 1e 1f 85 3d 16 27 96 3e
       0.12782826 0.41512153 0.06500076 0.29326695
000140 e7 c4 6a 3e 42 4b 3c 3d 03 ef 37 3e 1e 25 fd 3d
       0.22926675 0.04597021 0.1796227 0.12360595
000150 49 fb 79 3d 2a 80 50 bd 64 ed 83 3d c2 ed 60 bd
       0.06103066 -0.050903477 0.06441763 -0.054914244
000160 09 39 b9 be a4 32 80 3e 29 cf 63 bd 29 04 2d bd
       -0.36176327 0.25038636 -0.055617485 -0.042240296
000170 2e 72 19 bd a3 98 dd 3d b3 5c 60 be cf 53 3e 3c
       -0.037462406 0.10820129 -0.21910362 0.011616661
000180 5e 72 ca bc c7 8f 2b 3d c2 66 49 be 56 41 60 3e
       -0.024712738 0.041885164 -0.19668105 0.21899924
000190 00 04 a0 be e3 c0 1b be 82 bb 06 3e e5 41 36 be
       -0.31253052 -0.15210299 0.13157466 -0.17798574
0001a0 e2 76 8b 3e f9 de 88 3d 3a 68 c8 3d a5 b9 2f 3e
       0.27239138 0.06683154 0.09785505 0.17160662
0001b0 dd 0d 39 3e 0f 25 8d 3d e8 c6 d4 3d 6f f0 c8 3e
       0.18071695 0.06891834 0.10389501 0.39245936
0001c0 7c db 5a be d4 07 ac 3d 7a 87 58 bd d5 40 2e be
       -0.21372789 0.083999306 -0.052863576 -0.17016919
0001d0 3b 7a ba be 19 43 15 bb f3 88 c5 3d e7 8e 09 be
       -0.3642138 -0.002277559 0.096452616 -0.13433419
0001e0 0c e1 18 be e5 7c c4 3d 17 03 30 be a9 33 50 be
       -0.14929599 0.09594134 -0.17188679 -0.20332207
0001f0 ae 97 01 be bc 30 7d be 5b 44 92 3d c0 a0 6c 3e
       -0.12655517 -0.24725622 0.07141944 0.23108196
000200 30 79 5d 3e 9b b6 4b 3e 69 f1 a4 3e 9a 0d 91 3d
       0.2162826 0.19893877 0.3221543 0.070826724
000210 72 a3 c5 3e 82 36 4d 3d 29 1e ec bd 40 d3 ae be
       0.3860126 0.05010081 -0.1152919 -0.34145546
000220 26 74 a7 3c 36 a3 26 be 0d 48 a7 3d 72 d5 37 bb
       0.020441126 -0.16273198 0.081680395 -0.0028050807
000230 68 f9 81 3e b4 70 80 be 9e 39 9b be 19 ab 99 bd
       0.25385594 -0.25085986 -0.30317396 -0.075033374
000240 84 9f 99 bd c4 cc c9 3d 35 d4 55 be 51 20 44 bd
       -0.07501128 0.09853509 -0.20881732 -0.04788238
000250 ed 8b 3e 3e 00 d0 4f 3e 86 de cf 3d 47 f1 05 3e
       0.18608065 0.2029419 0.10149865 0.13080321
000260 17 5e 1d 3b df cd 58 be 44 83 9c 3e 2c e6 8a bd
       0.002401238 -0.21172284 0.30568898 -0.06782183
000270 41 a4 55 be ee 4b e9 3d 97 36 33 be 60 24 c6 bd
       -0.20863439 0.113914356 -0.17501293 -0.09674907
000280 c2 19 1b be 68 e1 33 3e e3 bb 14 3c 27 22 f8 3d
       -0.15146545 0.17566454 0.009077999 0.12115889
000290 da 4e 7e bd 7f 76 68 3e 0a d4 2a be ef 58 a9 be
       -0.062086917 0.22701453 -0.16682449 -0.33075663
0002a0 ba 50 29 3d af 84 a9 3d 8e 22 cc 3e c0 ac 4f 3c
       0.041336752 0.082772605 0.39870113 0.012675464
0002b0 99 06 ae be e7 02 ba 3c 41 fe a3 bd 3e 20 84 3d
       -0.3398941 0.022706462 -0.080074795 0.06451462
0002c0 d2 56 3d 3d c6 c8 74 bd ce ce 61 3e 4e c1 ba bc
       0.046225376 -0.059761785 0.22051546 -0.022797253
0002d0 9d ba 41 be 8a 1c 43 3e c6 d6 fa bd 79 d7 eb bc
       -0.18918844 0.19053856 -0.12247996 -0.028789269
0002e0 92 4b 00 be 3e 31 5c 3e 60 c3 84 bd a4 82 d2 bc
       -0.12528828 0.2150316 -0.06482577 -0.02569706
0002f0 4f cc ae bd 42 b1 e5 bd 13 2c 89 3e 10 b7 49 bd
       -0.085350625 -0.1121545 0.26791438 -0.049246848
000300 59 b3 8e 3d 7f 1c 2c 3d 48 e0 f2 3e 03 be 1b be
       0.069678016 0.042019363 0.47436738 -0.15209202
000310 b5 c3 30 be 42 a4 8a 3d c7 9a 98 be dd cb aa 3d
       -0.17262156 0.06769611 -0.29805586 0.08339665
000320 72 99 26 3e de ff 27 be a3 39 34 3e aa 7b 5a bd
       0.16269472 -0.164062 0.17600112 -0.05334059
000330 fd ee 0e be 13 c3 ad 3e 08 44 42 3e b9 36 ce 3c
       -0.13958354 0.33937892 0.18971264 0.025172578
000340 e1 68 68 ba 06 5e 39 3e 63 f5 48 3d c7 f3 74 bd
       -0.0008865726 0.18102273 0.049062144 -0.059802797
000350 df 64 9f 3d a8 d6 1f bd 73 49 dc 3d d8 a2 ac 3d
       0.077829115 -0.03902307 0.10756197 0.084294975
000360 a1 4b 61 bd a4 38 b6 3e 19 ff d1 bd 5c ec cd bd
       -0.055003766 0.35590088 -0.10253734 -0.100548476
000370 97 bd 61 3e 27 d0 27 be c9 c0 a5 bd 52 ed 9a be
       0.22044979 -0.16387998 -0.080934115 -0.30259186
000380 a1 c4 9f 3e b4 84 9d 3e 30 3d 05 3e 4c 19 e2 bd
       0.31204703 0.30765307 0.13011622 -0.11039981
000390 cb b0 e6 3d c7 e5 02 be 42 3b 4a bd 1f ef dc bd
       0.11264189 -0.12782966 -0.04937292 -0.10787796
0003a0 19 4e 8c bd 29 e3 64 3e a5 1e 90 3d 25 b5 a8 3d
       -0.068508334 0.2235228 0.07037095 0.082376756
0003b0 6e 16 63 bd 92 7e fa bc b1 e0 33 be 88 b9 35 be
       -0.055441312 -0.030577932 -0.17566182 -0.17746556
0003c0 3e 3c 86 3d 79 2b b4 be 51 f0 86 3e 4a 82 f4 3d
       0.06554459 -0.35189417 0.26355222 0.11938913
0003d0 58 57 a2 3d 0a c0 8d be bd cf 7a be aa 0f 87 be
       0.07926816 -0.27685577 -0.24493308 -0.26379138
0003e0 0d 51 6e 3e 1c e3 cb 3d f1 f2 23 be 70 38 0a 3d
       0.23273106 0.09955427 -0.16010644 0.03374523
0003f0 b6 fa 3b bd 00 e4 47 bd 8e 19 fd bd 85 8e 88 be
       -0.045893393 -0.048801422 -0.1235839 -0.26671234

actor_logit.actor_3.bias f4 [64]
000000 a8 91 33 3c f6 fa ea bb de 7a 2b bb 21 09 3b bc
       0.01096002 -0.00717103 -0.0026165764 -0.011415751
000010 5f 6b bf 3b 1a a4 ed 3b 2f 62 f0 3c 87 a3 17 bc
       0.005841657 0.0072522284 0.029343693 -0.009255297
000020 ff 12 a1 bb 91 0a 23 3a e8 a1 42 bc 6d 3a 51 3d
       -0.0049155946 0.0006219531 -0.011879422 0.05108111
000030 38 62 70 3b 39 c1 3d 3c 85 9d 05 bb ef 3f 07 bc
       0.0036679637 0.011581712 -0.0020388078 -0.008254989
000040 a0 95 79 3a 52 0d b0 ba d7 90 fc 3b 83 f5 60 3b
       0.0009520892 -0.0013431704 0.007707696 0.0034326024
000050 9f 0a b8 ba 3f 05 90 3b 90 21 92 bb c3 08 38 bb
       -0.0014041251 0.0043951566 -0.0044595674 -0.0028081394
000060 c1 e1 ed bb 2a 59 5d 3c fb e1 55 3b 26 63 82 3c
       -0.007259578 0.013510028 0.0032635916 0.015916418
000070 2f c6 ed ba c4 ba fa ba 96 3a 52 3c 2a 25 80 3c
       -0.0018140728 -0.0019129147 0.012831351 0.015642721
000080 ed d0 7e 3b 3a 94 b3 39 b1 9f 2f 3c b7 ff 3c 3c
       0.0038881854 0.00034251978 0.010719226 0.011535577
000090 cc 13 c2 bb f7 f7 01 3c 5a 3d 44 b9 bf 83 2d 3c
       -0.00592277 0.007932655 -0.00018714872 0.010590493
0000a0 14 d2 99 bb ac c4 d4 b8 cb 14 09 3c 5a 70 96 bb
       -0.0046942327 -0.00010145581 0.008366774 -0.00459103
0000b0 1d 07 b4 3a 5d 6d 83 bb 8b a3 e1 ba ee 68 01 3c
       0.001373503 -0.00401084 -0.0017214877 0.007898552
0000c0 e5 cf 83 bb 54 0f 09 3c e4 29 9c 3b 24 ac 94 bb
       -0.0040225857 0.008365471 0.004765736 -0.0045371223
0000d0 4d 73 00 bc 42 38 75 bc 6c b9 03 bc e1 10 28 bc
       -0.00783999 -0.014967026 -0.0080398135 -0.0102579305
0000e0 00 00 00 00 fa f3 81 3b 6c 29 70 3c 5a d7 fc 3a
       0.0 0.003965852 0.014658313 0.0019290254
0000f0 f9 e8 ce ba a2 99 dc ba 00 00 00 00 d3 b1 fa 39
       -0.0015785984 -0.0016830454 0.0 0.00047816205

critic_value.critic_1.weight f4 [64, 110]
000000 bb ae d9 3d fe 98 22 3c d4 08 4c 3e 33 a7 22 3e
       0.1062903 0.0099241715 0.19925243 0.15884094
000010 66 60 98 3c 62 d8 c8 3e 52 6e 6f be 3a 62 d2 bb
       0.018600654 0.39227587 -0.23381928 -0.006420401
000020 79 80 e6 3c 0a 22 14 3d 91 df 3d bd 15 47 35 3e
       0.028137432 0.036165275 -0.046355788 0.17702897
000030 f6 0c 9d bd fc a0 ad 3d 7a 3a 48 bd f4 03 01 3e
       -0.07668488 0.08477971 -0.048883893 0.12599164
000040 66 63 64 3e 34 7e ad 3c 40 81 8b 3e f5 92 8d 3c
       0.22303542 0.021178342 0.27247047 0.017281989
000050 60 fe 85 3e 85 59 bf bb 02 39 a5 bd eb 53 9c bb
       0.26170635 -0.005839529 -0.08067514 -0.004770746
000060 1f b4 1e be 30 be 20 3d 99 3a 85 3e 39 b1 84 3e
       -0.15498398 0.039243877 0.2602127 0.2591646
000070 de 52 81 bd 1f 58 4f be ec c4 a6 bd 1e 4d c1 3d
       -0.06314634 -0.2024846 -0.081430286 0.09438537
000080 89 26 02 3e 3d 17 03 3e 68 cb 45 3e 91 07 15 be
       0.12710012 0.12801833 0.19315875 -0.14553668
000090 e4 0c 41 bd 83 8a 11 be 97 60 54 3d e3 04 da 3d
       -0.047131434 -0.14212994 0.051849928 0.10645463
0000a0 b6 d5 8c 3d 3f 13 23 3e 6e 30 0c 3e 11 b5 79 3e
       0.068766996 0.1592531 0.1369035 0.24385478
0000b0 5e 7b 29 3e e8 f9 27 3e f7 d3 a0 3e 62 f0 12 3f
       0.16550967 0.16403925 0.31411716 0.57398045
0000c0 a3 f8 af 3e 14 f3 83 3d 2e c2 45 be 29 8e 19 3d
       0.34369382 0.06442848 -0.19312355 0.03748909
0000d0 d2 86 06 3e 0a e7 fc bc 22 b6 24 3d d6 75 1c 3d
       0.13137367 -0.030871887 0.040212758 0.038198315
0000e0 32 2f 42 bd 53 3f e1 3d 45 95 7b 3e dd 3a 89 3e
       -0.04740829 0.10998406 0.2456866 0.26802722
0000f0 49 37 3d 3e 38 e1 19 3e cc dc ac 3d bc 84 ba 3d
       0.18478121 0.1502732 0.08440551 0.09107348
000100 e5 62 a1 3c 71 6e 7a 3e 10 25 57 be b8 27 75 3d
       0.019700477 0.24456193 -0.21010232 0.059852332
000110 d2 a8 bb bd 05 b3 6e 3e e4 60 fd 3d a1 d2 c7 3d
       -0.09163059 0.23310478 0.12371996 0.09756971
000120 c8 e1 c5 bc 7c 12 8a b9 ec 0d 37 bc 54 af c7 bd
       -0.024155512 -0.00026335183 -0.011172753 -0.09750238
000130 10 f2 5e 3e ce 71 0a 3d 2d 57 7d be 0e 41 9e bd
       0.21772027 0.03379994 -0.24740286 -0.07727252
000140 3b a0 f8 bd c6 6b 20 3e 3f 89 f8 3d e9 08 17 3e
       -0.121399365 0.15666112 0.121355526 0.14749493
000150 2b ec 37 3d 11 fd 91 3d e4 ea 55 3e ee ba 84 be
       0.04490296 0.07128347 0.20890385 -0.25923866
000160 f5 e0 da 3c f9 3e 00 bd 15 5e a0 3e 4e f5 26 3e
       0.026718596 -0.031310055 0.3132178 0.16304514
000170 07 57 8e 3e 3c 29 56 3e 17 3f 47 3d ec d6 b9 3d
       0.27800772 0.20914167 0.04864415 0.09074196
000180 07 6b 30 be 1b 38 29 3d b5 c6 09 3e 39 7a ec bc
       -0.17228328 0.041313272 0.13454707 -0.028866874
000190 fe 2b 6b bd 56 77 0d bd 69 bf 7d 3c 2e 6c 02 be
       -0.057415 -0.034537636 0.01548753 -0.1273658
0001a0 1e 0b e9 3b 95 c0 e4 bd 27 0d 90 3b d9 21 62 be
       0.007111921 -0.111695446 0.004396099 -0.22083224
0001b0 63 99 cf 3b 41 a1 07 3c 0d d2 79 3e 82 ff 1f 3e
       0.006335424 0.008278192 0.24396534 0.15624812
0001c0 af cf a0 3d 98 dc 36 3e c3 0b 23 3e c5 36 f2 3d
       0.078521125 0.17857587 0.15922455 0.11826853
0001d0 b0 3a dc bc ba 55 a0 3d a6 2b 0f 3e 78 f7 37 3e
       -0.026883453 0.07828851 0.13981494 0.17965496
0001e0 14 cb 54 bd ba 5d c3 bd f2 7a 19 3d 0f 6a 8b 3e
       -0.051951483 -0.09539361 0.037470765 0.27229354
0001f0 b3 60 51 be 37 c8 85 bd 35 80 e2 3d 47 37 8e 3e
       -0.20447044 -0.065323286 0.1105961 0.27776548
000200 56 f5 14 3d f3 e1 13 3d 5b 75 1c 3e af f7 57 be
       0.036366783 0.036104154 0.15279143 -0.21090578
000210 eb 51 21 3e 05 95 07 3e f4 00 0d 3e f5 4f 06 3e
       0.15753905 0.1324044 0.13769895 0.13116439
000220 45 2a f1 3d 02 6f a8 3c 50 d8 af 3c 40 54 f4 3c
       0.117756404 0.020560745 0.02146545 0.02982533
000230 0d ca 3c 3e 18 23 b0 bd cb 6e b5 3e 88 91 82 3e
       0.18436451 -0.086004436 0.3543609 0.25501657
000240 d0 be a0 3e 87 38 db 3d 95 50 6f 3b 49 c6 48 3e
       0.31395578 0.10704141 0.0036516536 0.1960689
000250 b7 81 68 be 2d 57 34 3d 24 ad 44 be 64 dc 38 be
       -0.22705732 0.04402845 -0.19206673 -0.18052822
000260 ff d0 28 be 06 a7 9a 3d 53 36 93 3d 0a 2d 83 3e
       -0.16485976 0.075513884 0.07188096 0.256203
000270 7c 8d 56 3d 93 1f 00 3e f7 6a 33 3e e5 c7 bd bd
       0.052381024 0.12512045 0.17521273 -0.092666425
000280 72 0e 01 3e e0 e0 ce 3d 84 6d 6d 3d 8e dd 4d 3e
       0.12603167 0.10101485 0.05796577 0.20104048
000290 c7 ca 28 3e 87 ab 4b 3c dc b3 67 be 71 75 67 3e
       0.16483603 0.012431032 -0.22627205 0.22603394
0002a0 c2 e6 f4 3c 09 dd d8 bc 7d 58 82 3e 53 85 3d be
       0.02989519 -0.026472585 0.25458136 -0.1850789
0002b0 30 0b a8 bd 08 9b 6f be d7 f1 d0 bd 39 9c 0c be
       -0.08205259 -0.23398983 -0.10202377 -0.13731469
0002c0 fc aa 41 be 8c 51 89 bd 11 86 0d 3e 4a f7 23 3e
       -0.18912882 -0.06705007 0.13820674 0.16012302
0002d0 74 e6 2a be 37 c5 82 be cd b3 ae bd c2 23 56 be
       -0.16689473 -0.25541088 -0.08530388 -0.20912078
0002e0 2c 63 aa 3d d3 19 c9 bd f6 95 a4 3d e2 11 3b bd
       0.08319697 -0.09819379 0.08036415 -0.04567135
0002f0 33 f3 85 be ce dd a5 bc a6 7f e4 3d c0 99 35 be
       -0.2616211 -0.020247366 0.111571595 -0.17734432
000300 c0 6b c8 bc a0 96 c8 3d 72 05 31 3e 14 d6 58 3e
       -0.024465442 0.097943544 0.17287233 0.21175414
000310 e4 7f a0 bc c5 59 96 bb 59 22 9a bd 39 be 60 bd
       -0.019592233 -0.004588338 -0.075260825 -0.05486891
000320 1d 47 92 3d 6f 20 bd 3d 0b 30 08 be 67 f1 94 bd
       0.0714247 0.09234702 -0.13299577 -0.07272606
000330 fd e6 59 3e 21 0e 9d bd 30 90 05 3d 81 ee e0 3d
       0.21279521 -0.076687105 0.03260821 0.10982991
000340 88 cf b8 bb 37 f5 a3 3e ad fd 1b bc 99 24 72 3d
       -0.005639974 0.32023022 -0.00952093 0.059116933
000350 89 f1 0f 3e e9 9f b6 3c e7 a3 69 3e 53 fd 11 3e
       0.14056982 0.022293048 0.2281643 0.14256792
000360 68 46 02 3e db 0d 68 3d a9 75 12 3d 03 f3 db 3d
       0.1272217 0.05665384 0.03575674 0.1073971
000370 09 0e fa 3d 6d c0 89 be 5c a7 a6 bd 27 cf 6c bd
       0.12209708 -0.26904622 -0.0813739 -0.057814743
000380 c1 ec 65 3e 72 88 6d 3e b4 c9 c9 3c 16 94 62 3d
       0.22453596 0.23196581 0.024632312 0.055317007
000390 6c 63 99 3d 5e bf 36 3d 12 6a a7 be 95 6e 2d be
       0.07489666 0.044616096 -0.32698113 -0.16936715
0003a0 53 17 64 bc 97 a5 87 3e b5 8f 20 3c b1 bf 0e 3c
       -0.013921577 0.26493523 0.009799887 0.008712695
0003b0 27 1e 1a b9 6d 32 4b bc 86 ec c1 3d e7 da cf 3d
       -0.00014697817 -0.012402159 0.094689414 0.10149174
0003c0 5d 22 89 3d 18 6c 2b 3e 24 9b 06 be 34 32 3d 3b
       0.066960074 0.16740453 -0.13145119 0.0028869035
0003d0 fe 36 ac bc 93 4e 5b bd 0d f9 e1 3c ec 01 a8 bd
       -0.021022316 -0.05354173 0.027584577 -0.082034916
0003e0 bf 00 62 3e c3 ab 7c 3e 29 6b 74 3c 9c b5 8e bc
       0.22070597 0.24674897 0.014918127 -0.017420582
0003f0 08 c3 04 3e 89 65 a7 be e7 b0 62 ba 66 24 95 be
       0.12965024 -0.32694653 -0.00086475763 -0.29129332

critic_value.critic_1.bias f4 [64]
000000 bc 05 a3 3d a0 74 36 3d 54 d0 9d 3b 4a b7 75 3d
       0.07960078 0.044544816 0.0048160944 0.05998925
000010 76 62 c6 3d 77 8c 08 3d b9 30 a3 3d e8 a4 4f 3d
       0.09686749 0.033337083 0.079682775 0.050694376
000020 8c ed 3e 3d 3d 1f 40 3d 6c e4 d4 3d 68 36 5d 3d
       0.04661326 0.04690479 0.103951305 0.054006964
000030 42 f8 62 3d 89 92 88 3d e3 30 45 3d b1 17 fc 3c
       0.05541254 0.06668574 0.048142325 0.030773016
000040 9c bb 7c bb 8c f7 d5 bc 11 e9 88 3b 44 83 13 3d
       -0.0038563972 -0.026119016 0.0041781743 0.036013857
000050 c2 1a ca 3d 6f e0 a1 3c e6 23 6c 3d f8 f5 08 3d
       0.09868385 0.019760339 0.057651423 0.0334377
000060 cd 8d f1 3c 10 a2 43 3d 3b 21 5e 3b f7 e6 52 bc
       0.029486561 0.047761977 0.0033894319 -0.012872449
000070 6e 93 9e 3d 48 27 8a 3d 6a 16 3b 3b af a4 8a 3d
       0.07742964 0.067457736 0.0028547295 0.06769692
000080 1e 8d 42 bb 28 0e 11 3d d4 43 9a 3d e0 86 51 3d
       -0.0029686163 0.03541389 0.075324684 0.051154017
000090 1b 6e 6f 3d 7f 3b e6 bb b4 9d 51 3d 13 8b 3c 3d
       0.058454614 -0.0070261355 0.051175788 0.04603107
0000a0 5e 20 9a 3d ab 90 d4 3d 81 99 29 3d 30 b5 f8 bb
       0.07525705 0.10379156 0.04140616 -0.0075899586
0000b0 09 21 b7 3a 55 c4 50 bc 0a 8d 5e 3d 09 e7 06 3d
       0.0013971637 -0.012742122 0.054333724 0.032935176
0000c0 92 e4 24 3c d7 8e a6 3d 93 3c 68 3c 8c 0a a0 3d
       0.010064261 0.08132713 0.014174598 0.07814512
0000d0 39 89 80 3d 9e 74 0f 3d 0a 5e 2b bc 74 3e 95 3d
       0.06276173 0.035023324 -0.010459432 0.072873026
0000e0 7f 4d a5 3d c2 0f 65 3d 1b 00 c2 3c ad 3b 6b 3d
       0.08071422 0.05592323 0.02368169 0.057429958
0000f0 ae d4 01 bc 4a 54 03 3d e5 2e 85 3d 6d 6b 36 bd
       -0.007924242 0.032062806 0.06503085 -0.044536043

critic_value.critic_2.weight f4 [64, 64]
000000 6c 85 4a 3d 7b 78 43 be fe 1d dc bd 72 e6 4b 3b
       0.049443647 -0.19088928 -0.10747908 0.0031112698
000010 e2 34 73 3d f7 97 10 be 8e 38 7b 3d a9 24 71 bd
       0.059376605 -0.1412047 0.06133323 -0.058872852
000020 94 b6 3f be 81 24 8b ba 24 bf 7c be 8f 73 53 3e
       -0.18721992 -0.0010615737 -0.2468229 0.20649551
000030 ae b5 c0 3d ba 90 85 be 20 b8 80 be 3b 35 b7 3d
       0.09409653 -0.2608698 -0.25140476 0.089457
000040 7f 85 cc be fd 89 9f bd 1d 64 51 be 67 d3 8f 3e
       -0.399456 -0.07789991 -0.20448346 0.28090975
000050 11 bf 86 bd d8 9b 54 be 3a ec 48 bd df b6 c0 3d
       -0.06579412 -0.20762575 -0.04905341 0.0940988
000060 51 9e 51 3e 77 f9 b9 3d 2c e9 54 3d f9 06 97 3e
       0.20470549 0.09080785 0.051980183 0.29497507
000070 3c bf fd 3d 81 0d 87 be 31 8b b7 bd 01 b7 02 be
       0.12389991 -0.2637749 -0.089620955 -0.12765123
000080 56 3f 2d be 47 2c e6 3e 27 41 b0 3c 87 91 8e be
       -0.16918692 0.44955656 0.021515442 -0.27845404
000090 04 ad e3 3d 4d 2c c2 3d 9b d6 83 bd 86 14 fc bd
       0.111169845 0.09481106 -0.06437417 -0.12308602
0000a0 51 f5 b4 be 3d a1 7b bd 60 47 63 bd 30 2a 5f bd
       -0.35343412 -0.061433066 -0.05548799 -0.054483593
0000b0 75 49 78 be ea ac 89 be 64 ce a8 3d 67 59 24 be
       -0.24246772 -0.26889735 0.08242491 -0.1604973
0000c0 d3 e6 1a 3e a7 3a f4 3d 87 65 39 3e a1 4b 93 3d
       0.15127115 0.119252495 0.18105136 0.071921594
0000d0 71 5d 21 3d cc 12 8b be 0c 64 1d be e1 b0 e3 bb
       0.039395753 -0.27162778 -0.15370196 -0.006948576
0000e0 34 4e 13 bc 3d 24 55 3e f3 6b f1 3c 18 9e 5b 3e
       -0.008990813 0.20814605 0.02947042 0.21447027
0000f0 91 0f 4c be d6 35 15 be 0f cd 81 be ea 1b d2 3c
       -0.19927813 -0.14571318 -0.2535176 0.025648076
000100 1c 41 92 3e b3 79 00 bd b4 14 c4 3d e5 c7 a8 3d
       0.285653 -0.03136606 0.09574261 0.08241252
000110 cd 70 10 3e 61 2d a6 3d 40 e6 f2 3c 49 3e d3 3e
       0.1410553 0.08114124 0.029650807 0.41258457
000120 09 b4 77 bd fd a1 ac 3e cd f6 f7 3d d0 46 39 be
       -0.06047443 0.33717337 0.121076204 -0.18093419
000130 4a e6 b5 3c 0b 88 6c bd 0c a9 c3 bc f2 d1 49 3d
       0.022204537 -0.05774693 -0.023884319 0.049272485
000140 03 e6 70 3e 2e 89 5a 3a e9 1b a4 3e 63 29 57 3e
       0.23525243 0.00083364814 0.32052544 0.21011882
000150 8b cc 0a 3f d5 44 8a be 91 48 ae 3d 9f 3c d5 3e
       0.5421836 -0.2700564 0.08509935 0.41647813
000160 86 35 7f bc c0 0f 6d 3e 83 08 ba 3e 62 dc 3e be
       -0.015576726 0.2315054 0.3633462 -0.18638757
000170 85 0e 1f 3e b1 94 03 3e 81 9a fc 3d f5 c5 8b 3e
       0.15532883 0.1284969 0.12334157 0.27299467
000180 59 1a 1d be eb d3 c1 3d 5d 6f 17 bd ee 5d ba 3d
       -0.15342082 0.09464248 -0.03697144 0.09099947
000190 bf fd 09 3e fe 30 59 3d 9f b4 4e bc 26 2a bf 3d
       0.13475703 0.05302524 -0.012616306 0.09334211
0001a0 47 61 e7 3d 82 3f 7a 3d cf 43 84 bd d5 02 e5 b9
       0.11297851 0.061095722 -0.06458246 -0.00043680394
0001b0 7a be 31 be 5f 60 8a bd 32 a3 55 be cb 8a 3a 3e
       -0.17357817 -0.067566626 -0.20863035 0.18217008
0001c0 09 d3 6a 3c c9 c1 c9 3e 19 1f 93 3c b0 56 87 bd
       0.014332541 0.3940566 0.017959164 -0.06608331
0001d0 4c ad df be b1 aa 45 bd 31 24 93 3c f8 52 ab 3c
       -0.43686903 -0.048258487 0.017961593 0.020913586
0001e0 55 b5 02 3e e4 7f 91 3e bd a4 89 bd 87 8a 38 3e
       0.12764485 0.28417885 -0.067208745 0.18021594
0001f0 75 a8 35 bd 95 c2 09 3e 9f 98 6c 3e 72 34 43 bc
       -0.044350106 0.13453133 0.23105095 -0.011914359
000200 9f b5 87 3e f6 42 ad 3d 76 56 77 bd 7b 71 34 be
       0.26505753 0.084600374 -0.06038519 -0.17621414
000210 1a 04 a9 3e db 92 a4 3e 0f 0e 66 3e fd 85 c2 3e
       0.33010942 0.32143292 0.224663 0.3799285
000220 7b 74 fc 3d a6 13 8a 3e ac a0 2e be fc 84 9b 3e
       0.123269044 0.26968116 -0.17053479 0.30374897
000230 62 5d fb 3c a8 35 da bc be c9 39 3e e8 16 f8 3c
       0.030684177 -0.026636913 0.18143365 0.03028436
000240 9c cd 03 3e be c6 91 3d d7 72 12 3d b8 d3 d6 3c
       0.12871403 0.07117985 0.03575405 0.026224002
000250 03 b5 0a 3e 4e 9e 12 3e 35 ad ab 3d 9f e1 36 be
       0.13545613 0.14318201 0.08382646 -0.17859505
000260 38 c7 a9 be a3 16 ab 3d d6 bf 55 bd 51 77 98 bd
       -0.33159804 0.08353927 -0.052184902 -0.07444633
000270 19 e0 09 3e 22 28 6e bb ac f8 3c 3e 15 22 1d 3b
       0.13464393 -0.003633984 0.18454236 0.0023976613
000280 ea 8d 4d bd e9 7f 14 3e 9a 5c 0b 3e 29 d4 ab 3c
       -0.050184168 0.14501919 0.13609543 0.02097519
000290 98 71 59 3e 19 07 e0 3d 80 c3 af 3e 6b bd 8c 3d
       0.21234739 0.10938854 0.34328842 0.06872066
0002a0 d7 63 c8 3d 72 3a 75 be 4d fb 1f 3e 55 19 34 3e
       0.09784668 -0.23948076 0.15623207 0.17587788
0002b0 19 83 59 bd 86 5f 80 bd 29 df a4 3e f7 26 9b be
       -0.05310354 -0.0626822 0.32201508 -0.30303165
0002c0 b8 ca ff bd 27 08 f8 bd ac 73 c1 be a3 95 c1 3d
       -0.124898374 -0.1211093 -0.37783563 0.09452369
0002d0 34 31 c1 3e 94 30 94 3e e1 b9 5d 3e 6d 37 28 be
       0.37732852 0.28943312 0.21652938 -0.16427393
0002e0 3c 08 28 3e cb 13 8b 3e fa 22 f3 bd 7e b2 f0 bc
       0.16409391 0.27163538 -0.118719056 -0.029381987
0002f0 45 86 76 be b2 27 c5 be 23 d8 24 3e 57 66 b9 be
       -0.24074657 -0.38506848 0.16098075 -0.36210892
000300 1d 05 7a be 35 dc 83 3e 31 ed 82 be 8e 36 b6 3d
       -0.24416013 0.25753942 -0.25571588 0.08897124
000310 a6 dd 07 3e e5 c7 83 be bd f1 3d be a0 c5 ab 3e
       0.13268146 -0.25738445 -0.18549247 0.33549213
000320 9a 8b 0b 3e 42 84 63 3d 04 96 5d 3d 54 81 52 3d
       0.13627473 0.055546053 0.054098144 0.05139287
000330 fe fe af bc 3e b1 41 3e ba 8f 67 3e 6c a2 5e be
       -0.021483894 0.18915269 0.22613421 -0.21741647
000340 a3 2d aa 3d 67 be 4e be 50 89 c3 3e e2 d4 e6 bc
       0.08309486 -0.2018982 0.381907 -0.028177682
000350 f1 16 4c be b3 74 e5 bb 3d ea 06 bf f6 61 c3 3e
       -0.19930626 -0.007002437 -0.5270117 0.38160676
000360 55 13 37 3d e0 71 61 3c 46 21 9e 3e 27 18 bd bd
       0.04469617 0.01376006 0.3088476 -0.09233122
000370 3f 70 a9 bd 30 8c 19 bd e3 59 63 3e 6a 28 31 be
       -0.08273362 -0.03748721 0.22202258 -0.17300573
000380 33 ea 8b be c3 08 14 bd e5 b9 be 3b 0e 7d 0f bd
       -0.27327117 -0.03614117 0.0058205 -0.03503137
000390 60 fe 20 be cd 0b c6 3c c6 6b b3 3d b3 94 9f bd
       -0.15722036 0.024175549 0.087607905 -0.07792034
0003a0 45 25 87 bc b5 4b 9c 3e 32 72 61 bd fe e1 9d 3e
       -0.016497264 0.3052651 -0.055040546 0.3083648
0003b0 38 b4 4c be 7c 67 a6 3d d1 0d e7 3c b8 f5 44 3c
       -0.19990623 0.08125207 0.02820483 0.012021475
0003c0 7c 54 08 3d ba 8f 45 3e ad 86 89 3e 17 2e 7d bc
       0.033283696 0.19293109 0.26860562 -0.015452883
0003d0 ad 3c 9d 3e ca 86 0a 3e ff 81 96 be 69 0d 84 3d
       0.30710354 0.1352798 -0.29396054 0.0644787
0003e0 42 22 d4 bd cd 41 0a 3d d3 bc 12 3d a2 05 84 bc
       -0.10358097 0.03375416 0.035824608 -0.016115967
0003f0 18 b9 76 3e 9e 0c d8 3d 53 f8 ac bd 73 f8 38 bd
       0.24094045 0.105492815 -0.084458016 -0.045158815

critic_value.critic_2.bias f4 [64]
000000 00 00 00 00 93 7a 83 3d af 46 7a 3d 50 53 e7 3c
       0.0 0.064198636 0.061102565 0.028237969
000010 8c d8 85 bc 80 86 f7 3c 8e 19 1f 3d 00 00 00 00
       -0.01633861 0.030215502 0.03884273 0.0
000020 a9 84 48 3c 58 c1 bd 3c e3 60 7d 3d 77 dd 6b 3a
       0.01223866 0.023163483 0.061859977 0.00089975394
000030 97 83 a4 3c ea 7f 46 3d e3 a8 1b 3d 4c ed ab 3c
       0.020082278 0.048461832 0.03800286 0.020987175
000040 a6 4f ab 3d c4 d7 b3 bc 57 fe 59 3d 5b 53 2c 3d
       0.08364801 -0.021953471 0.053221073 0.04207168
000050 1d dc 86 3d d9 6c 97 3d d5 03 89 3d b6 98 b1 bb
       0.06584952 0.07393808 0.06690184 -0.005419816
000060 83 a5 ac 3c 66 0c 1e 3d 32 d8 1e 3d 19 c6 33 3d
       0.021075016 0.038586043 0.0387804 0.043890093
000070 e2 47 cb 3c 6a 76 1a bc 40 b5 8e 3d 19 a9 88 bc
       0.02481455 -0.009427646 0.069681644 -0.016682195
000080 6e dd 3b 3d 35 38 25 3d 36 81 83 3d 19 b7 41 3d
       0.04586547 0.040336806 0.064211294 0.047293756
000090 4d 53 6f 3d 37 fe 6b 3d eb 52 4e 3d 0a c7 ab 3c
       0.05842905 0.057615485 0.050372045 0.020968933
0000a0 06 12 43 3d 0b 41 b3 3c cd 4e 3c 3d 61 08 c6 3b
       0.04762461 0.0218816 0.045973588 0.0060434793
0000b0 ad b5 01 3c 16 8c b5 3d 02 35 ae 3d 7e 25 10 3d
       0.00791685 0.0886461 0.08506204 0.035192005
0000c0 bc 70 30 3d 48 ce 30 bc c6 65 86 bc 69 bd 3c 3d
       0.043076262 -0.010791369 -0.016405951 0.046079073
0000d0 28 b0 a3 3d 00 00 00 00 5c 1b 12 3d ca 1a 3e 3d
       0.079925835 0.0 0.035670623 0.046412267
0000e0 74 32 9a bc 12 b9 42 3d 29 98 ae 3d b8 f1 c2 3d
       -0.018822886 0.047539778 0.08525116 0.095187604
0000f0 77 89 40 3d 82 c0 45 3d 69 42 a0 3c 19 f0 3a 3d
       0.047006097 0.048279293 0.019562917 0.04563913
