results/model_1661312075.6494646/network_30.pth (torch, 130543 bytes, 16 tensors)

feature_net.act_cnn1.weight f4 [1, 1, 5, 1]
0	0x3f0256ed	0.5091389
1	0x3ee7d759	0.45281485
2	0x3cc41de9	0.023940044
3	0xbf9d6fa9	-1.2299701
4	0x3e8495de	0.2589559

actor_logit.actor_1.weight f4 [64, 110]
0	0x3e25a41e	0.16175887
1	0xbdedd9fd	-0.116138436
2	0xbdc908ad	-0.09816108
3	0x3d0a8f85	0.033828277
4	0x3dab1a68	0.08354646
5	0xbd112c17	-0.035442438
6	0xbe00c978	-0.12576854
7	0x3c480017	0.012207053
8	0x3e357579	0.17720594
9	0x3dc24f17	0.094877414
10	0x3e00e1d4	0.12586147
11	0xbf046bfd	-0.5172728
12	0x3d81142f	0.06302678
13	0xbdebe9f7	-0.11519235
14	0xbda120d4	-0.078675896
15	0xbe517879	-0.20456113
16	0x3da4f561	0.08054615
17	0x3eb672f8	0.3563459
18	0xbe9bde93	-0.30443248
19	0x3c852702	0.016253952
20	0x3d42f29a	0.047594644
21	0x3b2a85af	0.0026019623
22	0x3e2bcd29	0.16777481
23	0x3ddb1460	0.106972456
24	0xbc84a896	-0.01619367
25	0x3db5dedc	0.08880398
26	0x3d847f77	0.064696245
27	0x3dd23ecb	0.10265883
28	0xbe1210bf	-0.142642
29	0xbde95ad0	-0.11394274
30	0x3daccdc3	0.084376834
31	0x3ba89c5a	0.0051455917
32	0x3cf5c282	0.029999975
33	0x3d28686c	0.04111521
34	0x3dbc897d	0.09205911
35	0x3e0261cb	0.12732618
36	0x3d636f08	0.05552581
37	0xbd97b6c5	-0.074079074
38	0x3ddf2c60	0.10897136
39	0x3e33fe04	0.17577368
40	0x3dc000c3	0.09375145
41	0xbe661bcc	-0.22471541
42	0xbe6ed1b2	-0.2332218
43	0x3cd2b72b	0.025722107
44	0xbe07cfe6	-0.132629
45	0xbe1e3fe4	-0.1545406
46	0x3cb3687c	0.021900408
47	0xbd033f3e	-0.032042734
48	0xbdff1b5f	-0.124563925
49	0x3d99f4a8	0.075173676
50	0x3d0bee95	0.034163076
51	0xbe224d12	-0.15849712
52	0x3e0f77d8	0.1401056
53	0xbdcb54dc	-0.09928295
54	0x3d9002e9	0.07031805
55	0xbdb2858d	-0.08716879
56	0x3e11d123	0.14239936
57	0x3d0396eb	0.03212635
58	0x3cb769e5	0.022389362
59	0xbb519c5c	-0.0031984067
60	0xbc99078c	-0.018680356
61	0x3d6dfd6d	0.058103014
62	0x3e142608	0.14467633
63	0x3db0d0b4	0.08633557
64	0x3e368622	0.17824605
65	0x3bab01a6	0.0052187024
66	0x3e8437a8	0.25823712
67	0x3d53a838	0.051674098
68	0x3de92f6c	0.11385998
69	0xbe5e7812	-0.2172549
70	0xbdf7f780	-0.12107754
71	0x3e78d785	0.24300964
72	0x3e86b812	0.2631231
73	0x3e486caf	0.1957271
74	0x3dec36e2	0.115339056
75	0x3caa5345	0.02079166
76	0x3dab1863	0.08354261
77	0xbe317142	-0.1732836
78	0x3e1fd3c1	0.15608121
79	0x3ca37b4a	0.01995625
80	0xbdb1faf9	-0.08690447
81	0x3e3f5172	0.18683413
82	0x3c464cd9	0.012103283
83	0xbd1c755f	-0.03819787
84	0xbe3adaed	-0.18247576
85	0xbd8995f9	-0.06718058
86	0xbd9066d7	-0.07050865
87	0xbe80e35a	-0.25173455
88	0x3dc109bf	0.09425687
89	0x3d4e7afe	0.050410263
90	0x3d97ed4e	0.07418309
91	0xbdb483c4	-0.08814195
92	0xbdbe9908	-0.09306532
93	0xbd9dd986	-0.07707505
94	0xbd5ccecb	-0.05390815
95	0xbbd0ad2d	-0.0063683004
96	0xbe532b0e	-0.20621893
97	0x3de469a4	0.11152962
98	0xbdbf99cf	-0.093555085
99	0xbd301576	-0.042989217
100	0xbe4c36a5	-0.1994272
101	0xbdb4f536	-0.08835833
102	0x3d65307e	0.05595445
103	0xbd13aa20	-0.036050916
104	0xbe1997e7	-0.14999352
105	0x3cf30e1c	0.029669814
106	0xbd9a7681	-0.07542134
107	0x3e28d6fa	0.16488257
108	0xbe0c617f	-0.13709067
109	0xbd2f0906	-0.042733215
110	0x3e1261f1	0.14295174
111	0x3e1e1b60	0.1544013
112	0xbc633529	-0.013867655
113	0x3e77000e	0.24121115
114	0xbc89de5d	-0.016829664
115	0xbe79833f	-0.24366473
116	0xbd6b55a8	-0.057454735
117	0xbc901f63	-0.017593091
118	0xbed4bee6	-0.41551894
119	0x3e192856	0.14956793
120	0x3e83d4ca	0.25748283
121	0x3e0e4d5a	0.13896695
122	0xbd9f6286	-0.07782464
123	0xbe0765ab	-0.13222377
124	0x3da1bdd9	0.07897539
125	0xbc99275f	-0.018695531
126	0x3ce26f20	0.02764088
127	0xbdcbdbb7	-0.09954017
128	0xbd7e6e9c	-0.062117204
129	0xbe61f53b	-0.22066204
130	0xbd721175	-0.05909868
131	0x3d94a70d	0.07258425
132	0x3d27df08	0.040984184
133	0xbbc58ea7	-0.0060289684
134	0xbd89809a	-0.06713982
135	0xbd83c984	-0.064349204
136	0xbc149596	-0.009068867
137	0x3d653120	0.055955052
138	0xbdd68e6c	-0.104763836
139	0x3d699d11	0.057034556
140	0xbded9edf	-0.11602568
141	0x3d92c329	0.0716613
142	0xbe038525	-0.1284376
143	0xbd83064c	-0.063976854
144	0xbe20ba79	-0.15696134
145	0xbd261291	-0.04054505
146	0x3cc13a84	0.023587473
147	0xbd4b3b7f	-0.049617287
148	0xbe45df49	-0.19323458
149	0xbdc43ec9	-0.09582288
150	0xbe2c7e92	-0.16845158
151	0xbd7f9ae4	-0.062403575
152	0xbd325e31	-0.04354686
153	0x3d2aef79	0.041732285
154	0xbe8dc3b1	-0.27688363
155	0xbdc3089f	-0.09523129
156	0xbe729a47	-0.23691665
157	0xbc6335f1	-0.013867841
158	0x3deea7b1	0.11653078
159	0xbd45d0c7	-0.04829481
160	0xbe25b8ef	-0.16183828
161	0x3df857e8	0.12126142
162	0x3e06d398	0.13166654
163	0x3e9005b0	0.2812934
164	0xbdf6af3b	-0.12045141
165	0xbc385f5e	-0.011253206
166	0xbcf6b6ff	-0.030116556
167	0x3dff7f08	0.12475401
168	0xbda262b5	-0.07928983
169	0xbd0add73	-0.033902597
170	0xbcd8201b	-0.026382497
171	0x3dc0de44	0.09417394
172	0x3e4e2c67	0.20134126
173	0x3d68e8a3	0.056862485
174	0x3e9a4967	0.30134127
175	0x3d6ccb95	0.05781134
176	0xbda3de40	-0.08001375
177	0xbdab0455	-0.08350436
178	0xbe7557ec	-0.23959321
179	0x3d8f56c2	0.069989696
180	0x3d1ad7c6	0.037803434
181	0xbe687949	-0.22702517
182	0xbb172ed6	-0.0023068688
183	0xbc7045f7	-0.014665118
184	0x3c59f159	0.013302171
185	0x3dee97fb	0.11650082
186	0x3c41b4b2	0.011822866
187	0x3bbd77ab	0.005782088
188	0xbd249c21	-0.04018796
189	0xbc68c62b	-0.014207403
190	0x3ca9bf15	0.020720998
191	0xbcf41579	-0.029795395
192	0x3ce70a82	0.028203253
193	0xbe185aec	-0.14878434
194	0xbe460bab	-0.19340388
195	0xbd7d0bfb	-0.061779004
196	0xbedb01bb	-0.42774758
197	0x3d0b9e38	0.034086436
198	0xbd05d6b5	-0.032675464
199	0xbdf7d63a	-0.12101407
200	0x3e919037	0.2843034
201	0x3d820c61	0.06350017
202	0x3e2b2d6d	0.16716547
203	0xbd14f092	-0.03636224
204	0x3dfdd92d	0.123949386
205	0xbd97e387	-0.07416444
206	0xbe696fd6	-0.22796568
207	0x3dfcabd0	0.12337458
208	0x3e1f4931	0.15555264
209	0x3e05a6bb	0.13051884
210	0xbe13558f	-0.14388107
211	0xbe39c066	-0.181398
212	0x3d4c7847	0.049919393
213	0x3e3f2211	0.18665339
214	0xbe094897	-0.13406597
215	0x3cbf5491	0.023355754
216	0xbe54db5f	-0.20786808
217	0x3dc168cc	0.094438165
218	0x3d847a69	0.064686604
219	0xbd7eb6bb	-0.062185984
220	0xbdacad4b	-0.084314905
221	0x3e4c1903	0.19931416
222	0x3e0d4cd6	0.13798842
223	0x3e8a5686	0.27019137
224	0xbd9574cd	-0.072976686
225	0x3d907084	0.07052711
226	0x3d95ac8c	0.07308301
227	0xbe9671dc	-0.29383743
228	0x3d64a86f	0.055824693
229	0x3e02737e	0.1273937
230	0x3d7beae8	0.06150332
231	0xbe4877a6	-0.19576892
232	0x3d87c37e	0.06629084
233	0x3dd834c5	0.1055694
234	0xbda2cc4c	-0.07949123
235	0x3d3bd952	0.04586155
236	0x3df98a44	0.12184575
237	0x3e1cdce9	0.15318646
238	0x3e54d2f5	0.20783599
239	0xbb7b0b78	-0.0038306396
240	0x3dee48c5	0.116349734
241	0xbe2833d5	-0.16426022
242	0xbe18fd42	-0.1494036
243	0xbc4980ac	-0.012298744
244	0xbe6ce8cc	-0.2313568
245	0xbe35cdf4	-0.17754346
246	0x3df5db10	0.120046735
247	0x3cf63b06	0.030057441
248	0xbe342d46	-0.17595395
249	0xbc61d333	-0.013783264
250	0x3e0608a7	0.13089238
251	0xbd88b2b0	-0.06674707
252	0x3e597a1a	0.21237984
253	0xbd0f3501	-0.034962658
254	0x3d37261f	0.04471409
255	0x3b49e2ec	0.0030805422

actor_logit.actor_1.bias f4 [64]
0	0x3cb7ddfd	0.02244472
1	0xbc3a6350	-0.011376217
2	0x3c37ea04	0.011225227
3	0xbbaf0a9c	-0.005341841
4	0x3c9815a5	0.018565008
5	0xb97f6380	-0.00024355762
6	0x3d2135ad	0.03935783
7	0x3b5700a3	0.0032806776
8	0x3b01cc8e	0.0019805762
9	0x3bc8f9cb	0.0061332933
10	0x3be39cbf	0.006946176
11	0xbc8ce2a8	-0.017197922
12	0x3c2678e3	0.010160658
13	0xbc3649cb	-0.011125992
14	0x3b804af3	0.0039151846
15	0x3b9e8852	0.004838028
16	0x3c4411a6	0.011967098
17	0x3cbbc529	0.022921162
18	0xbc646dcd	-0.013942194
19	0xbaed35d4	-0.0018097707
20	0x3c2013c1	0.009770335
21	0x3b3859bb	0.0028129655
22	0xbc1eca43	-0.009691778
23	0x3b20da7f	0.0024544296
24	0x3c17b25e	0.009258835
25	0x3c3d1add	0.011542049
26	0xbbb7a3c6	-0.00560424
27	0xbc3b6f20	-0.0114400685
28	0x3bd253a7	0.0064186635
29	0xbbf155de	-0.0073649725
30	0x3c8d3b57	0.01724021
31	0xbc308a48	-0.010775156
32	0x3b2bb61f	0.0026201082
33	0x3b9c5c06	0.0047717122
34	0x3ccf0df1	0.025275202
35	0x3c4b1977	0.012396208
36	0x3b843a51	0.004035272
37	0x3bd63017	0.0065364945
38	0x3cb072fd	0.021539206
39	0x3b0c9fdc	0.0021457588
40	0xba6be18d	-0.0008998148
41	0x3c8ab9c4	0.016934283
42	0x3bb11039	0.005403545
43	0x3c848f63	0.016181653
44	0x3c9d2a33	0.019185161
45	0x3ccb98f6	0.02485321
46	0x3c61a325	0.013771807
47	0xbbea7634	-0.007155204
48	0x3ba173a3	0.004927115
49	0x3c162a7c	0.0091654025
50	0x3be3880f	0.0069437097
51	0xbc12d4bd	-0.008961854
52	0xbb2279c8	-0.0024791826
53	0x3c861dd1	0.01637164
54	0x3ce12648	0.027484074
55	0xbc05bfe9	-0.008163431
56	0xbb06fc1f	-0.0020597053
57	0xbae075ed	-0.0017124988
58	0x3c2a3494	0.010388512
59	0xbcb1ceaf	-0.021705
60	0x3b029717	0.0019926482
61	0xbab59652	-0.0013854003
62	0x3c14121f	0.0090375235
63	0xb9812ff4	-0.00024640525

actor_logit.actor_2.weight f4 [64, 64]
0	0x3d757738	0.05992815
1	0x3d6422e6	0.055697344
2	0x3e21220b	0.15735643
3	0x3e11b944	0.1423083
4	0x3e8e6833	0.27813873
5	0x3c4ada98	0.012381218
6	0x3ddd5c5c	0.10808632
7	0xbc880aef	-0.016606776
8	0xbe167dc4	-0.14696413
9	0xbd8f28c3	-0.069901966
10	0x3d95fb41	0.073233135
11	0xbe399544	-0.18123347
12	0xbe700b03	-0.234417
13	0x3e5cbb3b	0.21555798
14	0xbdd30216	-0.10303132
15	0x3dd574de	0.10422681
16	0x3e0dd208	0.13849652
17	0x3e954d4a	0.2916053
18	0xbd4f3feb	-0.050598066
19	0x3d892d16	0.066980526
20	0x3e62753e	0.22115037
21	0x3d41abe2	0.04728306
22	0x3d83a6f1	0.06428326
23	0x3dd97cb4	0.10619488
24	0xbdab6f37	-0.08370822
25	0xbeecabdd	-0.4622487
26	0x3e2fbbfa	0.17161551
27	0x3e3b90b4	0.18316919
28	0x3e0e44f7	0.13893496
29	0x3df76cad	0.12081275
30	0xbe3f309b	-0.18670885
31	0x3f122542	0.570881
32	0x3e3c242e	0.18373176
33	0xbe5d106e	-0.21588299
34	0x3ec44b87	0.38338873
35	0x3e58dfd2	0.2117913
36	0xbc846a0d	-0.01616385
37	0xbe2b4c39	-0.16728295
38	0x3da6d98f	0.08146965
39	0xbd851031	-0.06497229
40	0xbd18ef40	-0.03733754
41	0xbbca79c5	-0.006179067
42	0x3d5af4cf	0.053456124
43	0xbc9433f3	-0.018091178
44	0xbe1ab978	-0.15109813
45	0xbe6e914e	-0.23297617
46	0x3e001170	0.12506652
47	0x3d85e04e	0.06536923
48	0xbd286043	-0.041107427
49	0x3e29d603	0.16585545
50	0xbd8839b9	-0.06651635
51	0x3d5131c0	0.051072836
52	0xbe19bf94	-0.15014488
53	0x3e8cea9b	0.2752274
54	0x3e437a39	0.19089593
55	0xbcd8e546	-0.026476514
56	0x3e6c877e	0.23098561
57	0xbc91db08	-0.017804638
58	0xbd61da9a	-0.055140115
59	0xbe9a482d	-0.3013319
60	0xbe9265a8	-0.28593183
61	0xbe3edb7d	-0.18638416
62	0x3e0b0dd7	0.13579498
63	0xbdabdb26	-0.083914086
64	0xbe28b11b	-0.1647381
65	0xbc4511f8	-0.01202821
66	0xbe930a82	-0.28718954
67	0xbe9e4361	-0.3091078
68	0xbd79bb6a	-0.060969748
69	0x3d046481	0.03232241
70	0x3eb95789	0.36199597
71	0x3ebdbfda	0.37060434
72	0xbd9b4cec	-0.07583031
73	0x3e9505ff	0.29106137
74	0x3dcc2100	0.09967232
75	0x3e12f370	0.14350677
76	0x3e13c72d	0.14431448
77	0xbde90379	-0.113776155
78	0xbc6c5079	-0.014423483
79	0x3dce1a8d	0.10063658
80	0xbdc14923	-0.09437778
81	0xbd01b454	-0.031666115
82	0xbdcfd5ef	-0.101482265
83	0x3dfb624c	0.12274608
84	0xbc34cf22	-0.011035712
85	0x3e3c7177	0.18402658
86	0xbe31a564	-0.17348248
87	0xbdd16da3	-0.1022599
88	0xbe6d7f66	-0.2319313
89	0xbe109c32	-0.14122084
90	0xbca4eb42	-0.02013171
91	0x3d4dd55e	0.05025231
92	0x3dae79ba	0.08519311
93	0x3dcd2dee	0.10018526
94	0xbe03f0f2	-0.12884882
95	0xbe3c0e86	-0.18364915
96	0x3e45227b	0.19251435
97	0xbc7f8de7	-0.015597797
98	0xbbe5ba19	-0.00701071
99	0xbdfa60ed	-0.122255184
100	0xbe2f1819	-0.17099036
101	0xbe02fc2d	-0.1279151
102	0x3e01fc1b	0.12693827
103	0xbd7196d4	-0.05898173
104	0xbeed4690	-0.46342897
105	0xbdd61201	-0.10452653
106	0xbe15fe58	-0.14647806
107	0x3e53aab9	0.20670594
108	0x3e1a862c	0.15090245
109	0x3eb58a48	0.35457063
110	0x3e59bdb0	0.21263766
111	0xbe345d38	-0.17613685
112	0x3d840310	0.064458966
113	0xbe016ea6	-0.12639865
114	0x3e83bd9b	0.25730595
115	0xbca3736d	-0.0199525
116	0xbdb56664	-0.0885742
117	0x3c2c107b	0.010501976
118	0xbd8a833a	-0.06763311
119	0xbe3319e1	-0.17490341
120	0x3e9a1ece	0.30101627
121	0xbdc5effb	-0.09664913
122	0xbea072ab	-0.31337485
123	0xbd6e684e	-0.05820494
124	0xbe719edb	-0.23595755
125	0x3dc3543f	0.09537553
126	0x3e5a5850	0.21322751
127	0xbe6dd8ac	-0.23227185
128	0xbb3c4128	-0.002872536
129	0xbc514862	-0.012773605
130	0x3da52449	0.080635615
131	0xbe1d990e	-0.15390417
132	0x3eba93b8	0.36440825
133	0xbce19699	-0.02753763
134	0xbd83d7bd	-0.06437633
135	0xbdea43a6	-0.11438684
136	0x3deee9ba	0.116656736
137	0x3e4e7023	0.20159964
138	0x3d92148e	0.07132827
139	0x3c1bfa88	0.0095201805
140	0x3e3298b7	0.17441069
141	0xbc213184	-0.009838466
142	0xbdeae41f	-0.11469292
143	0x3e04815b	0.1293997
144	0x3ee8d754	0.45476782
145	0xbe11556a	-0.14192739
146	0x3add3632	0.0016877113
147	0xbe0805ca	-0.13283458
148	0xbe3a4b49	-0.18192782
149	0xbdd2c0e0	-0.10290694
150	0x3da5fc00	0.08104706
151	0xbe8edc10	-0.2790227
152	0x3d94e230	0.07269704
153	0x3e24679c	0.16055149
154	0x3d8c9919	0.068651386
155	0xbe12655b	-0.14296477
156	0xbcb9edd9	-0.022696422
157	0xbe32a355	-0.17445119
158	0xbb9e4c4a	-0.0048308717
159	0xbe4047f8	-0.18777454
160	0xbe99ad7b	-0.30015168
161	0xbe8617dc	-0.26190078
162	0xbe77531a	-0.24152794
163	0x3eaa7a7c	0.33296573
164	0x3df89b28	0.12138969
165	0x3d6427eb	0.05570213
166	0x3e601b10	0.21885324
167	0xbe88f68f	-0.2675061
168	0xbdf082e0	-0.117437124
169	0x3db85a14	0.09001556
170	0x3e8ed27d	0.27894965
171	0x3d10cb2b	0.035350006
172	0xbe2bde3d	-0.16783996
173	0x3d98b7ce	0.07456933
174	0x3e50632c	0.20350331
175	0x3e364fb7	0.17803846
176	0xbe49228d	-0.19642086
177	0x3c25a492	0.010110037
178	0x3d44c773	0.048041772
179	0xbe87274d	-0.26397172
180	0xbea648af	-0.32477328
181	0xbe263e6e	-0.16234753
182	0x3e1f5c95	0.15562661
183	0xbcdb54d7	-0.026773853
184	0xbe790f9f	-0.24322365
185	0xbe0a3519	-0.13496818
186	0xbe005e44	-0.1253596
187	0xbce8cffa	-0.028419483
188	0xbeb066ac	-0.34453332
189	0xbdfd4d29	-0.12368233
190	0x3e2619d5	0.16220792
191	0xbde30e06	-0.11086659
192	0xbe0437af	-0.12911867
193	0x3e5711fa	0.21002951
194	0xbd22dcb0	-0.039761245
195	0x3dc01902	0.0937977
196	0x3e5aada4	0.21355301
197	0x3c972e27	0.018454624
198	0x3e52a70c	0.20571536
199	0xbdf3e3a5	-0.11908654
200	0x3e1b681b	0.15176432
201	0xbd90a86b	-0.07063373
202	0xbb033278	-0.0020019095
203	0x3ce25b22	0.027631346
204	0x3e1a95d6	0.1509622
205	0xbd695bba	-0.056972243
206	0x3dbd61d3	0.09247174
207	0x3d1a06d3	0.037604164
208	0xbdf49086	-0.11941628
209	0xbc37b967	-0.011213637
210	0x3ee1d580	0.441082
211	0x3ea904d9	0.3301151
212	0xbe08af08	-0.13348019
213	0x3dcae077	0.099060945
214	0xbd7e9228	-0.062151104
215	0xbd6ee9bd	-0.05832838
216	0xbe9ac2a8	-0.30226636
217	0x3ddc8bda	0.10768862
218	0x3c2ad547	0.010426826
219	0xbe918d80	-0.28428268
220	0x3e1d5a31	0.15366437
221	0xbe33b631	-0.1754997
222	0x3d28b313	0.041186403
223	0xbcf5187a	-0.029918898
224	0xbe420c15	-0.18949921
225	0x3d561e73	0.052275132
226	0xbdb7b1e4	-0.08969477
227	0xbdd26032	-0.10272254
228	0x3cdd5e29	0.027022438
229	0xbc620d74	-0.013797153
230	0x3df4aa34	0.11946526
231	0x3e5ae79f	0.21377419
232	0xbe70d55f	-0.23518895
233	0xbe426a71	-0.18985917
234	0x3f029412	0.5100719
235	0xbe45d0f7	-0.19317995
236	0x3d14b241	0.03630281
237	0xbe8d0cc9	-0.27548817
238	0xbec1f90f	-0.3788533
239	0x3e096e1e	0.13420913
240	0xbdf9c0d6	-0.12194984
241	0x3e01784e	0.12643549
242	0xbe4494e9	-0.1919743
243	0x3de968bc	0.113969296
244	0x3d148197	0.0362564
245	0xbda2d93f	-0.07951593
246	0xbe13e985	-0.1444455
247	0x3cef7002	0.029228214
248	0x3f001168	0.5002656
249	0xbdea629b	-0.11444589
250	0xbd14a61b	-0.036291223
251	0xbe6b12a8	-0.22956336
252	0x3b6326d1	0.0034660588
253	0xbcc50369	-0.024049478
254	0x3d81a9cb	0.063312136
255	0x3d7e0107	0.0620127

actor_logit.actor_2.bias f4 [64]
0	0x3c1269de	0.0089363735
1	0x3c2c4cdd	0.0105163725
2	0xba470919	-0.0007592603
3	0xbb07c5d3	-0.0020717278
4	0xba26b133	-0.0006358802
5	0x3c671a11	0.014105336
6	0x3cc384ec	0.023867093
7	0x3c46c1f2	0.012131201
8	0x3b79e701	0.0038132074
9	0xbc572f26	-0.0131338
10	0x3cf07ac0	0.029355407
11	0xbbc6a8bd	-0.0060625956
12	0x3a1432ee	0.0005653341
13	0x3b62c1bc	0.0034600338
14	0x3b81f670	0.003966145
15	0x3cab7879	0.02093147
16	0xbc1dc2f2	-0.009628998
17	0x3b67c57c	0.0035365513
18	0x3c146e3f	0.009059488
19	0x3ba7123e	0.00509861
20	0x39e3c08c	0.00043440273
21	0x3c8c696a	0.01714011
22	0xbc2755c5	-0.01021332
23	0xbb845acb	-0.0040391437
24	0x3b2af342	0.0026084934
25	0x3c54182d	0.012945217
26	0xbb8187e3	-0.0039529665
27	0xbc3ef76f	-0.011655672
28	0xbc298e3c	-0.010348853
29	0x3cf71a20	0.030163825
30	0xbbba8108	-0.0056916513
31	0x3bf8e011	0.00759507
32	0x3c487c7c	0.012236711
33	0x3c2e1e72	0.010627376
34	0x3ba607a3	0.0050668283
35	0x3c87be1f	0.016570149
36	0x3b286dea	0.002570028
37	0xbba244af	-0.0049520354
38	0xbca617a2	-0.02027494
39	0xbb50c6eb	-0.0031856846
40	0x3c9c2fdf	0.019065795
41	0x3b9a1b18	0.004702937
42	0x3a9058dc	0.001101281
43	0x3b3ec059	0.0029106347
44	0x3be06cc1	0.006848902
45	0xbc47a0e2	-0.012184354
46	0xbb3c0861	-0.0028691518
47	0xbc2f6c26	-0.010706937
48	0x3c940044	0.018066533
49	0xbb797cbf	-0.003806874
50	0xbc4de557	-0.012566886
51	0x3c464dfa	0.012103552
52	0x3c1b55e2	0.009480925
53	0x3c230605	0.009950166
54	0x3b4339c3	0.0029789067
55	0x3d0f4074	0.034973577
56	0x3ca905ab	0.020632586
57	0xbc802324	-0.015641756
58	0xbc04ee1d	-0.008113411
59	0x3becf885	0.0072317743
60	0xbc059081	-0.008152128
61	0xbc09b735	-0.008405496
62	0x3c8a6706	0.016894829
63	0x3c885faa	0.016647179

actor_logit.actor_3.weight f4 [64, 64]
0	0x3e187705	0.14889152
1	0xbe08445e	-0.1330733
2	0xbd8a9468	-0.067665875
3	0x3e95569e	0.29167646
4	0xbdd7c9ae	-0.10536514
5	0x3e447162	0.19183877
6	0x3d3f3d61	0.046689395
7	0xbdd4cad0	-0.10390246
8	0x3e44b021	0.19207813
9	0xbe3399c1	-0.17539121
10	0xbe14e4cd	-0.14540406
11	0x3e5a8c04	0.21342474
12	0x3d88c96e	0.06679045
13	0x3ca0f6fb	0.01964902
14	0xbd14d1d8	-0.036332935
15	0xbe847783	-0.2587243
16	0xbe41e023	-0.18933158
17	0xbe649d59	-0.22325648
18	0x3e32474b	0.17410009
19	0x3d0612ae	0.032732658
20	0xbda1739d	-0.078833796
21	0xbe376d62	-0.1791282
22	0xbd4662cc	-0.048434064
23	0x3e1060f9	0.14099492
24	0xbe3bf624	-0.18355614
25	0x3d6c8ff5	0.057754476
26	0x3df7f254	0.12106767
27	0x3c6dd956	0.014517149
28	0xbe3dcf92	-0.18536213
29	0x3e0023a0	0.1251359
30	0x3d86ebd0	0.065879464
31	0xbc739b36	-0.014868548
32	0x3e1420b2	0.14465597
33	0xbe1f7d76	-0.15575203
34	0xbea9a541	-0.3313389
35	0x3e042e41	0.1290827
36	0xbe16edea	-0.14739195
37	0xbdfea549	-0.124338694
38	0x3d316a7f	0.043314453
39	0xbe963cab	-0.2934316
40	0x3e0376b4	0.1283825
41	0x3db158ed	0.08659539
42	0xbd5ae6f0	-0.053442895
43	0x3d9e354e	0.07725011
44	0x3de0bd7b	0.109736405
45	0x3c6f5b54	0.014609177
46	0xbdce0321	-0.100591905
47	0xbea8bcfc	-0.32956684
48	0xbd6082ea	-0.05481235
49	0xbeb04458	-0.34427142
50	0xbec3897c	-0.3819083
51	0x3e61e1eb	0.22058837
52	0xbd61679e	-0.055030458
53	0x3cd63eae	0.026152935
54	0x3e864bfa	0.2622984
55	0xbe8aba19	-0.27095106
56	0x3e89dffd	0.26928702
57	0xbe576e57	-0.21038185
58	0xbd1f1b9a	-0.038844682
59	0x3d7d245b	0.06180225
60	0x3e3a4f39	0.18194284
61	0xbd80c706	-0.06287961
62	0x3ed35c0b	0.4128116
63	0xbe3a5483	-0.18196301
64	0xbe28c6a9	-0.16482033
65	0x3d578269	0.052614603
66	0xbe515c65	-0.20445402
67	0xbe52cb9b	-0.20585482
68	0x3e23b64e	0.15987512
69	0xbe840a69	-0.25789192
70	0xbe551019	-0.20806922
71	0x3d9693a6	0.073523805
72	0x3e6b6d88	0.22991002
73	0xbda5a247	-0.080875926
74	0x3d7ec690	0.062201083
75	0x3c30cc74	0.010790933
76	0x3e0a3985	0.13498504
77	0x3ed48acf	0.41512153
78	0x3d8e0071	0.06933678
79	0x3e97cb2a	0.2964719
80	0x3e72efc6	0.23724279
81	0x3d5109ed	0.051034857
82	0x3e436d16	0.19084582
83	0x3e062177	0.13098703
84	0x3d9cd5a0	0.07657933
85	0xbd392f3e	-0.04521107
86	0x3da3afb0	0.07992494
87	0xbd5a1148	-0.053239137
88	0xbeb646a8	-0.3560078
89	0x3e82e05f	0.25561807
90	0xbd3038a0	-0.04302275
91	0xbd0a5db0	-0.033780754
92	0xbcfbb089	-0.030723827
93	0x3e02928e	0.12751219
94	0xbe5f21e0	-0.21790266
95	0x3cb5430d	0.022126699
96	0xbc794085	-0.015213137
97	0x3d29d3b1	0.04146165
98	0xbe3e5323	-0.18586402
99	0x3e66220a	0.22473922
100	0xbe95f4ef	-0.29288432
101	0xbe219f56	-0.15783438
102	0x3e0579f8	0.13034809
103	0xbe20f97b	-0.15720169
104	0x3e93831f	0.28810975
105	0x3daf41aa	0.08557446
106	0x3df770ff	0.12082099
107	0x3e387689	0.18013968
108	0x3e3fdf90	0.18737626
109	0x3d8fab2d	0.07015071
110	0x3df86251	0.12128127
111	0x3ec8f06f	0.39245936
112	0xbe5776db	-0.21041434
113	0x3dac07d4	0.083999306
114	0xbd2123b3	-0.039340686
115	0xbe27c9b8	-0.16385543
116	0xbebb42f4	-0.3657452
117	0x3be11d56	0.006869952
118	0x3dc39506	0.09549908
119	0xbdf3d9d0	-0.11906779
120	0xbe05f243	-0.13080697
121	0x3dc44428	0.09583312
122	0xbe2f60e4	-0.17126805
123	0xbe47cbf3	-0.19511394
124	0xbdec43d3	-0.11536374
125	0xbe7a38cc	-0.24435729
126	0x3da78d7d	0.081812836
127	0x3e70c2ba	0.23511782
128	0x3e5d7930	0.2162826
129	0x3e4bb69b	0.19893877
130	0x3ea4f169	0.3221543
131	0x3d910d9a	0.070826724
132	0x3ec5a372	0.3860126
133	0x3d4d3682	0.05010081
134	0xbdec1e29	-0.1152919
135	0xbeaed340	-0.34145546
136	0x3ca77426	0.020441126
137	0xbe26a336	-0.16273198
138	0x3da7480d	0.081680395
139	0xbb37d572	-0.0028050807
140	0x3e81f968	0.25385594
141	0xbe8070b4	-0.25085986
142	0xbe9b399e	-0.30317396
143	0xbd99ab19	-0.075033374
144	0xbd999f84	-0.07501128
145	0x3dc9ccc4	0.09853509
146	0xbe55d435	-0.20881732
147	0xbd442051	-0.04788238
148	0x3e3e8bed	0.18608065
149	0x3e4fd000	0.2029419
150	0x3dcfde86	0.10149865
151	0x3e05f147	0.13080321
152	0x3b1d5e17	0.002401238
153	0xbe58cddf	-0.21172284
154	0x3e9c8344	0.30568898
155	0xbd8ae62c	-0.06782183
156	0xbe55a441	-0.20863439
157	0x3de94bee	0.113914356
158	0xbe333697	-0.17501293
159	0xbdc62460	-0.09674907
160	0xbe1b19c2	-0.15146545
161	0x3e33e168	0.17566454
162	0x3c14bbe3	0.009077999
163	0x3df82227	0.12115889
164	0xbd7e4eda	-0.062086917
165	0x3e68767f	0.22701453
166	0xbe2ad40a	-0.16682449
167	0xbea958ef	-0.33075663
168	0x3d2950ba	0.041336752
169	0x3da984af	0.082772605
170	0x3ecc228e	0.39870113
171	0x3c4facc0	0.012675464
172	0xbeae0699	-0.3398941
173	0x3cba02e7	0.022706462
174	0xbda3fe41	-0.080074795
175	0x3d84203e	0.06451462
176	0x3d3d56d2	0.046225376
177	0xbd74c8c6	-0.059761785
178	0x3e61cece	0.22051546
179	0xbcbac14e	-0.022797253
180	0xbe41ba9d	-0.18918844
181	0x3e431c8a	0.19053856
182	0xbdfad6c6	-0.12247996
183	0xbcebd779	-0.028789269
184	0xbe004b92	-0.12528828
185	0x3e5c313e	0.2150316
186	0xbd84c360	-0.06482577
187	0xbcd282a4	-0.02569706
188	0xbdaecc4f	-0.085350625
189	0xbde5b142	-0.1121545
190	0x3e892c13	0.26791438
191	0xbd49b710	-0.049246848
192	0x3da0a730	0.078443885
193	0x3d52a631	0.051428024
194	0x3ef3350b	0.47501406
195	0xbe1e3b07	-0.15452205
196	0xbe308883	-0.17239575
197	0x3d99ffcb	0.07519492
198	0xbe942a2b	-0.28938422
199	0x3dbbbb4c	0.091665834
200	0x3e23f30f	0.16010688
201	0xbe2493a7	-0.1607195
202	0x3e3f1081	0.1865864
203	0xbd5ee4c0	-0.05441737
204	0xbe0d473b	-0.13796704
205	0x3eadc313	0.33937892
206	0x3e436e6e	0.19085094
207	0x3cfa7ff6	0.030578595
208	0xbc192995	-0.009348293
209	0x3e42aede	0.19012019
210	0x3d5e33ba	0.05424855
211	0xbd881716	-0.06645028
212	0x3d971a97	0.073781185
213	0xbd0459e3	-0.032312285
214	0x3dc810e5	0.097688474
215	0x3da5f7f3	0.08103933
216	0xbd49510c	-0.049149558
217	0x3ebc4174	0.36768687
218	0xbdcd00bc	-0.10009906
219	0xbdd2558d	-0.10270224
220	0x3e5ec233	0.21753769
221	0xbe2a12c7	-0.16608725
222	0xbd9c30b1	-0.07626475
223	0xbe972c6c	-0.2952608
224	0x3ea0f1a3	0.31434354
225	0x3ea01148	0.31263185
226	0x3e09dac4	0.13462359
227	0xbde2b3ac	-0.11069426
228	0x3deda2c4	0.11603311
229	0xbe01db8b	-0.12681405
230	0xbd2c3749	-0.04204491
231	0xbde5af0d	-0.11215029
232	0xbd948288	-0.07251459
233	0x3e5f9e7c	0.218378
234	0x3d7a3284	0.06108333
235	0x3da06755	0.07832209
236	0xbd66b81f	-0.056327935
237	0xbcf8b17a	-0.030358065
238	0xbe33f048	-0.17572129
239	0xbe37cdee	-0.1794965
240	0x3d6ea4cf	0.058262642
241	0xbeb42b79	-0.35189417
242	0x3e89bb6e	0.2690081
243	0x3df42770	0.119215846
244	0x3db2ee18	0.08736819
245	0xbe904a27	-0.28181574
246	0xbe7bc9c7	-0.2458869
247	0xbe88f2d6	-0.2674777
248	0x3e6ce9da	0.23136082
249	0x3dd728aa	0.10505803
250	0xbe1e2178	-0.15442455
251	0x3d0276ea	0.031851687
252	0xbd3e86cf	-0.046515282
253	0xbd31594e	-0.04329806
254	0xbdf72668	-0.12067872
255	0xbe859f01	-0.26097873

actor_logit.actor_3.bias f4 [64]
0	0x3c84ece3	0.016226238
1	0x3b9bfbfe	0.0047602644
2	0xbb2b7ade	-0.0026165764
3	0xbc1c9f42	-0.009559454
4	0x3c022eed	0.007945758
5	0x3c31ed0c	0.010859739
6	0x3d14082d	0.03614061
7	0xbc17a387	-0.009255297
8	0xbc636ed6	-0.013881406
9	0xbaaf5c39	-0.0013378925
10	0xbc547536	-0.012967398
11	0x3d43e2f2	0.047823854
12	0x3b546c0e	0.0032413038
13	0x3c420e21	0.011844189
14	0xbb914603	-0.004433395
15	0xbc17cd1b	-0.00926521
16	0x3b6604bd	0.003509804
17	0x3af699bc	0.0018814127
18	0x3c769201	0.0150494585
19	0xb865a294	-5.4749267e-05
20	0x3bbeb875	0.005820329
21	0x3afd4b55	0.0019324819
22	0xbc022395	-0.007943054
23	0x3b5078a5	0.003181019
24	0xbb20dd66	-0.0024546026
25	0x39ceb35c	0.00039425015
26	0x3af3ac15	0.0018590713
27	0x3cb95b64	0.022626586
28	0xbbe367c1	-0.0069398587
29	0xbafabac4	-0.0019129147
30	0x3c640a56	0.01391848
31	0x3cad0113	0.021118676
32	0x3c0e814b	0.008697818
33	0xbb160083	-0.0022888489
34	0x3c6bc5b8	0.014390402
35	0x3ca28579	0.019839035
36	0xbc2e9e39	-0.01065784
37	0x3c2ae5a8	0.010430731
38	0xbae73a24	-0.0017641229
39	0x3c16e7cd	0.009210539
40	0xbb4cfc5f	-0.0031278355
41	0x3c205a8b	0.009787212
42	0x3c16c658	0.009202562
43	0xbb71663e	-0.0036834623
44	0x3c3cfaa0	0.011534363
45	0xbc1778a7	-0.009245074
46	0x3ba1ffae	0.0049438095
47	0x3c1858da	0.009298528
48	0xbc112636	-0.008859208
49	0x3c173dad	0.009231013
50	0xb6429338	-2.8993945e-06
51	0xbc105bdf	-0.008810966
52	0xbc00734d	-0.00783999
53	0xbc753842	-0.014967026
54	0xbbf42c96	-0.007451604
55	0xbb834305	-0.004005792
56	0x00000000	0.0
57	0x3bd01c51	0.006351032
58	0x3bd0282a	0.006352444
59	0x3be02e8a	0.0068414854
60	0x3b260fc8	0.0025338996
61	0xbb718e08	-0.003685834
62	0x00000000	0.0
63	0xb9fcb2d2	-0.00048198417

critic_value.critic_1.weight f4 [64, 110]
0	0x3dd9e0f2	0.10638608
1	0x3c223fd8	0.009902917
2	0x3e4cc04e	0.19995233
3	0x3e21e778	0.15810955
4	0x3c9e1c1c	0.019300513
5	0x3ec93407	0.39297506
6	0xbe6eb6d8	-0.23311937
7	0xbbf0873c	-0.00734034
8	0x3ce653c7	0.02811612
9	0x3d16ffd0	0.036865056
10	0xbd3fec1e	-0.04685604
11	0x3e35fe8f	0.17772888
12	0xbd9b9e0d	-0.07598505
13	0x3daf0fe5	0.085479535
14	0xbd47d4ae	-0.04878681
15	0x3e00fe61	0.12597038
16	0x3e651ae0	0.22373533
17	0x3cade091	0.021225246
18	0x3e8bdce5	0.27316967
19	0x3c934eab	0.017981848
20	0x3e865a05	0.26240554
21	0xbbbc2939	-0.005742219
22	0xbda54433	-0.080696486
23	0xbb85653f	-0.0040709074
24	0xbe1eaa47	-0.15494643
25	0x3d239bf6	0.039943658
26	0x3e85963e	0.26091188
27	0x3e850cde	0.2598638
28	0xbd812037	-0.063049726
29	0xbe4f5db2	-0.20250586
30	0xbda55603	-0.08073046
31	0x3dc334c4	0.095315486
32	0x3e02de03	0.12780003
33	0x3e03ceb7	0.12871824
34	0x3e4682e2	0.19385865
35	0xbe1576cf	-0.14596103
36	0xbd41232c	-0.047152683
37	0xbe10d309	-0.14143004
38	0x3d54859b	0.05188523
39	0x3ddb73cc	0.10715446
40	0x3d8e449f	0.06946682
41	0x3e23cab9	0.15995301
42	0x3e0c4a4a	0.13700214
43	0x3e79af7e	0.24383351
44	0x3e2a32d8	0.16620958
45	0x3e254c58	0.16142404
46	0x3ea12f9c	0.31481636
47	0x3f131e4c	0.57468104
48	0x3eb05448	0.34439301
49	0x3d833576	0.06406681
50	0xbe45c7c1	-0.19314481
51	0x3d1c6bef	0.03818887
52	0x3e045545	0.12923153
53	0xbcf72b54	-0.030172028
54	0x3d2793e8	0.04091254
55	0x3d1f539c	0.038898095
56	0xbd439b26	-0.047755383
57	0x3de13422	0.10996272
58	0x3e7c4cbf	0.24638651
59	0x3e8940cd	0.26807252
60	0x3e3deec3	0.18548112
61	0x3e1a98b2	0.15097311
62	0x3dae4bb5	0.08510534
63	0x3db9933b	0.09061285
64	0x3ca13633	0.019679165
65	0x3e7b25eb	0.24526183
66	0xbe56a883	-0.2096272
67	0x3d78057e	0.060552113
68	0xbdba39e9	-0.09093077
69	0x3e6f6a7f	0.23380469
70	0x3dfab5ac	0.122416824
71	0x3dc86309	0.097845145
72	0xbcd005d5	-0.025393406
73	0xb98a127c	-0.00026335183
74	0xbc370dec	-0.011172753
75	0xbdc7af54	-0.09750238
76	0x3e5f60f6	0.21814331
77	0x3d0a71ce	0.03379994
78	0xbe7d9789	-0.24764837
79	0xbd9faaa1	-0.07796217
80	0xbdf933a4	-0.12168053
81	0x3e206bc6	0.15666112
82	0x3df8893f	0.121355526
83	0x3e1708e9	0.14749493
84	0x3d3ad2bc	0.04561113
85	0x3d91fd11	0.07128347
86	0x3e55f4cd	0.20894165
87	0xbe848daf	-0.25889346
88	0x3cdad3f4	0.026712395
89	0xbd003ef9	-0.031310055
90	0x3ea05e15	0.3132178
91	0x3e26f54e	0.16304514
92	0x3e8e83cb	0.27834925
93	0x3e56293c	0.20914167
94	0x3d477055	0.048691113
95	0x3db91c98	0.09038657
96	0xbe3064fa	-0.1722602
97	0x3d29381b	0.041313272
98	0x3e09c6b5	0.13454707
99	0xbcec7a39	-0.028866874
100	0xbd68b2f8	-0.056811303
101	0xbd0d7756	-0.034537636
102	0x3c74aceb	0.014933805
103	0xbe01caf0	-0.12675071
104	0x3bd75b20	0.0065721422
105	0xbde4c095	-0.111695446
106	0x3b900d27	0.004396099
107	0xbe6221d9	-0.22083224
108	0x3bc90920	0.006135121
109	0x3c07a141	0.008278192
110	0x3e79d42c	0.24397343
111	0x3e205ff6	0.15661606
112	0x3d9fed7f	0.07808971
113	0x3e36ba77	0.17844568
114	0x3e229abb	0.15879337
115	0x3df15495	0.11783711
116	0xbcdfc35c	-0.027314834
117	0x3d9fd645	0.078045405
118	0x3e0f8c1a	0.14018288
119	0x3e378670	0.17922378
120	0xbd5a78b8	-0.053337783
121	0xbdc43fea	-0.09582503
122	0x3d17b688	0.03703931
123	0x3e8b3192	0.27186257
124	0xbe515794	-0.20443565
125	0xbd850762	-0.06495549
126	0x3de19e05	0.11016468
127	0x3e8e98b6	0.27850884
128	0x3d1330ec	0.035935327
129	0x3d121d89	0.0356727
130	0x3e1c0453	0.15236025
131	0xbe57ed5a	-0.21086636
132	0x3e21b25f	0.157907
133	0x3e0723fd	0.13197322
134	0x3e0dacdb	0.1383547
135	0x3e05deed	0.1307332
136	0x3df04815	0.117324986
137	0x3ca4e656	0.020129364
138	0x3caffac7	0.021481885
139	0x3cf75770	0.03019306
140	0x3e3c5905	0.18393333
141	0xbdb29f66	-0.08721809
142	0x3eb5364e	0.35392994
143	0x3e82590b	0.2545856
144	0x3ea08653	0.3135248
145	0x3ddb806d	0.10717855
146	0x3b83b519	0.0040193913
147	0x3e485541	0.19563772
148	0xbe6830a0	-0.22674799
149	0x3d3292c3	0.043596994
150	0xbe451e2c	-0.19249791
151	0xbe394d6c	-0.1809594
152	0xbe28c7cb	-0.16482465
153	0x3d9b67db	0.07588168
154	0x3d925423	0.07144954
155	0x3e82d972	0.25556523
156	0x3d54c912	0.051949568
157	0x3dff5d04	0.12468913
158	0x3e32f9ef	0.17478155
159	0xbdc19b40	-0.0945344
160	0x3e016ee6	0.1263996
161	0x3dcdfeb0	0.100583434
162	0x3d68c210	0.056825697
163	0x3e4d6c86	0.2006093
164	0x3e2859bf	0.16440485
165	0x3c449a12	0.011999624
166	0xbe68e607	-0.22743998
167	0x3e67d5e5	0.22640188
168	0x3cf15e16	0.029463809
169	0xbcd61774	-0.02613423
170	0x3e822000	0.2541504
171	0xbe3df65b	-0.18551008
172	0xbda8ed60	-0.08248401
173	0xbe701229	-0.23444428
174	0xbdd03102	-0.101655975
175	0xbe0d0d41	-0.13774587
176	0xbe42b363	-0.19013743
177	0xbd8a33bc	-0.06748149
178	0x3e0d1509	0.13777556
179	0x3e238642	0.15969184
180	0xbe29aa25	-0.16568811
181	0xbe82fc73	-0.25583228
182	0xbdac91a1	-0.08426214
183	0xbe5623c2	-0.20912078
184	0x3daa632c	0.08319697
185	0xbdc919d3	-0.09819379
186	0x3da4b3a4	0.08042076
187	0xbd3b11e2	-0.04567135
188	0xbe851e54	-0.259997
189	0xbca41895	-0.020031253
190	0x3de79072	0.11306848
191	0xbe3599c0	-0.17734432
192	0xbcc86bc0	-0.024465442
193	0x3dc896a0	0.097943544
194	0x3e30092f	0.17191003
195	0x3e58d614	0.21175414
196	0xbca3edea	-0.020010907
197	0xbb8d7b9f	-0.0043177153
198	0xbd9ac04e	-0.075562105
199	0xbd60be39	-0.05486891
200	0x3d92471d	0.0714247
201	0x3dbd206f	0.09234702
202	0xbe094361	-0.1340461
203	0xbd94f167	-0.07272606
204	0x3e58774b	0.21139257
205	0xbd9d34a4	-0.07676056
206	0x3d000952	0.03125889
207	0x3de0ee81	0.10982991
208	0xbbb8cf88	-0.005639974
209	0x3ea3f537	0.32023022
210	0xbc2e1352	-0.0106247235
211	0x3d722499	0.059116933
212	0x3e103eca	0.14086452
213	0x3cb44c9d	0.022009188
214	0x3e69f4eb	0.22847335
215	0x3e11fd53	0.14256792
216	0x3e024668	0.1272217
217	0x3d680ddb	0.05665384
218	0x3d1221eb	0.035676878
219	0x3ddbf303	0.1073971
220	0x3df94a7e	0.121724114
221	0xbe8a6dae	-0.27036804
222	0xbda83ba2	-0.08214499
223	0xbd71a56b	-0.058995645
224	0x3e652276	0.22376427
225	0x3e6cbe27	0.23119412
226	0x3cc37891	0.023861201
227	0x3d69a3ae	0.057040863
228	0x3d96ae56	0.07357471
229	0x3d3396d6	0.04384502
230	0xbea76a12	-0.32698113
231	0xbe2e38e0	-0.17013884
232	0xbc70b9bd	-0.014692721
233	0x3e87409b	0.26416478
234	0x3c19fb43	0.009398284
235	0x3bf22f87	0.0073909196
236	0xba70ada7	-0.00091811497
237	0xbc613a4f	-0.013746812
238	0x3dc05840	0.09391832
239	0x3dce46a1	0.10072065
240	0x3d878e17	0.06618898
241	0x3e2b017a	0.16699782
242	0xbe07f59e	-0.1327729
243	0x3b0aa8b3	0.0021157681
244	0xbcb6d53d	-0.022318477
245	0xbd5e771b	-0.054312807
246	0x3cdba7ea	0.026813466
247	0xbda99632	-0.082806006
248	0x3e619cd2	0.22032478
249	0x3e7b5149	0.24542727
250	0x3c67c8bf	0.014146983
251	0xbc8eb59c	-0.017420582
252	0x3e03f8bd	0.12887855
253	0xbea7ca85	-0.32771698
254	0xbad66b65	-0.001635891
255	0xbe94485c	-0.28961456

critic_value.critic_1.bias f4 [64]
0	0x3da474ee	0.08030115
1	0x3d357733	0.04430313
2	0x3b852458	0.0040631704
3	0x3d776495	0.060398657
4	0x3dcc07d8	0.099624336
5	0x3d106395	0.03525122
6	0x3da6c4df	0.08143019
7	0x3d5a29b7	0.05326244
8	0x3d4247a3	0.0474316
9	0x3d408c97	0.047009077
10	0x3dd5a3a4	0.104316026
11	0x3d607dc7	0.05480745
12	0x3d6896f8	0.0567846
13	0x3d8b91e7	0.06814938
14	0x3d5bf469	0.053699885
15	0x3cf4413d	0.029816264
16	0xbb182f18	-0.002322143
17	0xbcd52390	-0.026017934
18	0x3b989120	0.004655972
19	0x3d15a7c7	0.036536958
20	0x3dcf321a	0.10116978
21	0x3c999a91	0.01875046
22	0x3d70f96a	0.05883161
23	0x3d096a6e	0.033548765
24	0x3cf18b52	0.029485378
25	0x3d43a4fc	0.047764763
26	0x3b268021	0.002540596
27	0xbc406107	-0.011741883
28	0x3d9e9571	0.077433474
29	0x3d8a4e65	0.06753234
30	0x3ad6a487	0.0016375937
31	0x3d8de334	0.06928101
32	0xba750b21	-0.00093476666
33	0x3d17ffec	0.0371093
34	0x3d9e7f5e	0.07739137
35	0x3d535618	0.051595777
36	0x3d74f5c5	0.059804697
37	0xbbe63b7f	-0.0070261355
38	0x3d55ceb3	0.052199077
39	0x3d425584	0.047444835
40	0x3d9ee003	0.077575706
41	0x3dd386c5	0.103284396
42	0x3d2b2177	0.04177996
43	0xbbf8b530	-0.0075899586
44	0xb99583da	-0.00028517732
45	0xbc4a8e4f	-0.012363031
46	0x3d61f77c	0.05516766
47	0x3d0ea369	0.03482381
48	0x3c273e04	0.010207657
49	0x3da87207	0.08224874
50	0x3c78a86f	0.015176876
51	0x3da286e9	0.07935888
52	0x3d8584c0	0.06519461
53	0x3d097279	0.033556435
54	0xbc2b5e0a	-0.010459432
55	0x3d9837b6	0.07432501
56	0x3da8a34d	0.08234272
57	0x3d6baca3	0.057537686
58	0x3cc4bbfb	0.024015417
59	0x3d6d9fe4	0.05801381
60	0xbc0f6f02	-0.008754494
61	0x3d06f1ab	0.032945316
62	0x3d89aca6	0.06722383
63	0xbd37a664	-0.044836417

critic_value.critic_2.weight f4 [64, 64]
0	0x3d4a856c	0.049443647
1	0xbe43787b	-0.19088928
2	0xbddc1dfe	-0.10747908
3	0x3b4be672	0.0031112698
4	0x3d7334e2	0.059376605
5	0xbe1097f7	-0.1412047
6	0x3d7b388e	0.06133323
7	0xbd7124a9	-0.058872852
8	0xbe3fb694	-0.18721992
9	0xba8b2481	-0.0010615737
10	0xbe7cbf24	-0.2468229
11	0x3e53738f	0.20649551
12	0x3dc0b5ae	0.09409653
13	0xbe8590ba	-0.2608698
14	0xbe80b820	-0.25140476
15	0x3db7353b	0.089457
16	0xbecc857f	-0.399456
17	0xbd9f89fd	-0.07789991
18	0xbe51641d	-0.20448346
19	0x3e8fd367	0.28090975
20	0xbd86bf11	-0.06579412
21	0xbe549bd8	-0.20762575
22	0xbd48ec3a	-0.04905341
23	0x3dc0b6df	0.0940988
24	0x3e519e51	0.20470549
25	0x3db9f977	0.09080785
26	0x3d54e92c	0.051980183
27	0x3e9706f9	0.29497507
28	0x3dfdbf3c	0.12389991
29	0xbe870d81	-0.2637749
30	0xbdb78b31	-0.089620955
31	0xbe02b701	-0.12765123
32	0xbe2d3f56	-0.16918692
33	0x3ee62c47	0.44955656
34	0x3cb04127	0.021515442
35	0xbe8e9187	-0.27845404
36	0x3de3ad04	0.111169845
37	0x3dc22c4d	0.09481106
38	0xbd83d69b	-0.06437417
39	0xbdfc1486	-0.12308602
40	0xbeb4f551	-0.35343412
41	0xbd7ba13d	-0.061433066
42	0xbd634760	-0.05548799
43	0xbd5f2a30	-0.054483593
44	0xbe784975	-0.24246772
45	0xbe89acea	-0.26889735
46	0x3da8ce64	0.08242491
47	0xbe245967	-0.1604973
48	0x3e1ae6d3	0.15127115
49	0x3df43aa7	0.119252495
50	0x3e396587	0.18105136
51	0x3d934ba1	0.071921594
52	0x3d215d71	0.039395753
53	0xbe8b12cc	-0.27162778
54	0xbe1d640c	-0.15370196
55	0xbbe3b0e1	-0.006948576
56	0xbc134e34	-0.008990813
57	0x3e55243d	0.20814605
58	0x3cf16bf3	0.02947042
59	0x3e5b9e18	0.21447027
60	0xbe4c0f91	-0.19927813
61	0xbe1535d6	-0.14571318
62	0xbe81cd0f	-0.2535176
63	0x3cd21bea	0.025648076
64	0x3e91f7e8	0.2850945
65	0xbd020b9a	-0.031749345
66	0x3dc2d73b	0.09513708
67	0x3dad0491	0.084481366
68	0x3e137b32	0.14402464
69	0x3da590f4	0.08084288
70	0x3cf32b09	0.029683607
71	0x3ed445e8	0.41459584
72	0xbd6e6e78	-0.05821082
73	0x3eacb1a7	0.33729288
74	0x3df6f68d	0.120587446
75	0xbe35e7af	-0.17764162
76	0x3cb1d39e	0.021707352
77	0xbd6e8ff4	-0.058242753
78	0xbcb6141c	-0.022226386
79	0x3d47215c	0.0486158
80	0x3e7289e9	0.23685421
81	0x3a5310d7	0.00080515206
82	0x3ea528d8	0.32257724
83	0x3e57d1cf	0.2107613
84	0x3f0afd40	0.5429268
85	0xbe8a828d	-0.27052727
86	0x3dace604	0.084423095
87	0x3ed5eae2	0.41780764
88	0xbc031d1e	-0.008002548
89	0x3e735c91	0.2376578
90	0x3ebaf103	0.36512002
91	0xbe3dc840	-0.1853342
92	0x3e1effc3	0.15527253
93	0x3e04d5aa	0.12972131
94	0x3dfdb5a9	0.123881646
95	0x3e8b857e	0.27250284
96	0xbe1c2210	-0.15247369
97	0x3dbff067	0.09372025
98	0xbd0519b2	-0.032495208
99	0x3dbb419e	0.09143375
100	0x3e095458	0.13411081
101	0x3d5930fe	0.05302524
102	0xbc484694	-0.012223858
103	0x3dbcdb72	0.09221543
104	0x3de85509	0.11344344
105	0x3d7ff80c	0.062492415
106	0xbd846d7b	-0.06466194
107	0xb9e502d5	-0.00043680394
108	0xbe2d33b0	-0.16914248
109	0xbd81c620	-0.063366175
110	0xbe54f7a0	-0.20797586
111	0x3e3aab64	0.18229443
112	0x3c833465	0.016016195
113	0x3ec9cb05	0.39412704
114	0x3ca539ca	0.020169158
115	0xbd836cce	-0.06417237
116	0xbee009f4	-0.43757594
117	0xbd36775d	-0.044547427
118	0x3c932431	0.017961593
119	0x3cd3a855	0.025837103
120	0x3e036fea	0.1283566
121	0x3e913adc	0.2836522
122	0xbd8af051	-0.06784118
123	0x3e38156a	0.17976919
124	0xbd38578f	-0.045005377
125	0x3e0aed50	0.1356709
126	0x3e6d61e7	0.23181878
127	0xbc417cb6	-0.011809519
128	0x3e87a0d7	0.264899
129	0x3dace524	0.084421426
130	0xbd7633d5	-0.060108025
131	0xbe347af1	-0.17625023
132	0x3ea9376e	0.33050102
133	0x3ea450e4	0.32092965
134	0x3e661d93	0.22472219
135	0x3ec2c009	0.38037136
136	0x3dfcdd90	0.12346947
137	0x3e8a364b	0.26994547
138	0xbe2e0d2e	-0.16997215
139	0x3e9c094b	0.3047584
140	0x3cf97f84	0.030456312
141	0xbcda0ff0	-0.026618928
142	0x3e3a385a	0.18185559
143	0x3cf8aaba	0.030354846
144	0x3e043c95	0.12913735
145	0x3d9196cd	0.07108841
146	0x3d194053	0.03741486
147	0x3cddef7a	0.02709173
148	0x3e0ae8fb	0.13565437
149	0x3e12814a	0.14307132
150	0x3daa4a66	0.083149716
151	0xbe365664	-0.17806393
152	0xbea9260a	-0.33036834
153	0x3dacd863	0.0843971
154	0xbd544bac	-0.05182998
155	0xbd97afdb	-0.07406589
156	0x3e0ac143	0.13550286
157	0xbb6abbbd	-0.0035817467
158	0x3e3ccb59	0.18436946
159	0x3b196b75	0.0023409997
160	0xbd49ecc0	-0.049298048
161	0x3e18bdad	0.14916106
162	0x3e0b029f	0.13575219
163	0x3cad6ea4	0.021170922
164	0x3e58e990	0.21182847
165	0x3de00719	0.10938854
166	0x3eafab61	0.3431044
167	0x3d8d2b8c	0.068930715
168	0x3dc87530	0.09787977
169	0xbe72aaef	-0.23698018
170	0x3e1fb33a	0.15595713
171	0x3e341955	0.17587788
172	0xbd5bf64f	-0.053701695
173	0xbd7f0186	-0.062257312
174	0x3ea4eec3	0.3221341
175	0xbe9b31d3	-0.3031145
176	0xbdff43e9	-0.12464125
177	0xbdf7a758	-0.12092465
178	0xbec07e92	-0.37596565
179	0x3dc1b452	0.094582215
180	0x3ec11376	0.3771016
181	0x3e94ba13	0.29048213
182	0x3e5db9e1	0.21652938
183	0xbe278cef	-0.16362356
184	0x3e28325a	0.16425458
185	0x3e8ae861	0.27130416
186	0xbdf2599b	-0.11833497
187	0xbcf018f1	-0.029308768
188	0xbe764192	-0.2404845
189	0xbec4d6af	-0.3844504
190	0x3e25411c	0.16138119
191	0xbeb9376d	-0.361751
192	0xbe7a4e19	-0.24443854
193	0x3e841641	0.25798228
194	0xbe831c94	-0.2560774
195	0x3db60f7a	0.08889671
196	0x3e084095	0.13305886
197	0xbe837e72	-0.25682408
198	0xbe3e7abb	-0.18601505
199	0x3eab92dd	0.33510485
200	0x3e0bc3ad	0.13648863
201	0x3d62a428	0.055332333
202	0x3d5ab886	0.05339863
203	0x3d4e0ada	0.050303318
204	0xbcac5a40	-0.021039128
205	0x3e414eb6	0.18877682
206	0x3e6790b3	0.22613792
207	0xbe5ce6cd	-0.21572419
208	0x3daa2090	0.08306992
209	0xbe4ebe67	-0.2018982
210	0x3ec37fe4	0.3818351
211	0xbceb0b35	-0.028691867
212	0xbe4c67a9	-0.19961418
213	0xbbd78b30	-0.0065778717
214	0xbf06a2a3	-0.52591914
215	0x3ec372bc	0.38173473
216	0x3d3b37c0	0.045707464
217	0x3c66c03c	0.014083918
218	0x3e9e25a7	0.308881
219	0xbdbd742a	-0.09250672
220	0xbdab270d	-0.08357058
221	0xbd1b951b	-0.037983995
222	0x3e63ad18	0.22233999
223	0xbe316313	-0.1732295
224	0xbe8c3956	-0.27387494
225	0xbd2397b7	-0.03993961
226	0x3bf9dfd3	0.007625559
227	0xbd111614	-0.035421446
228	0xbe1ff3e7	-0.15620385
229	0x3cc60bcd	0.024175549
230	0x3db444c6	0.0880218
231	0xbd9fa79b	-0.0779564
232	0xbc88036a	-0.01660319
233	0x3e9c1d6d	0.304912
234	0xbd620641	-0.055181745
235	0x3e9de1fe	0.3083648
236	0xbe4c8097	-0.19970928
237	0x3dabe5f6	0.08393471
238	0x3ce256be	0.027629253
239	0x3c3fd8b2	0.011709379
240	0x3d095e08	0.03353694
241	0x3e456793	0.19277792
242	0x3e894dad	0.26817074
243	0xbc79f83e	-0.015256939
244	0x3e9d68cd	0.3074402
245	0x3e08fe4a	0.13378254
246	0xbe9681ff	-0.29396054
247	0x3d83fa78	0.064442575
248	0xbdd4c482	-0.103890434
249	0x3d0c1867	0.03420296
250	0x3d12a9d3	0.03580649
251	0xbc8556fb	-0.016276827
252	0x3e765249	0.24054827
253	0x3dd85c21	0.10564447
254	0xbdae440c	-0.08509073
255	0xbd38f873	-0.045158815

critic_value.critic_2.bias f4 [64]
0	0x00000000	0.0
1	0x3d8807bf	0.066421025
2	0x3d7fb06d	0.062424112
3	0x3ce2d189	0.027687805
4	0xbc84797c	-0.01617121
5	0x3d090065	0.033447642
6	0x3d1fd77f	0.039023872
7	0x00000000	0.0
8	0x3c3cdd7b	0.011527414
9	0x3cd13ebc	0.02554261
10	0x3d7b2160	0.061311126
11	0x3b6279f1	0.0034557546
12	0x3ca609f7	0.020268423
13	0x3d4a37d2	0.04936964
14	0x3d1fd4be	0.039021246
15	0x3cb35f2d	0.02189597
16	0x3db33187	0.08749681
17	0xbcbbda7e	-0.022931334
18	0x3d60fb2a	0.05492703
19	0x3d2fda68	0.042932898
20	0x3d866583	0.065623306
21	0x3d9ea6aa	0.077466324
22	0x3d87fb57	0.06639736
23	0xbb90c87f	-0.0044184322
24	0x3cbc7157	0.023003263
25	0x3d1dd108	0.038529426
26	0x3d1ccebd	0.0382831
27	0x3d34b0b1	0.04411382
28	0x3cc8efcf	0.024528412
29	0xbc178039	-0.009246879
30	0x3d8f60c4	0.070008785
31	0xbc897f3e	-0.016784307
32	0x3d476652	0.048681565
33	0x3d2b5b7a	0.041835286
34	0x3d871655	0.06596056
35	0x3d44b6ec	0.04802601
36	0x3d73cacb	0.05951957
37	0x3d6cf6fe	0.057852738
38	0x3d53d596	0.051717363
39	0x3ca59628	0.020213202
40	0x3d435c72	0.047695585
41	0x3cb31196	0.021858972
42	0x3d3d4326	0.046206616
43	0x3bc60861	0.0060434793
44	0x3c21cb6b	0.009875159
45	0x3db8a2a5	0.09015397
46	0x3db0a4fd	0.08625219
47	0x3d11615c	0.03549324
48	0x3d305511	0.043049876
49	0xbc8395a1	-0.01606256
50	0xbc812b41	-0.015767695
51	0x3d428c7b	0.047497254
52	0x3dabd362	0.083899274
53	0x00000000	0.0
54	0x3d12e93d	0.035866965
55	0x3d450778	0.048102826
56	0xbc9a0aaf	-0.018803922
57	0x3d4711d7	0.048600998
58	0x3daf33c3	0.08554795
59	0x3dc6d343	0.09708264
60	0x3d494ac5	0.04914357
61	0x3d4b2c81	0.04960299
62	0x3c9f84ef	0.019472567
63	0x3d3ee69b	0.04660664

critic_value.critic_3.weight f4 [64, 64]
0	0x3edc6f21	0.43053535
1	0x3d121cf5	0.035672147
2	0xbd0d8e41	-0.034559492
3	0xbc4fe81e	-0.012689618
4	0x3c90d927	0.017681671
5	0xbea3c689	-0.31987408
6	0xbcbcab13	-0.023030793
7	0xbd16a45e	-0.036777847
8	0x3dbd8d65	0.092554845
9	0x3e8a81e5	0.27052227
10	0x3e329c56	0.1744245
11	0x3d1870c7	0.037216928
12	0xbdfe500d	-0.12417612
13	0x3e7c081d	0.2461247
14	0xbe2e49d1	-0.17020346
15	0xbe1d76a4	-0.15377289
16	0x3dffd2e6	0.124913976
17	0xbec08d73	-0.37607917
18	0x3e79aa10	0.2438128
19	0x3ea59805	0.32342544
20	0x3e7a342d	0.24433966
21	0xbdb686c3	-0.089124225
22	0x3d2a0eaf	0.04151791
23	0x3d286b57	0.041117992
24	0x3e589306	0.21149835
25	0x3e1de4d3	0.15419321
26	0xbd3b0a99	-0.045664404
27	0xbeb99e4e	-0.3625359
28	0xbcdf2565	-0.02723951
29	0xbdfce599	-0.1234848
30	0x3e20ef46	0.15716276
31	0xbe747075	-0.23871024
32	0x3e80e5f5	0.25175443
33	0x3e100450	0.14064145
34	0x3b18985b	0.002328417
35	0x3d547fb5	0.051879603
36	0xbe31521c	-0.17316478
37	0x3eb2c310	0.34914446
38	0xbe2ea83b	-0.17056362
39	0x3de10aa2	0.10988356
40	0xbd332975	-0.04374071
41	0xbe0e9a6e	-0.13926098
42	0x3e9c7afd	0.30562583
43	0x3e7afdec	0.24510926
44	0x3d8bdd7d	0.06829355
45	0x3de4c41e	0.11170219
46	0x3d308c7a	0.04310272
47	0x3e9e97d3	0.30975208
48	0x3d6b697e	0.057473652
49	0xbe4b7082	-0.19867137
50	0xbe810f61	-0.25207046
51	0x3e89d37f	0.2691917
52	0x3eb0ed55	0.3455607
53	0xba7be28c	-0.0009608648
54	0xbe2df903	-0.16989522
55	0xbe09b8dd	-0.13449426
56	0xbd315f5d	-0.043303836
57	0x3e5cce0a	0.21562973
58	0xbdaeeb63	-0.0854099
59	0xbd96e73f	-0.073683254
60	0xbe30ea6b	-0.17276923
61	0x3e764e70	0.24053359
62	0xbd822f62	-0.06356694
63	0x3e0bbb85	0.13645752
64	0xbd98098b	-0.07423695
65	0xbc45bddf	-0.012069195
66	0x3ce2883d	0.027652854
67	0xbe938b54	-0.28817236
68	0x3c62ff2d	0.013854784
69	0xbe26df25	-0.1629606
70	0x3e7459af	0.23862337
71	0xbc9c6526	-0.0190912
72	0x3e850be6	0.2598564
73	0xbd8d640a	-0.069038466
74	0x3dd4c9d3	0.103900574
75	0x3d57f4ca	0.052723683
76	0x3c8e7230	0.017388433
77	0xbcb1a6bd	-0.021685952
78	0x3df610a6	0.12014894
79	0x3d82a9c6	0.06380038
80	0x3cb68043	0.022277957
81	0x3da7dea7	0.081967644
82	0x3dd308f6	0.103044435
83	0xbe201ecd	-0.1563675
84	0x3e8d5d1a	0.27610093
85	0xbdbe9f1f	-0.09307694
86	0x3e129b05	0.14316948
87	0xbdbd1b20	-0.09233689
88	0x3e6bd3e9	0.23030056
89	0xbe00dd91	-0.12584521
90	0xbd0cb407	-0.034351375
91	0x3d94c11b	0.072633944
92	0xbe030930	-0.12796474
93	0xbe4a2a1d	-0.19742627
94	0xbea6c86e	-0.3257479
95	0xbd823241	-0.063572414
96	0x3e8e9cbc	0.27853954
97	0x3dbcaa6d	0.09212194
98	0x3ceb1dbb	0.0287007
99	0xbdd4b009	-0.103851385
100	0x3cc2bba8	0.023771122
101	0x3df977f9	0.12181086
102	0xbe461fc1	-0.1934805
103	0xbd870777	-0.06593221
104	0x3eba6992	0.3640867
105	0xbe198129	-0.14990677
106	0x3e2578d9	0.16159381
107	0x3dd39612	0.10331358
108	0xbd6c6762	-0.05771578
109	0x3f32bf3d	0.69823056
110	0x3ed425bb	0.41435036
111	0xbd29848b	-0.04138617
112	0x3e7b1992	0.24521473
113	0x3e01bc4e	0.12669489
114	0xbe27163d	-0.16317077
115	0xbcb38e24	-0.021918364
116	0x3ddef8ee	0.10887323
117	0xbee8afef	-0.45446727
118	0x3e9a3fff	0.3012695
119	0x3cabe24b	0.020981928
120	0xbc99f627	-0.018794132
121	0x3e61ea9d	0.22062154
122	0xbd989d8a	-0.07451923
123	0x3e8dda6a	0.277057
124	0xbd031b28	-0.03200832
125	0x3bba5475	0.0056863376
126	0x3d216538	0.03940317
127	0x3d835cb4	0.06414166
128	0x3c8ee5fe	0.017443653
129	0xbdc34c0e	-0.09535991
130	0x3daa3e2e	0.08312641
131	0xbeb4ad4d	-0.35288468
132	0xbe9eca32	-0.31013638
133	0x3d853c4f	0.065056436
134	0x3e2fc430	0.17164683
135	0x3e53cdfc	0.20684046
136	0x3db58919	0.0886404
137	0xbe42ccb6	-0.19023404
138	0x3e6ddf87	0.232298
139	0xbe462f15	-0.19353898
140	0x3da24a7d	0.07924364
141	0x3e0778af	0.13229631
142	0x3d0f10f4	0.034928277
143	0x3e17314c	0.14764899
144	0x3efcf020	0.4940195
145	0xbe649f5c	-0.22326416
146	0xbd3a55b5	-0.045491893
147	0x3e8a1dff	0.2697601
148	0xbde04058	-0.109497726
149	0x3e8e0b92	0.27743202
150	0x3d617243	0.05504061
151	0xbda9878b	-0.08277806
152	0x3eb931cd	0.36170807
153	0x3e78f039	0.24310388
154	0x3ec7cf50	0.39025354
155	0xbcf725e3	-0.030169433
156	0x3d939d79	0.0720777
157	0x3e579ef9	0.21056737
158	0x3e7108ba	0.23538485
159	0x3e16d486	0.14729509
160	0x3dbf47eb	0.09339889
161	0xbe3c4c54	-0.18388492
162	0xbe32c470	-0.17457747
163	0xbe084d05	-0.1331063
164	0xbb0fefb2	-0.0021962938
165	0xbe520b8f	-0.20512222
166	0xbe435571	-0.19075562
167	0xbd9f0152	-0.07763924
168	0xbe5f086f	-0.21780561
169	0x3e6d5d8b	0.23180215
170	0x3e8cb0ad	0.27478543
171	0xbcb3f156	-0.021965664
172	0x3da6f88f	0.081528775
173	0x3e3135d9	0.17305698
174	0x3eaa1154	0.33216345
175	0x3e7e6466	0.24842986
176	0x3e054918	0.13016164
177	0xbdf7fee4	-0.121091634
178	0x3e5af390	0.21381974
179	0x3d8df8b9	0.06932206
180	0x3e28ace4	0.16472203
181	0xbdaf9225	-0.08572797
182	0x3de60eae	0.11233269
183	0xbd9594a4	-0.073037416
184	0x3dc89030	0.097931266
185	0x3dc70a98	0.097188175
186	0x3cfc1fe0	0.030776918
187	0x3cc8888c	0.024479173
188	0x3e83bc88	0.25729775
189	0x3e6ee04f	0.23327754
190	0x3dccd9fe	0.10002516
191	0xbdf70f76	-0.12063496
192	0x3de74667	0.11292725
193	0xbc4d5148	-0.012531586
194	0x3bae858a	0.0053259777
195	0xbe7ccfb6	-0.2468861
196	0xbe0d491c	-0.1379742
197	0x3ddcbbc1	0.10777999
198	0x3e12e2bc	0.14344305
199	0x3dcc6203	0.09979632
200	0x3d399d30	0.04531592
201	0x3e82fbc3	0.25582704
202	0xbe47a9f2	-0.19498423
203	0xbde7399c	-0.11290285
204	0xbdba8283	-0.091069244
205	0xbc2f94fe	-0.010716675
206	0xbe75cf3e	-0.24004838
207	0x3e276216	0.1634601
208	0x3ebe7137	0.3719575
209	0xbd8bba39	-0.068226285
210	0x3e75088c	0.23929042
211	0xbca27f9a	-0.019836236
212	0xbe478b9b	-0.19486849
213	0xbe8851af	-0.2662482
214	0x3e608cc5	0.219287
215	0x3eae18ee	0.34003395
216	0x3d921cc7	0.07134395
217	0x3dc32caf	0.09530007
218	0x3e15b774	0.14620763
219	0x3e34346a	0.1759812
220	0x3eac40bc	0.33643138
221	0x3d8d29cf	0.0689274
222	0xbd5ac7ba	-0.05341313
223	0xbe57735e	-0.21040103
224	0x3e77c3a3	0.24195723
225	0xbe0f3b70	-0.13987517
226	0x3e2e1d41	0.17003347
227	0x3e7352ab	0.23762004
228	0x3f006eca	0.5016905
229	0x3e2d4c27	0.16923581
230	0x3d727c3c	0.05920051
231	0x3d0b68ff	0.03403568
232	0x3d174d89	0.036939178
233	0x3c44a7be	0.0120028835
234	0x3e382910	0.17984414
235	0xbdfd73c3	-0.123755954
236	0x3e9d5ab9	0.30733278
237	0x3d39f1f5	0.045396764
238	0xbdc7e757	-0.097609214
239	0x3ddd668a	0.108105734
240	0xbbfc4a4c	-0.0076992866
241	0x3e02700b	0.12738054
242	0xbcfbe4a8	-0.03074868
243	0x3c0cef14	0.008601923
244	0x3e29ff83	0.16601376
245	0x3da82ca5	0.0821164
246	0x3e1455cd	0.14485855
247	0x3dca8d13	0.09890189
248	0xbe273a59	-0.16330852
249	0x3e51fd8e	0.2050688
250	0x3db93f35	0.09045259
251	0x3f2754d1	0.65363795
252	0xbe5af3ad	-0.21382017
253	0x3d7d5c9a	0.06185589
254	0xbe015e0e	-0.12633535
255	0x3c55590f	0.0130217215
