results/model_1661312075.6494646/network_0.pth (torch, 130543 bytes, 16 tensors)

feature_net.act_cnn1.weight f4 [1, 1, 5, 1]
0.47273478 0.55044615 0.036948457 -1.1843212 0.32068458
00000000: 4b0a f23e 0aea 0c3f 4457 173d d697 97bf
00000010: c530 a43e

actor_logit.actor_1.weight f4 [64, 110]
0.1209072 -0.1518314 -0.12083625 -0.008614018 0.060871277 -0.058117762 -0.1484429 0.010965657
0.14151311 0.07220224 0.1359742 -0.5399492 0.040351477 -0.137867 -0.119172476 -0.24025396
0.05787108 0.31922507 -0.3271085 -0.0064212414 0.024919366 -0.037836097 0.13208199 0.084297284
-0.054474425 0.066128805 0.042020977 0.07998366 -0.18337588 -0.14963573 0.061701633 0.016247576
0.0073247543 0.018439947 0.06938394 0.11085117 0.019832581 -0.096754245 0.06873806 0.15309933
0.07107628 -0.24738976 -0.2736426 -0.009971046 -0.15530336 -0.14592628 -0.0007748106 -0.05471806
-0.14723833 0.041583546 -0.0015301087 -0.18117148 0.13525616 -0.12195812 0.04764285 -0.10984396
0.11866909 -0.0035667724 -0.00028585034 -0.043151446 -0.04135559 0.03542769 0.12200172 0.046377297
0.14255323 -0.017456513 0.2693778 0.02899881 0.09118481 -0.23992926 -0.13541923 0.23087025
0.24896237 0.1957271 0.115339056 0.02079166 0.09339769 -0.1732836 0.14240982 0.030993177
-0.10045663 0.18683413 0.012103283 -0.03819787 -0.1680392 -0.06718058 -0.0793012 -0.26641342
0.085933596 0.050410263 0.07418309 -0.08814195 -0.08116187 -0.07707505 -0.02323345 -0.012465129
-0.17673999 0.11152962 -0.093555085 -0.042989217 -0.20457247 -0.08835833 0.08289805 -0.031027196
-0.12383052 0.029669814 -0.07542134 0.16488257 -0.16237937 -0.042733215 0.1417175 0.15662412
-0.00046831305 0.24510008 -0.0034303197 -0.23026468 -0.044055324 -0.003486637 -0.41329613 0.16296798
0.25701416 0.152367 -0.064425476 -0.11882376 0.07778828 -0.016472705 0.0410403 -0.09742425
-0.048717793 -0.207262 -0.04569927 0.07140956 0.04320699 0.0073703607 -0.06514505 -0.05094983
0.004330453 0.06935443 -0.10598983 0.059257403 -0.10262652 0.08125405 -0.11503835 -0.050577503
-0.14356129 -0.037291687 0.02581026 -0.036217876 -0.19243163 -0.08242372 -0.15505153 -0.04900419
-0.044724785 0.04395509 -0.2634847 -0.08604814 -0.2235166 -0.000468499 0.12992997 -0.04934827
-0.15961546 0.13466139 0.124593556 0.29469234 -0.10705225 0.0021461197 -0.029384535 0.12697689
-0.06589067 -0.033548605 -0.012983175 0.1075731 0.2147413 0.055249106 0.30356407 0.07121054
-0.06992987 -0.070105195 -0.22619316 0.08338886 0.03471581 -0.22420526 -0.005468781 -0.014665118
0.013302171 0.11650082 0.015954899 0.005782088 -0.058711585 -0.0030885316 0.0022963707 -0.029795395
0.028203253 -0.14878434 -0.18382852 -0.061779004 -0.4341078 0.026272709 -0.039634287 -0.12101407
0.2843034 0.06350017 0.18264404 -0.03636224 0.122658975 -0.071725324 -0.23012719 0.12337458
0.15555264 0.13051884 -0.13378437 -0.181398 0.044761248 0.1880504 -0.13960509 0.023355754
-0.20786808 0.094438165 0.0737758 -0.062185984 -0.076905854 0.20517778 0.12517603 0.26956108
-0.085788906 0.057714827 0.060270686 -0.33172938 0.0616884 0.114581496 0.04980001 -0.20858139
0.05347852 0.09275718 -0.071832165 0.05172532 0.10903345 0.15994966 0.19502352 -0.01664298
0.103537515 -0.15656026 -0.14353998 -0.025111107 -0.22461839 -0.19035593 0.10723455 0.01724501
-0.168459 -0.007919425 0.11808005 -0.07947511 0.19956738 -0.047774978 0.03190177 -0.021295875
00000000: 329e f73d b179 1bbe ff78 f7bd cf21 0dbc
00000010: 2954 793d e40c 6ebd 6a01 18be 4da9 333c
00000020: d0e8 103e c5de 933d d23c 0b3e 1c3a 0abf
00000030: 9747 253d 022d 0dbe b310 f4bd 2205 76be
00000040: 3a0a 6d3d 7871 a33e c47a a7be 4769 d2bb
00000050: b323 cc3c 06fa 1abd 8040 073e 0ea4 ac3d
00000060: 9320 5fbd 8a6e 873d 301e 2c3d 79ce a33d
00000070: e3c6 3bbe 1c3a 19be daba 7c3d a319 853c
00000080: 7e04 f03b 5f0f 973c 2b19 8e3d f005 e33d
00000090: f077 a23c 1727 c6bd 8ac6 8c3d 12c6 1c3e
000000a0: 7190 913d be53 7dbe e21a 8cbe 995d 23bc
000000b0: d807 1fbe b36d 15be a91c 4bba 0b20 60bd
000000c0: a5c5 16be 8253 2a3d ee8d c8ba 0485 39be
000000d0: 9780 0a3e 2ec5 f9bd 2625 433d dff5 e0bd
000000e0: c808 f33d 83c0 69bb 2fde 95b9 92bf 30bd
000000f0: 7b64 29bd a01c 113d 0adc f93d 1ff6 3d3d
00000100: 79f9 113e f600 8fbc e3eb 893e ea8e ed3c
00000110: 1abf ba3d 04b0 75be 57ab 0abe 4069 6c3e
00000120: feef 7e3e af6c 483e e236 ec3d 4553 aa3c
00000130: 4a47 bf3d 4271 31be e1d3 113e 67e5 fd3c
00000140: 35bc cdbd 7251 3f3e d94c 463c 5f75 1cbd
00000150: 7812 2cbe f995 89bd ab68 a2bd 5767 88be
00000160: f4fd af3d fe7a 4e3d 4eed 973d c483 b4bd
00000170: 3238 a6bd 86d9 9dbd 1354 bebc 8a3a 4cbc
00000180: 54fb 34be a469 e43d cf99 bfbd 7615 30bd
00000190: 727b 51be 36f5 b4bd 74c6 a93d bf2c febc
000001a0: db9a fdbd 1c0e f33c 8176 9abd fad6 283e
000001b0: c746 26be 0609 2fbd 641e 113e 1362 203e
000001c0: ea87 f5b9 84fb 7a3e 37cf 60bb 81ca 6bbe
000001d0: 5b73 34bd 1080 64bb 8d9b d3be 14e1 263e
000001e0: 5c97 833e 1806 1c3e 81f1 83bd df59 f3bd
000001f0: 764f 9f3d c4f1 86bc e019 283d 5d86 c7bd
00000200: 4f8c 47bd 7d3c 54be 282f 3bbd 2d3f 923d
00000210: d0f9 303d 1183 f13b c56a 85bd c5b0 50bd
00000220: 79e6 8d3b b209 8e3d 3211 d9bd e4b7 723d
00000230: da2d d2bd 8668 a63d 3a99 ebbd 5b2a 4fbd
00000240: bb01 13be 2bbf 18bd 0a70 d33c 3259 14bd
00000250: cc0c 45be c4cd a8bd d4c5 1ebe 9eb8 48bd
00000260: 5631 37bd 410a 343d 77e7 86be 023a b0bd
00000270: 89e1 64be dfa0 f5b9 5d0c 053e 6921 4abd
00000280: 3c72 23be ade4 093e e82a ff3d eae1 963e
00000290: 363e dbbd eaa5 0c3b d6b7 f0bc 3b06 023e
000002a0: b0f1 86bd 436a 09bd 62b7 54bc 494f dc3d
000002b0: 25e5 5b3e e34c 623d c06c 9b3e d5d6 913d
000002c0: 6437 8fbd 5093 8fbd 2e9f 67be c7c7 aa3d
000002d0: 2a32 0e3d 1096 65be 7633 b3bb f745 70bc
000002e0: 59f1 593c fb97 ee3d d9b3 823c ab77 bd3b
000002f0: 8f7b 70bd f668 4abb b57e 163b 7915 f4bc
00000300: 820a e73c ec5a 18be 8b3d 3cbe fb0b 7dbd
00000310: 6143 debe dd39 d73c 9057 22bd 3ad6 f7bd
00000320: 3790 913e 610c 823d 0a07 3b3e 92f0 14bd
00000330: a134 fb3d bae4 92bd 76a6 6bbe d0ab fc3d
00000340: 3149 1f3e bba6 053e c5fe 08be 66c0 39be
00000350: 9257 373d 4990 403e a3f4 0ebe 9154 bf3c
00000360: 5fdb 54be cc68 c13d c417 973d bbb6 7ebd
00000370: d180 9dbd 201a 523e 252e 003e e903 8a3e
00000380: 18b2 afbd 6266 6c3d 65de 763d 6fd8 a9be
00000390: faac 7c3d b4a9 ea3d 18fb 4b3d 5c96 55be
000003a0: 4b0c 5b3d 7af7 bd3d be1c 93bd eedd 533d
000003b0: ee4c df3d d8c9 233e 3fb4 473e dc56 88bc
000003c0: 7a0b d43d 5551 20be 25fc 12be cfb5 cdbc
000003d0: 5d02 66be aaec 42be ca9d db3d 6845 8d3c
000003e0: 8480 2cbe 7ac0 01bc f4d3 f13d d9c3 a2bd
000003f0: 645b 4c3e b2af 43bd 6eab 023d b074 aebc

actor_logit.actor_1.bias f4 [64]
0.0020695564 -0.00073355046 -0.00018130918 -0.0006948107 -0.0005627595 -0.0026745782 0.004621855 0.0015479851
-0.0015495657 -0.0048090606 0.0018897121 -0.0007898081 0.002922218 0.0033715225 -0.0028451341 0.0006804549
0.0010039811 0.004853749 0.0042356905 -0.00068336923 0.004271702 0.002652743 0.0017272774 0.003117102
0.001046621 0.0005980414 0.00041952968 -0.0050145085 -0.0006974157 0.00028286883 0.004088439 -0.004878979
0.0006218945 -5.0748444e-05 -0.0001580399 0.00096372905 0.0005229856 0.002592792 0.0029599024 -0.0005579629
0.0028014125 0.0033969367 7.84307e-06 0.002295278 -0.00085288245 0.00050187914 0.0006756922 -0.0036223547
0.0011270226 0.0010765204 0.0015982203 -0.001899367 0.002630675 -0.002752167 -0.001045625 -0.0007845733
-0.0018323892 -0.00042279676 -0.001979342 -0.003085068 -0.0013182646 0.0020084442 0.0038384602 -0.0004505793
00000000: 65a1 073b bd4b 40ba d01d 3eb9 f523 36ba
00000010: 2786 13ba fa47 2fbb ee72 973b c3e5 ca3a
00000020: cc1a cbba 5395 9dbb 37b0 f73a 200b 4fba
00000030: af82 3f3b c3f4 5c3b 6e75 3abb 8e60 323a
00000040: 0498 833a 330c 9f3b 8ccb 8a3b 2224 33ba
00000050: a2f9 8b3b a4d9 2d3b d065 e23a 4b48 4c3b
00000060: c62e 893a e1c5 1c3a 52f4 db39 bf50 a4bb
00000070: c6d2 36ba 034e 9439 50f8 853b d8df 9fbb
00000080: a206 233a bada 54b8 83b7 25b9 c3a2 7c3a
00000090: f818 093a d5eb 293b ecfa 413b 4244 12ba
000000a0: e797 373b 249f 5e3b bb95 0337 606c 163b
000000b0: f993 5fba 8a90 033a f020 313a 0765 6dbb
000000c0: 9ab8 933a 081a 8d3a 607b d13a 2ef4 f8ba
000000d0: 6767 2c3b b35d 34bb 5a0d 89ba d3ab 4dba
000000e0: c72c f0ba d2aa ddb9 d9b7 01bb da2e 4abb
000000f0: 9fc9 acba 1aa0 033b ad8e 7b3b bb3b ecb9

actor_logit.actor_2.weight f4 [64, 64]
0.04265877 0.051926106 0.14221707 0.13703868 0.27918446 -0.01323223 0.08752459 -0.026030777
-0.15945688 -0.07654279 0.058354348 -0.20120741 -0.23204355 0.19852778 -0.11723198 0.08587706
0.1330206 0.27294838 -0.055408243 0.046995223 0.2239863 0.03299412 0.056929346 0.100036345
-0.10265406 -0.467762 0.14778669 0.17981675 0.12790161 0.12142338 -0.19134216 0.55973434
0.17451224 -0.22338445 0.35027668 0.20658031 -0.010233212 -0.16091917 0.0536355 -0.06359701
-0.04577864 -0.02186718 0.04577518 -0.036458023 -0.18375787 -0.22389781 0.117656775 0.054287124
-0.062411387 0.14734852 -0.07335927 0.034956936 -0.16076781 0.26814783 0.16914305 -0.04681901
0.22234553 -0.0077965367 -0.058216993 -0.31822622 -0.2977466 -0.20814666 0.12047376 -0.096394286
-0.14869474 -0.023487309 -0.2670753 -0.3041244 -0.06891216 0.018095313 0.36173573 0.35742468
-0.08578225 0.30546245 0.07052775 0.15971307 0.115959495 -0.09630716 -0.03115859 0.0921872
-0.0969898 -0.03166473 -0.08958036 0.12297053 -0.014988245 0.16160695 -0.17348248 -0.10447371
-0.23927417 -0.14122084 -0.040137373 0.066367835 0.099241324 0.11448867 -0.12052756 -0.20159195
0.18267977 -0.013889978 0.00057624734 -0.14331059 -0.16850711 -0.1530179 0.09816337 -0.07711435
-0.46885556 -0.12124246 -0.17292543 0.20196287 0.12967703 0.34185526 0.19876932 -0.15489496
0.041583993 -0.10910467 0.26449 -0.0037266267 -0.06785357 0.027021963 -0.061007723 -0.15934405
0.30101627 -0.079722665 -0.29833362 -0.07307711 -0.24515551 0.10608031 0.22934222 -0.25853467
-0.0036881338 -0.008668601 0.11247236 -0.1455711 0.3569851 -0.030158998 -0.07413823 -0.12779774
0.11482396 0.2166765 0.058272358 0.0028429278 0.17435874 0.0023389647 -0.119165644 0.11621383
0.45088875 -0.14454344 0.014181723 -0.13284492 -0.18820468 -0.10750649 0.101565346 -0.26881856
0.07073539 0.16175725 0.049479328 -0.14059089 -0.006258761 -0.16710962 -0.005550218 -0.19832854
-0.30446967 -0.25865594 -0.24750845 0.32489228 0.11556681 0.063628815 0.218194 -0.26715732
-0.11906237 0.0773683 0.2788051 0.02932395 -0.1896471 0.07214196 0.18934484 0.19122347
-0.19198285 0.01854412 0.062207196 -0.26124996 -0.31365642 -0.14700112 0.16034822 -0.03342158
-0.23137294 -0.13304657 -0.13517833 -0.04321571 -0.35343522 -0.12373693 0.16451102 -0.12552309
-0.08432147 0.19142374 -0.025821738 0.08587815 0.21170293 0.018598795 0.23719822 -0.079555005
0.1613653 -0.07621762 0.00253639 0.03482488 0.17587721 -0.048359327 0.10362887 0.040460926
-0.12513044 0.006988542 0.43651327 0.34632385 -0.12372436 0.10579953 -0.07707514 -0.035810877
-0.29172334 0.123981744 0.040701423 -0.2759874 0.14300567 -0.18398361 0.031484064 -0.0098088505
-0.16904251 0.060306214 -0.06178358 -0.09760972 0.00269731 -0.040027883 0.14129576 0.17673062
-0.23274806 -0.16391589 0.51397216 -0.17841393 0.10465782 -0.3095692 -0.37311345 0.15183292
-0.12195313 0.13332486 -0.15915681 0.120155044 0.058893953 -0.094430014 -0.11448179 0.055078514
0.50154346 -0.12584417 0.012001971 -0.21286817 0.017726423 -0.00096550456 0.07020448 0.061010085
00000000: f6ba 2e3d 78b0 543d 5aa1 113e de53 0c3e
00000010: 44f1 8e3e ffcb 58bc 1840 b33d 7f3e d5bc
00000020: aa48 23be 77c2 9cbd f804 6f3d 5109 4ebe
00000030: d39c 6dbe de4a 4b3e 5217 f0bd 50e0 af3d
00000040: 8d36 083e e4bf 8b3e c1f3 62bd 107e 403d
00000050: aa5c 653e d824 073d bf2e 693d dbdf cc3d
00000060: 4b3c d2bd 807e efbe 6555 173e e221 383e
00000070: a4f8 023e d2ac f83d 33ef 43be c04a 0f3f
00000080: 56b3 323e e5be 64be 7757 b33e ca89 533e
00000090: 34a9 27bc ffc7 24be e6b0 5b3d 263f 82bd
000000a0: 6282 3bbd cd22 b3bc c17e 3b3d 0255 15bd
000000b0: 062b 3cbe 7845 65be 09f6 f03d 2d5c 5e3d
000000c0: 15a3 7fbd 88e2 163e 633d 96bd 012f 0f3d
000000d0: 51a0 24be ac4a 893e d633 2d3e 4ac5 3fbd
000000e0: 8cae 633e 177a ffbb f174 6ebd 8cee a2be
000000f0: 3e72 98be 6624 55be f2ba f63d 5e6a c5bd
00000100: 6f43 18be 7568 c0bc 18be 88be 31b6 9bbe
00000110: d221 8dbd 9f3c 943c 6d35 b93e 5e00 b73e
00000120: 9bae afbd 9365 9c3e da70 903d d38b 233e
00000130: 2c7c ed3d b03c c5bd 4d40 ffbc a5cc bc3d
00000140: 97a2 c6bd e0b2 01bd e875 b7bd f9d7 fb3d
00000150: 4291 75bc 4b7c 253e 64a5 31be 50f6 d5bd
00000160: 4a04 75be 329c 10be 1667 24bd dceb 873d
00000170: 093f cb3d 0979 ea3d 27d7 f6bd 1f6e 4ebe
00000180: 6810 3b3e ca92 63bc 4e0f 173a 03c0 12be
00000190: 218d 2cbe b9b0 1cbe e009 c93d 21ee 9dbd
000001a0: d60d f0be f84d f8bd 5d13 31be 5bcf 4e3e
000001b0: 0eca 043e a707 af3e 2f8a 4b3e c99c 1ebe
000001c0: fa53 2a3d 4572 dfbd 3c6b 873e 6c3a 74bb
000001d0: d0f6 8abd 2a5d dd3c 3ce3 79bd 162b 23be
000001e0: ce1e 9a3e a345 a3bd 2fbf 98be 74a9 95bd
000001f0: 0c0a 7bbe a240 d93d b0d8 6a3e a85e 84be
00000200: 9eb4 71bb bf06 0ebc e957 e63d 9710 15be
00000210: c0c6 b63e 0110 f7bc c9d5 97bd 69dd 02be
00000220: d328 eb3d 72e0 5d3e ffae 6e3d 6a50 3a3b
00000230: 198b 323e 5149 193b 1e0d f4bd 8401 ee3d
00000240: e4da e63e 3203 14be 755a 683c 8008 08be
00000250: bab8 40be 5d2c dcbd 7e01 d03d 96a2 89be
00000260: b7dd 903d b1a3 253e d6aa 4a3d 0ff7 0fbe
00000270: 4b16 cdbb c91e 2bbe 9ade b5bb a316 4bbe
00000280: 73e3 9bbe 8d6e 84be db72 7dbe 4858 a63e
00000290: 4bae ec3d d34f 823d 3f6e 5f3e d8c8 88be
000002a0: f9d6 f3bd 4573 9e3d 8bbf 8e3e c838 f03c
000002b0: d932 42be 2abf 933d 9de3 413e 16d0 433e
000002c0: 2797 44be d7e9 973c f9cc 7e3d 8ec2 85be
000002d0: 9397 a0be 7687 16be 5332 243e 11e5 08bd
000002e0: 07ed 6cbe 5c3d 08be 306c 0abe f502 31bd
000002f0: 76f5 b4be ca69 fdbd 9475 283e 2089 00be
00000300: bcb0 acbd 9604 443e 1c88 d3bc e2e0 af3d
00000310: a7c8 583e 805c 983c 17e4 723e bced a2bd
00000320: f23c 253e fc17 9cbd 9039 263b 89a4 0e3d
00000330: 2819 343e 6e14 46bd 5f3b d43d 5bba 253d
00000340: 3222 00be 2400 e53b ab7e df3e 5c51 b13e
00000350: 3263 fdbd 6dad d83d 92d9 9dbd 6dae 12bd
00000360: c35c 95be 24ea fd3d 89b6 263d 384e 8dbe
00000370: 1470 123e 3366 3cbe 6ff5 003d 4db5 20bc
00000380: 7b19 2dbe a603 773d c710 7dbd 9be7 c7bd
00000390: 5ac5 303b 47f4 23bd d6af 103e dff8 343e
000003a0: 8255 6ebe 91d9 27be ae93 033f 24b2 36be
000003b0: d756 d63d db7f 9ebe ba08 bfbe 177a 1b3e
000003c0: 90c2 f9bd 5086 083e 01fa 22be d913 f63d
000003d0: c93a 713d 8664 c1bd 6e75 eabd 029a 613d
000003e0: 2765 003f 4bdd 00be eaa3 443c 1dfa 59be
000003f0: 0137 913c ea19 7dba 5ec7 8f3d b6e5 793d

actor_logit.actor_2.bias f4 [64]
-0.002040883 0.003770232 0.0006135969 -0.0023412644 -0.00025961403 -0.0030358413 0.0055343127 0.0020253542
-0.0028714503 -0.0017214593 0.003940093 0.0004422217 0.0016437278 0.005055206 -0.0024613074 0.0016587446
-0.0009677971 -0.0030235818 0.0030656839 -0.0006017505 -0.0009726273 0.0035077643 0.0017655673 -0.0016557054
2.1936095e-05 -0.003452565 0.0024012113 0.0012991598 -0.0053691226 -0.00072348135 0.0005150677 0.00040587393
0.0028370128 0.0031365699 0.0006907561 0.0010980387 -0.00036018965 0.003813204 -0.003193922 0.00041550593
-0.0049900357 0.001664512 -0.00034125772 0.0011892711 -0.00097537896 -0.0010412104 -0.000904114 0.004383361
0.0013177824 -0.0030567474 0.0013249172 -5.335793e-05 -0.0032057073 0.0007820365 -0.0012004029 -0.0007286119
-0.0012777853 -0.0036961755 -0.0012961777 0.0035608404 0.0031372793 -0.0030728057 0.0017648279 0.0021157742
00000000: 56c0 05bb ff15 773b cad9 203a e66f 19bb
00000010: ce1c 88b9 f7f4 46bb 2e59 b53b cebb 043b
00000020: f12e 3cbb 97a2 e1ba e51b 813b fed9 e739
00000030: 5a72 d73a 24a6 a53b e34d 21bb 3c6a d93a
00000040: c4b3 7dba 4927 46bb a4e9 483b cbbe 1dba
00000050: eaf7 7eba 85e2 653b 9c6a e73a 4104 d9ba
00000060: 6803 b837 6e44 62bb a45d 1d3b 9248 aa3a
00000070: 77ef afbb 03a8 3dba 9c05 073a 7acb d439
00000080: 2ded 393b e98e 4d3b db13 353a 11ec 8f3a
00000090: d6d7 bcb9 f2e6 793b 1f51 51bb 43d8 d939
000000a0: 7483 a3bb c12b da3a d6ea b2b9 51e1 9b3a
000000b0: 93b0 7fba 3979 88ba 1002 6dba 4ca2 8f3b
000000c0: 71b9 ac3a b653 48bb d8a8 ad3a a4cc 5fb8
000000d0: d816 52bb 9501 4d3a d656 9dba 5100 3fba
000000e0: 5c7b a7ba 893b 72bb 82e4 a9ba fd5c 693b
000000f0: d09a 4d3b 2061 49bb cc51 e73a cda8 0a3b

actor_logit.actor_3.weight f4 [64, 64]
0.16053706 -0.1507659 -0.07812391 0.28001922 -0.10406436 0.17515768 0.04115472 -0.096755125
0.21416244 -0.18864119 -0.13883983 0.22305301 0.07234725 -0.001967216 -0.04322464 -0.25087744
-0.19995569 -0.23740058 0.14794658 0.03164867 -0.10864251 -0.1757946 -0.053547118 0.1485552
-0.18667601 0.048735794 0.12771706 -0.0011898904 -0.1920995 0.11644917 0.052431952 0.010405955
0.14084736 -0.14547192 -0.29417133 0.124784455 -0.14934386 -0.13807993 0.049102925 -0.32006454
0.099745974 0.08046593 -0.037979137 0.09237925 0.1106607 0.015409798 -0.12924989 -0.3302253
-0.058897723 -0.34114417 -0.3857491 0.22769338 -0.082832545 0.027393488 0.27844238 -0.27420425
0.25062147 -0.22067282 -0.04251847 0.061526477 0.16304924 -0.06434477 0.41960335 -0.18348023
-0.15602751 0.04982779 -0.19474663 -0.20187418 0.15652084 -0.25789255 -0.19777809 0.068205655
0.23298107 -0.083650075 0.05718506 0.0041538174 0.12939803 0.41751817 0.06912747 0.2983518
0.23007561 0.046637356 0.17830287 0.124798276 0.061212476 -0.043765724 0.070764154 -0.05186429
-0.35234717 0.24524334 -0.034744438 -0.03665183 -0.036385816 0.10820129 -0.20635001 0.0077245007
-0.020517016 0.04671796 -0.20060544 0.22854188 -0.31016958 -0.14993075 0.13901214 -0.1734997
0.27420473 0.06852985 0.097953975 0.16945924 0.18769377 0.073819734 0.10297831 0.39285105
-0.21343194 0.08545504 -0.055896536 -0.16407424 -0.3642138 0.00030059152 0.09356546 -0.13256226
-0.14625765 0.091611475 -0.16567361 -0.18719088 -0.1166298 -0.24422868 0.07482133 0.23571572
0.21839122 0.20120136 0.3221543 0.070826724 0.38850552 0.05010081 -0.113923095 -0.34145546
0.020441126 -0.16135472 0.08322021 -0.0028050807 0.25649846 -0.25085986 -0.3015953 -0.073220335
-0.07501128 0.10072592 -0.20881732 -0.045415673 0.186466 0.20508255 0.10149865 0.13080321
0.0047745793 -0.21172284 0.30568898 -0.06511845 -0.20863439 0.113914356 -0.17501293 -0.09674907
-0.14873356 0.17566454 0.009077999 0.123742916 -0.05983722 0.22701453 -0.16682449 -0.32857805
0.041336752 0.08507639 0.39870113 0.012675464 -0.33720714 0.022706462 -0.0796237 0.06451462
0.046225376 -0.059761785 0.22225264 -0.02046889 -0.18918844 0.19288258 -0.12247996 -0.026378695
-0.12254072 0.2150316 -0.06482577 -0.02569706 -0.08320699 -0.11037275 0.27039436 -0.047257017
0.06987556 0.05192953 0.47722116 -0.14335616 -0.16280623 0.05685954 -0.27719173 0.06256888
0.17131853 -0.15689522 0.184554 -0.053014506 -0.13126218 0.3393839 0.19494648 0.030288704
0.008898244 0.18045938 0.05105179 -0.04928562 0.08611007 -0.02691421 0.117712945 0.10249232
-0.041673202 0.3520223 -0.10294705 -0.09006192 0.23002094 -0.14345926 -0.067049704 -0.31400445
0.31937972 0.3054303 0.11907285 -0.10011215 0.12027004 -0.1287957 -0.044787724 -0.099053755
-0.059903055 0.23235987 0.07635499 0.08399081 -0.04728144 -0.028065097 -0.16826732 -0.17178778
0.07097494 -0.34708947 0.26535967 0.12803309 0.10571867 -0.27045077 -0.21710637 -0.2527443
0.24258149 0.09456939 -0.16053948 0.050038937 -0.034134634 -0.04922516 -0.113454334 -0.2631636
00000000: d463 243e 6062 1abe 6eff 9fbd ae5e 8f3e
00000010: b21f d5bd 895c 333e da91 283d 8d27 c6bd
00000020: 664d 5b3e 282b 41be 072c 0ebe 0268 643e
00000030: cc2a 943d 68ec 00bb 520c 31bd 0273 80be
00000040: 2fc1 4cbe 2319 73be 4f7f 173e 09a2 013d
00000050: f77f debd 8003 34be 3954 5bbd db1e 183e
00000060: ff27 3fbe 2f9f 473d 43c8 023e 19f6 9bba
00000070: bbb5 44be e77c ee3d e3c2 563d bd7d 2a3c
00000080: 4a3a 103e 97f6 14be a09d 96be fe8e ff3d
00000090: 99ed 18be d364 0dbe 2620 493d 80df a3be
000000a0: 9e47 cc3d 52cb a43d 0390 1bbd 5531 bd3d
000000b0: 14a2 e23d 6179 7c3c 155a 04be 4a13 a9be
000000c0: bd3e 71bd 73aa aebe e880 c5be 7428 693e
000000d0: 1ca4 a9bd 4f68 e03c 0090 8e3e 8064 8cbe
000000e0: 7551 803e 0ef8 61be d927 2ebd 3003 7c3d
000000f0: 61f6 263e 31c7 83bd 40d6 d63e 3ee2 3bbe
00000100: adc5 1fbe 3a18 4c3d a96b 47be 1bb8 4ebe
00000110: 0047 203e 7e0a 84be 5786 4abe 68af 8b3d
00000120: 9792 6e3e bb50 abbd e23a 6a3d bf1c 883b
00000130: eb80 043e f1c4 d53e b492 8d3d 91c1 983e
00000140: f198 6b3e d006 3f3d 0795 363e 3d96 ff3d
00000150: efb9 7a3d b043 33bd ccec 903d a66f 54bd
00000160: d966 b4be 1221 7b3e 2f50 0ebd 3b20 16bd
00000170: 4b09 15bd a398 dd3d 6b4d 53be cf1d fd3b
00000180: 4d13 a8bc 555b 3f3d 836b 4dbe e206 6a3e
00000190: 8cce 9ebe 7287 19be 3359 0e3e e8a9 31be
000001a0: 9064 8c3e 6159 8c3d 189c c83d b986 2d3e
000001b0: cc32 403e cd2e 973d 4be6 d23d c623 c93e
000001c0: e78d 5abe 0d03 af3d c4f3 64bd 1403 28be
000001d0: 3b7a babe b698 9d39 3f9f bf3d 67be 07be
000001e0: 91c4 15be cc9e bb3d 58a6 29be f7ae 3fbe
000001f0: 9bdb eebd 1517 7abe ed3b 993d 765f 713e
00000200: f3a1 5f3e bb07 4e3e 69f1 a43e 9a0d 913d
00000210: 32ea c63e 8236 4d3d 8350 e9bd 40d3 aebe
00000220: 2674 a73c 2c3a 25be 5c6f aa3d 72d5 37bb
00000230: c453 833e b470 80be b36a 9abe 8bf4 95bd
00000240: 849f 99bd 6449 ce3d 35d4 55be c905 3abd
00000250: f1f0 3e3e 2901 523e 86de cf3d 47f1 053e
00000260: 1374 9c3b dfcd 58be 4483 9c3e d25c 85bd
00000270: 41a4 55be ee4b e93d 9736 33be 6024 c6bd
00000280: 9c4d 18be 68e1 333e e3bb 143c ed6c fd3d
00000290: df17 75bd 7f76 683e 0ad4 2abe 623b a8be
000002a0: ba50 293d 883c ae3d 8e22 cc3e c0ac 4f3c
000002b0: 6aa6 acbe e702 ba3c c011 a3bd 3e20 843d
000002c0: d256 3d3d c6c8 74bd 3296 633e 60ae a7bc
000002d0: 9dba 41be 0383 453e c6d6 fabd 2218 d8bc
000002e0: a1f6 fabd 3e31 5c3e 60c3 84bd a482 d2bc
000002f0: 6d68 aabd 1c0b e2bd 2171 8a3e 9390 41bd
00000300: eb1a 8f3d 0fb4 543d 5556 f43e f5cb 12be
00000310: adb6 26be 8de5 683d 13ec 8dbe 1d24 803d
00000320: 206e 2f3e 24a9 20be b9fb 3c3e bd25 59bd
00000330: 9869 06be bac3 ad3e 0da0 473e 0420 f83c
00000340: f1c9 113c 58ca 383e af1b 513d b8df 49bd
00000350: 7a5a b03d 307b dcbc 7c13 f13d 7ee7 d13d
00000360: 85b1 2abd 443c b43e e7d5 d2bd 6272 b8bd
00000370: 9c8a 6b3e fce6 12be 5b51 89bd 31c5 a0be
00000380: bd85 a33e 5c61 9c3e 77dc f33d 9907 cdbd
00000390: 2450 f63d 05e3 03be 5573 37bd b2dc cabd
000003a0: e85c 75bd bfef 6d3e 0160 9c3d 6003 ac3d
000003b0: 2faa 41bd c6e8 e5bc 454e 2cbe 23e9 2fbe
000003c0: 4f5b 913d b6b5 b1be 39dd 873e 1b1b 033e
000003d0: 0883 d83d 8678 8abe 2251 5ebe b367 81be
000003e0: 4867 783e 99ad c13d 7664 24be a1f5 4c3d
000003f0: c2d0 0bbd 52a0 49bd bf5a e8bd 61bd 86be

actor_logit.actor_3.bias f4 [64]
0.0021162047 0.00062142697 0.0 -0.001459279 -0.00018350808 0.0026630596 -0.0058867615 0.0
0.0006190962 0.0009668023 -0.000111821675 0.0 0.00057328766 0.0028712042 -0.00031791517 -0.0025850555
-0.00043956866 0.00033134766 -0.0012340716 -0.00090690376 -0.0008467539 0.00404305 -0.0025468627 -0.001467543
-0.0006040443 0.0019217557 -0.0012099786 0.0010427794 0.0010591195 0.00042235694 0.0042303256 0.0018514335
0.0015471812 -0.00049923256 0.0006608733 -0.000264142 -0.002113469 -0.0071888342 0.003595563 0.0003574767
-0.0015787554 0.0010335892 0.002089931 -0.00117412 -0.0035801579 0.0029664284 0.00030241092 0.0012196035
0.00035490526 0.0028745066 0.00029758754 -0.0026552652 -0.002609099 -0.0065101944 -0.001901283 -0.0005529698
0.0 0.0006864442 0.004785869 0.001138697 -0.00065698894 -0.0017417937 0.0 0.0007659674
00000000: 06b0 0a3b 42e7 223a 0000 0000 4745 bfba
00000010: 136c 40b9 ba86 2e3b bce5 c0bb 0000 0000
00000020: d84a 223a 0171 7d3a ce81 eab8 0000 0000
00000030: af48 163a d02a 3c3b daad a6b9 096a 29bb
00000040: e875 e6b9 bbb8 ad39 92c0 a1ba 48bd 6dba
00000050: b1f8 5dba 907b 843b 44e9 26bb 925a c0ba
00000060: ba58 1eba 6ce3 fb3a 2598 9eba dfad 883a
00000070: 27d2 8a3a ca6f dd39 8b9e 8a3b cdab f23a
00000080: c9ca ca3a eede 02ba 753e 2d3a 8a7c 8ab9
00000090: 2082 0abb 5090 ebbb 89a3 6b3b b66b bb39
000000a0: 3eee ceba 8079 873a 39f7 083b eee4 99ba
000000b0: 15a1 6abb 6968 423b e88c 9e39 1adb 9f3a
000000c0: 9412 ba39 3862 3c3b 8605 9c39 f503 2ebb
000000d0: 6bfd 2abb 7853 d5bb 7934 f9ba 2df5 10ba
000000e0: 0000 0000 7ef2 333a c7d2 9c3b 5540 953a
000000f0: c839 2cba e64c e4ba 0000 0000 34cb 483a

critic_value.critic_1.weight f4 [64, 110]
0.10851785 -0.009455567 0.10133939 0.10857264 -0.07931262 0.2943627 -0.33173218 -0.025019865
0.008757712 -0.06174791 -0.05990729 0.079115994 -0.1745983 -0.013133643 -0.04706311 0.10661202
0.12512232 0.007971533 0.17455713 -0.08063129 0.16379276 -0.0040906253 -0.10005509 -0.10268401
-0.1683805 -0.058669344 0.1622991 0.16125105 -0.06106245 -0.22186421 -0.17934366 0.04814426
0.029187117 0.030105324 0.095245674 -0.14051682 -0.06651111 -0.24004304 0.04168112 0.008541342
-0.029146424 0.061340135 0.13868526 0.22447516 0.0675967 0.101019 0.21620385 0.4760669
0.24578072 0.054764744 -0.21250317 -0.06042411 0.09652505 -0.12878512 -0.057700466 -0.059714895
-0.050476875 0.09060411 0.1477735 0.26038885 0.08686823 0.052360352 -0.013507843 0.08535098
0.00032076906 0.14664882 -0.24962582 -0.038060904 -0.18954398 0.13519168 0.12547673 0.13887662
-0.018729676 -0.00026335183 -0.011172753 -0.09750238 0.18529479 0.03379994 -0.18540642 -0.13133806
-0.060491923 0.15666112 0.121355526 0.14749493 0.027475039 0.07128347 0.15212502 -0.19405793
-0.021509921 -0.031310055 0.3132178 0.16304514 0.24059887 0.20914167 0.045076814 0.021668455
-0.17300905 0.041313272 0.13454707 -0.028866874 -0.015698925 -0.034537636 0.03713034 -0.076315336
0.02878291 -0.111695446 0.004396099 -0.22083224 -0.019551808 0.008278192 0.29968295 0.13601293
0.0044658734 0.13914463 0.08516926 0.04421323 -0.100938894 0.059444483 0.11957984 0.10559966
-0.07491444 -0.16944887 -0.036584668 0.19823836 -0.14995787 -0.08555849 0.036540836 0.26479927
-0.03768861 -0.037951242 0.07873613 -0.15657769 0.13730386 0.058349006 0.12559259 0.057108946
0.04370111 -0.05349461 0.07680551 0.009590169 0.11030928 -0.10867448 0.28030577 0.18096173
0.23990054 0.08781831 -0.01658352 0.12201363 -0.22312258 -0.030027 -0.26612195 -0.2545835
-0.11051335 0.05527869 -0.0021742976 0.23303235 -0.021674434 0.051065136 0.101157404 -0.038176686
0.105796546 0.026959585 0.03577265 0.12698522 0.090780705 -0.06162431 -0.24473132 0.20579875
-0.044160165 -0.011183351 0.1805266 -0.25913405 -0.15610775 -0.17425409 -0.122258976 -0.21136995
-0.21079803 -0.14110538 0.06415137 0.08606773 -0.1491296 -0.23117676 -0.06754555 -0.20912078
0.08319697 -0.09819379 0.061954577 -0.04567135 -0.21775298 -0.05203066 0.15283181 -0.17734432
-0.024465442 0.097943544 0.15650047 0.21175414 0.024747295 0.026430177 -0.024362478 -0.05486891
0.0714247 0.09234702 -0.16899393 -0.07272606 0.21344388 -0.109093934 0.036974967 0.10982991
-0.005639974 0.32023022 -0.035637297 0.059116933 0.13190438 0.05263004 0.22056152 0.14256792
0.1272217 0.05665384 0.023314571 0.1073971 0.11622218 -0.30037636 -0.085847154 -0.08610316
0.22006308 0.22749293 0.020159286 0.06563725 0.04356732 0.040143106 -0.31605548 -0.17384003
-0.018394612 0.26046258 0.0032189721 -0.022616556 -0.004620013 -0.045449182 0.09021616 0.09701849
0.062486935 0.16071893 -0.16278028 -0.0015861252 -0.05222314 -0.05801482 0.023111554 -0.08650817
0.21456021 0.21541987 0.010445101 -0.0070754443 0.1251772 -0.33141917 -0.0053377915 -0.1983965
00000000: 9b3e de3d 86eb 1abc 078b cf3d 555b de3d
00000010: a86e a2bd b5b6 963e cdd8 a9be 76f6 ccbc
00000020: 827c 0f3c 60eb 7cbd 5961 75bd 9107 a23d
00000030: e6c9 32be 7e2e 57bc 3fc5 40bd 6757 da3d
00000040: 1120 003e 089b 023c 1bbf 323e 0522 a5bd
00000050: 4ab9 273e a70a 86bb afe9 ccbd ff4b d2bd
00000060: f06b 2cbe 444f 70bd bc31 263e ff1e 253e
00000070: 9f1c 7abd 5f30 63be dda5 37be ea32 453d
00000080: d219 ef3c 719f f63c 2a10 c33d a4e3 0fbe
00000090: fa36 88bd d8cd 75be d2b9 2a3d fcf0 0b3c
000000a0: 7bc4 eebc cb3f 7b3d 8203 0e3e d1dc 653e
000000b0: 2370 8a3d 0de3 ce3d 8b64 5d3e 0abf f33e
000000c0: f1ad 7b3e ff50 603d 6e9a 59be 467f 77bd
000000d0: edae c53d 3fe0 03be 5357 6cbd 9b97 74bd
000000e0: d7c0 4ebd a68e b93d f051 173e b051 853e
000000f0: f8e7 b13d cf77 563d 0050 5dbc 7fcc ae3d
00000100: e52c a839 1c2b 163e e99d 7fbe c0e5 1bbd
00000110: d117 42be b06f 0a3e f97c 003e ac35 0e3e
00000120: fa6e 99bc 7c12 8ab9 ec0d 37bc 54af c7bd
00000130: ebbd 3d3e ce71 0a3d 2edb 3dbe 7c7d 06be
00000140: 61c6 77bd c66b 203e 3f89 f83d e908 173e
00000150: 5513 e13c 11fd 913d a9c6 1b3e 1fb7 46be
00000160: 9335 b0bc f93e 00bd 155e a03e 4ef5 263e
00000170: 8d5f 763e 3c29 563e 77a2 383d 0b82 b13c
00000180: 4929 31be 1b38 293d b5c6 093e 397a ecbc
00000190: 089b 80bc 5677 0dbd fc15 183d 374b 9cbd
000001a0: 23ca eb3c 95c0 e4bd 270d 903b d921 62be
000001b0: 1d2b a0bc 41a1 073c 0b70 993e f946 0b3e
000001c0: 7656 923b ee7b 0e3e 396d ae3d ef18 353d
000001d0: 0db9 cebd 0f7c 733d 46e6 f43d a244 d83d
000001e0: be6c 99bd 0184 2dbe ced9 15bd fffe 4a3e
000001f0: 8e8e 19be 4a39 afbd d8ab 153d c593 873e
00000200: 5f5f 1abd c372 1bbd 6840 a13d e755 20be
00000210: 6299 0c3e 5eff 6e3d 589b 003e 12eb 693d
00000220: efff 323d 2a1d 5bbd 354c 9d3d 1620 1d3c
00000230: d5e9 e13d ba90 debd 3d84 8f3e 084e 393e
00000240: 7da8 753e 16da b33d 2ada 87bc 48e2 f93d
00000250: 3f7a 64be 2ffb f5bc 2341 88be c558 82be
00000260: d354 e2bd e86b 623d a97e 0ebb 08a0 6e3e
00000270: 958e b1bc ad29 513d 9d2b cf3d 285f 1cbd
00000280: dcab d83d 59da dc3c 5886 123d 6a08 023e
00000290: 3ceb b93d c669 7cbd d99a 7abe e8bc 523e
000002a0: 4ae1 34bd 603a 37bc f7db 383e 38ad 84be
000002b0: b6da 1fbe aa6f 32be ea62 fabd 5d71 58be
000002c0: 70db 57be ee7d 10be cb61 833d 4744 b03d
000002d0: 6eb5 18be 9ab9 6cbe 5255 8abd c223 56be
000002e0: 2c63 aa3d d319 c9bd 15c4 7d3d e211 3bbd
000002f0: a3fa 5ebe 1a1e 55bd f17f 1c3e c099 35be
00000300: c06b c8bc a096 c83d a941 203e 14d6 583e
00000310: d7ba ca3c 1984 d83c d293 c7bc 39be 60bd
00000320: 1d47 923d 6f20 bd3d bf0c 2dbe 67f1 94bd
00000330: 0891 5a3e a46c dfbd 1073 173d 81ee e03d
00000340: 88cf b8bb 37f5 a33e 6af8 11bd 9924 723d
00000350: f111 073e 9992 573d e1da 613e 53fd 113e
00000360: 6846 023e db0d 683d 33fe be3c 03f3 db3d
00000370: e505 ee3d eeca 99be a2d0 afbd db56 b0bd
00000380: 3758 613e e8f3 683e 1625 a53c d36c 863d
00000390: a573 323d 196d 243d 06d2 a1be 1f03 32be
000003a0: 4cb0 96bc 5a5b 853e 64f5 523b 5b46 b9bc
000003b0: 7a63 97bb ec28 3abd 40c3 b83d a1b1 c63d
000003c0: 4df2 7f3d 8193 243e e0af 26be 88e5 cfba
000003d0: eee7 55bd f3a0 6dbd 7154 bd3c 322b b1bd
000003e0: acb5 5b3e 0797 5c3e ee21 2b3c 21d9 e7bb
000003f0: 742e 003e c6af a9be a4e8 aebb 7428 4bbe

critic_value.critic_1.bias f4 [64]
0.018945353 0.016974526 -0.0074917157 0.015422648 0.017896177 -0.011097926 0.009318377 0.0174429
0.015975706 -0.0016524825 0.017416675 0.016273484 0.017090853 0.01684711 0.013965673 0.015756726
-0.011192277 -0.013527322 -0.010148334 0.006376779 0.017282516 0.008598304 0.016305145 -0.005995964
-0.008619229 0.016743658 -0.009943556 -0.008198401 0.018733103 0.012739794 -0.012973387 0.019320734
-0.010797566 -0.004197067 0.016538918 0.016260693 0.016109345 -0.007086186 0.0073912726 0.008303348
0.01346103 0.0069323536 -0.013307508 -0.0076068477 -0.01182301 -0.012760734 0.014346477 0.0135646565
-0.008578244 0.0033662447 -0.009613152 0.016083285 -0.0013934661 -0.009029565 -0.0069096466 0.017182687
-0.0033483438 0.015995966 0.013995465 0.0048626885 -0.009914684 -0.0022084548 0.01588956 -0.017209303
00000000: 4933 9b3c 290e 8b3c 117d f5bb 46af 7c3c
00000010: 019b 923c 13d4 35bc 1bac 183c 6ae4 8e3c
00000020: 7cdf 823c 1d98 d8ba 6aad 8e3c f84f 853c
00000030: 1e02 8c3c f302 8a3c 47d0 643c 4014 813c
00000040: d05f 37bc b3a1 5dbc 3345 26bc 4df4 d03b
00000050: 1094 8d3c e7df 0c3c 5e92 853c cb79 c4bb
00000060: ab37 0dbc ff29 893c 4cea 22bc 9652 06bc
00000070: 2a76 993c 92ba 503c 548e 54bc 8446 9e3c
00000080: 46e8 30bc 8d87 89bb a07c 873c 2535 853c
00000090: bff7 833c 3d33 e8bb 7d32 f23b c40a 083c
000000a0: a78b 5c3c cc28 e33b bc07 5abc dd42 f9bb
000000b0: 4cb5 41bc 6612 51bc 7c0d 6b3c 4b3e 5e3c
000000c0: c38b 0cbc 379c 5c3b 7b80 1dbc 18c1 833c
000000d0: f7a4 b6ba bef0 13bc 516a e2bb b5c2 8c3c
000000e0: e36f 5bbb f909 833c 3c4d 653c 3057 9f3b
000000f0: 3371 22bc b9bb 10bb d32a 823c 86fa 8cbc

critic_value.critic_2.weight f4 [64, 64]
0.049443647 -0.19088928 -0.10747908 0.0031112698 0.059376605 -0.1412047 0.06133323 -0.058872852
-0.18721992 -0.0010615737 -0.2468229 0.20649551 0.09409653 -0.2608698 -0.25140476 0.089457
-0.399456 -0.07789991 -0.20448346 0.28090975 -0.06579412 -0.20762575 -0.04905341 0.0940988
0.20470549 0.09080785 0.051980183 0.29497507 0.12389991 -0.2637749 -0.089620955 -0.12765123
-0.16918692 0.44955656 0.021515442 -0.27845404 0.111169845 0.09481106 -0.06437417 -0.12308602
-0.35343412 -0.061433066 -0.05548799 -0.054483593 -0.24246772 -0.26889735 0.08242491 -0.1604973
0.15127115 0.119252495 0.18105136 0.071921594 0.039395753 -0.27162778 -0.15370196 -0.006948576
-0.008990813 0.20814605 0.02947042 0.21447027 -0.19927813 -0.14571318 -0.2535176 0.025648076
0.23371907 -0.080491416 0.16049428 0.03411089 0.07395556 0.057472873 -0.024584292 0.3611775
-0.08731928 0.27802348 0.07303936 -0.24429657 -0.021736827 -0.109917685 -0.096154995 0.006854328
0.19195972 -0.024164472 0.27431136 0.12351587 0.48885483 -0.3020037 0.049577624 0.37808967
-0.12521873 0.15236223 0.31963578 -0.22254726 0.11281384 0.079001725 0.091713525 0.2359587
-0.19107398 0.07129843 -0.104323395 0.055468656 0.11701171 0.052704196 -0.051127844 0.0563855
0.06161647 0.09386406 -0.11113139 -0.0009871441 -0.21537891 -0.07487369 -0.2528497 0.14593454
-0.040877674 0.3403964 -0.058005344 -0.12091918 -0.48906055 -0.12418484 0.010518552 -0.0397007
0.060392935 0.26167995 -0.10129436 0.1394433 -0.06985719 0.11192839 0.19298717 -0.04175014
0.18970509 0.027788071 -0.12488836 -0.23567195 0.26299345 0.30918738 0.16931652 0.34509355
0.056089032 0.20893198 -0.2797871 0.26164368 -0.0301585 -0.09388308 0.13331284 -0.014389303
0.16009015 0.038579185 0.05762349 0.08723893 0.10719689 0.111872956 0.046279404 -0.116053
-0.25457048 0.07142312 -0.002399636 -0.06432958 0.06600551 -0.086468674 0.20366539 -0.06326718
-0.12076316 0.03579553 0.098006114 -0.018496942 0.12060629 0.10926815 0.30116555 0.03804672
0.075586386 -0.15882877 0.097736076 0.1756258 -0.120539 -0.01094538 0.25482056 -0.3364086
-0.08934668 -0.1875594 -0.31828952 0.029166354 0.29517692 0.18666035 0.21100144 -0.22085848
0.0725439 0.23949854 -0.1316008 -0.07937268 -0.25681654 -0.32272977 0.12398328 -0.3946476
-0.25721136 0.17873466 -0.18978128 0.09369859 0.07077238 -0.26824966 -0.116661645 0.29963455
0.17751844 0.06913909 0.035814 0.062337667 -0.07921578 0.17871545 0.1370824 -0.27536204
-0.016781041 -0.20181005 0.33012286 -0.1287453 -0.2849357 -0.01181815 -0.55570394 0.29464543
-0.0596313 -0.07329721 0.22044276 -0.17918083 -0.04679451 0.00539931 0.16653195 -0.21790989
-0.27206987 0.034000542 -0.043567497 -0.0965032 -0.1454246 0.023670414 0.09684198 -0.10176696
-0.12796235 0.20716521 -0.045067046 0.30777 -0.19842863 -0.0062326994 -0.0011697841 -0.01337636
-0.0696793 0.18686317 0.18455726 -0.010041056 0.28070778 0.21552673 -0.2945644 0.06321433
-0.058405224 0.04055937 -1.0119417e-05 -0.026625352 0.20327066 0.005807227 -0.15862589 -0.030157512
00000000: 6c85 4a3d 7b78 43be fe1d dcbd 72e6 4b3b
00000010: e234 733d f797 10be 8e38 7b3d a924 71bd
00000020: 94b6 3fbe 8124 8bba 24bf 7cbe 8f73 533e
00000030: aeb5 c03d ba90 85be 20b8 80be 3b35 b73d
00000040: 7f85 ccbe fd89 9fbd 1d64 51be 67d3 8f3e
00000050: 11bf 86bd d89b 54be 3aec 48bd dfb6 c03d
00000060: 519e 513e 77f9 b93d 2ce9 543d f906 973e
00000070: 3cbf fd3d 810d 87be 318b b7bd 01b7 02be
00000080: 563f 2dbe 472c e63e 2741 b03c 8791 8ebe
00000090: 04ad e33d 4d2c c23d 9bd6 83bd 8614 fcbd
000000a0: 51f5 b4be 3da1 7bbd 6047 63bd 302a 5fbd
000000b0: 7549 78be eaac 89be 64ce a83d 6759 24be
000000c0: d3e6 1a3e a73a f43d 8765 393e a14b 933d
000000d0: 715d 213d cc12 8bbe 0c64 1dbe e1b0 e3bb
000000e0: 344e 13bc 3d24 553e f36b f13c 189e 5b3e
000000f0: 910f 4cbe d635 15be 0fcd 81be ea1b d23c
00000100: 0d54 6f3e afd8 a4bd 9d58 243e dcb7 0b3d
00000110: 0376 973d ad68 6b3d ff64 c9bc 42ec b83e
00000120: 73d4 b2bd 1859 8e3e a995 953d e128 7abe
00000130: 6e11 b2bc 861c e1bd e9ec c4bd 459a e03b
00000140: 1791 443e 92f4 c5bc 8a72 8c3e e3f5 fc3d
00000150: 2e4b fa3e 3ba0 9abe e811 4b3d f894 c13e
00000160: 5739 00be d804 1c3e 4da7 a33e 6ee3 63be
00000170: f10a e73d a8cb a13d 4dd4 bb3d 289f 713e
00000180: e6a8 43be e904 923d 81a7 d5bd 1a33 633d
00000190: d6a3 ef3d 5be0 573d 6e6b 51bd 7bf4 663d
000001a0: 8d61 7c3d cd3b c03d db98 e3bd 0f63 81ba
000001b0: 4a8c 5cbe 6157 99bd 8475 81be dd6f 153e
000001c0: 596f 27bd 7048 ae3e 0397 6dbd 7aa4 f7bd
000001d0: 2566 fabe 9f54 febd 0156 2c3c 349d 22bd
000001e0: 955e 773d eafa 853e 6b73 cfbd 39ca 0e3e
000001f0: 4911 8fbd b63a e53d 6e9e 453e 3202 2bbd
00000200: 0d42 423e cfa3 e33c 78c5 ffbd fd53 71be
00000210: 14a7 863e cf4d 9e3e 4f61 2d3e 1ab0 b03e
00000220: 9dbd 653d 44f2 553e 4140 8fbe 29f6 853e
00000230: f50e f7bc c645 c0bd 2983 083e 1cc1 6bbc
00000240: acee 233e 3505 1e3d 9c06 6c3d 53aa b23d
00000250: 0b8a db3d a61d e53d 798f 3d3d 32ad edbd
00000260: 1057 82be 4946 923d 3643 1dbb 3abf 83bd
00000270: e62d 873d 7d16 b1bd a98d 503e 3992 81bd
00000280: ad52 f7bd 559e 123d 6eb7 c83d e686 97bc
00000290: 6e00 f73d fbc7 df3d 5f32 9a3e e1d6 1b3d
000002a0: 09cd 9a3d 02a4 22be da29 c83d 40d7 333e
000002b0: 27dd f6bd 4054 33bc d777 823e bf3d acbe
000002c0: 64fb b6bd 920f 40be d8f6 a2be 47ee ee3c
000002d0: 6e21 973e e423 3f3e c310 583e ba28 62be
000002e0: e591 943d 1b3f 753e 5cc2 06be 258e a2bd
000002f0: 757d 83be d63c a5be f2ea fd3d 400f cabe
00000300: 35b1 83be 3806 373e 0656 42be 0ce5 bf3d
00000310: 1cf1 903d 0558 89be 4dec eebd b369 993e
00000320: 65c7 353e cc98 8d3d b3b1 123d c855 7f3d
00000330: e23b a2bd 2f01 373e 545f 0c3e 41fc 8cbe
00000340: 6578 89bc 4ba7 4ebe dd05 a93e cfd5 03be
00000350: 18e3 91be eaa0 41bc 9d42 0ebf c4db 963e
00000360: f33f 74bd d91c 96bd bfbb 613e 2e7b 37be
00000370: 9aab 3fbd b2ec b03b 5a87 2a3e c523 5fbe
00000380: be4c 8bbe 2744 0b3d d573 32bd 78a3 c5bd
00000390: 30ea 14be 75e8 c13c 1755 c63d 326b d0bd
000003a0: 9008 03be 1e23 543e 3998 38bd 0894 9d3e
000003b0: e030 4bbe ac3b ccbb 7153 99ba 8528 5bbc
000003c0: 05b4 8ebd 0f59 3f3e 94fc 3c3e 3e83 24bc
000003d0: eeb8 8f3e 0ab3 5c3e 25d1 96be 8476 813d
000003e0: 513a 6fbd 9521 263d 91c6 29b7 691d dabc
000003f0: 2f26 503e 8d4a be3b d36e 22be e30c f7bc

critic_value.critic_2.bias f4 [64]
0.0 0.019189764 0.014844998 -0.008461625 -0.011666734 -0.002773826 0.009466065 0.0
-0.010076558 0.011260098 0.010570809 -0.0074178623 0.011716039 0.015447073 -0.008486718 -0.010508356
0.018629557 -0.006729781 0.018759616 0.011250558 -0.0052734357 0.020581927 0.006724245 0.0009696245
0.013219743 -0.0059365877 0.014668754 0.0 0.014327836 -0.009651881 0.0 -0.013597807
0.016798653 0.018469071 -0.0036092147 0.016893389 -0.0028929324 0.020257037 0.0144176185 0.011133434
-0.00922212 0.011024915 0.017931998 0.0061187446 -0.008479351 0.016114589 0.012851357 0.014870176
0.014027422 -0.012138054 -0.012450348 0.018412756 0.0043096994 0.0 0.0163652 0.014460543
-0.013837848 0.017136434 0.0048883073 0.013786529 -0.006163078 0.018013792 0.01314029 0.017662583
00000000: 0000 0000 da33 9d3c 6f38 733c a1a2 0abc
00000010: d425 3fbc 14c9 35bb 8e17 1b3c 0000 0000
00000020: 2618 25bc 467c 383c 3031 2d3c 8a11 f3bb
00000030: a1f4 3f3c b815 7d3c e00b 0bbc 3d2b 2cbc
00000040: 039d 983c 7f85 dcbb c4ad 993c 4354 383c
00000050: c9cc acbb 6e9b a83c 0e57 dc3b 662e 7e3a
00000060: 9f97 583c b587 c2bb 3755 703c 0000 0000
00000070: 4dbf 6a3c ec22 1ebc 0000 0000 56c9 5ebc
00000080: 549d 893c 734c 973c 9388 6cbb 0164 8a3c
00000090: 5a97 3dbb 16f2 a53c e037 6c3c 0269 363c
000000a0: 6018 17bc d8a1 343c 20e6 923c c07f c83b
000000b0: faec 0abc be02 843c 808e 523c 0aa2 733c
000000c0: 46d3 653c b0de 46bc 8bfc 4bbc 59d6 963c
000000d0: 6138 8d3b 0000 0000 5010 863c eaeb 6c3c
000000e0: 24b8 62bc b561 8c3c 182e a03b e5e0 613c
000000f0: a5f3 c9bb a991 933c 5f4a 573c 1fb1 903c

critic_value.critic_3.weight f4 [64, 64]
0.43053535 0.032304145 -0.078177825 0.10423084 0.028276542 -0.31409636 -0.059132025 -0.036777847
0.039789222 0.24941763 0.11144888 0.027806466 -0.16426808 0.21392062 -0.10170209 -0.16954188
0.052315596 -0.36580336 0.20442264 0.2824261 0.15400724 -0.09685565 -0.01928073 0.03389898
0.18789232 0.20850681 -0.08752066 -0.31968793 -0.032093015 -0.13302337 0.020790482 -0.2407429
0.21951368 0.124927424 0.06605037 0.0076319524 -0.22755517 0.29759604 -0.21610849 0.08671675
0.0006869798 -0.16881755 0.26086232 0.24500734 0.086004585 0.035854388 -0.01926852 0.27431914
0.013645499 -0.20611906 -0.24830902 0.2404891 0.31365603 -0.0009608648 -0.21236394 -0.1648376
-0.031232199 0.17116925 0.007639274 -0.18749753 -0.079948485 0.20156567 -0.0843118 0.10993222
-0.07423695 -0.055762835 -0.04649266 -0.19873855 0.028567223 -0.21873993 0.17602485 -0.0190912
0.17905153 -0.13487017 0.012434468 0.02117369 -0.06835663 -0.089246206 0.15062116 0.1039549
-0.047840014 0.12654735 0.02277867 -0.24090266 0.17189375 -0.14796518 0.054006074 -0.14564416
0.15132439 -0.0359528 -0.11597027 0.085908175 -0.17792608 -0.181981 -0.46281987 -0.044238437
0.1988638 0.027451683 0.06712053 -0.18905415 -0.060105495 0.04725877 -0.25210458 -0.14064488
0.44882917 -0.22685091 0.077394806 0.10331358 -0.051767554 0.6142256 0.31833053 -0.105039336
0.1505331 0.07840726 -0.11846098 -0.09437627 0.04790108 -0.45446727 0.23235929 -0.059435233
0.011961797 0.14085242 0.022140473 0.1751031 0.061091505 -0.06441618 -0.009928796 -0.011809171
0.017443653 -0.092204496 0.027574712 -0.23288383 -0.2810732 0.077053 0.13007165 0.20684046
0.023664048 -0.21668379 0.15820725 -0.21402153 0.01936788 0.09434009 0.12781526 0.15059558
0.43233386 -0.19799608 -0.10105024 0.2150765 -0.2092284 0.27884355 -0.015067238 -0.09333973
0.33383712 0.33534917 0.33887297 0.01715166 0.07040752 0.21609893 0.097493194 0.14403813
0.05540885 -0.19751899 -0.097335264 -0.18844862 -0.06966247 -0.2559933 -0.25130552 -0.10481637
-0.14677517 0.19353503 0.21837492 -0.022056136 0.111918084 0.09179692 0.24151932 0.20732702
0.07390998 -0.12989688 0.21865368 0.03479154 0.14004423 -0.08572797 0.060036562 -0.10691443
0.12858802 0.04445254 0.13262202 -0.08086348 0.37974164 0.18236467 0.076059856 -0.15432948
0.11292725 -0.007936357 -0.039842587 -0.12853062 -0.11908921 0.117270716 0.10803371 0.09979632
0.00789468 0.23522906 -0.25818935 -0.11937742 -0.13337336 -0.0418675 -0.1761345 0.16419934
0.31028286 -0.05576262 0.20102671 -0.061078675 -0.27186406 -0.26607287 0.15927483 0.33406883
0.04549822 0.17222236 0.10527648 0.22333594 0.33399007 0.072204515 -0.1903012 -0.21171756
0.20938638 -0.15005489 0.2470223 0.19615836 0.44838652 0.12184422 0.01749996 0.009656876
0.10115054 -0.01637478 0.1340168 -0.12384179 0.3275866 -0.032598894 -0.16272621 0.071971275
-0.047575872 0.12384828 -0.02701858 -0.018260866 0.15035255 0.0821164 0.103203535 0.070808984
-0.14261909 0.16155158 0.18046069 0.5400493 -0.106268324 0.021769572 -0.1481524 -0.013648691
00000000: 216f dc3e 5a51 043d b21b a0bd fb76 d53d
00000010: 35a4 e73c 3dd1 a0be 6c34 72bd 5ea4 16bd
00000020: 06fa 223d 5667 7f3e 4f3f e43d 63ca e33c
00000030: e435 28be 020e 5b3e 2f49 d0bd 639c 2dbe
00000040: e148 563d 944a bbbe 2b54 513e 279a 903e
00000050: 13b4 1d3e 415c c6bd 9ff2 9dbc a8d9 0a3d
00000060: d866 403e cf82 553e 083e b3bd 23ae a3be
00000070: f773 03bd 4737 08be cd50 aa3c 4f85 76be
00000080: 32c8 603e f3d9 ff3d 6b45 873d 7515 fa3b
00000090: 3904 69be 825e 983e 8b4b 5dbe 8d98 b13d
000000a0: 6f16 343a 82de 2cbe bf8f 853e 34e3 7a3e
000000b0: 2c23 b03d 0ddc 123d 04d9 9dbc 8f73 8c3e
000000c0: 5f91 5f3c e010 53be b844 7ebe c642 763e
000000d0: 8697 a03e 8ce2 7bba ef75 59be 30cb 28be
000000e0: abda ffbc fe46 2f3e e052 fa3b 5aff 3fbe
000000f0: 08bc a3bd 3b67 4e3e aaab acbd 2524 e13d
00000100: 8b09 98bd 9267 64bd 166f 3ebd 1e82 4bbe
00000110: cf05 ea3c 5cfd 5fbe dc3f 343e 2665 9cbc
00000120: 4959 373e 681b 0abe f0b9 4b3c 7274 ad3c
00000130: 90fe 8bbd b7c6 b6bd 6f3c 1a3e 4ee6 d43d
00000140: e4f3 43bd a195 013e 559a ba3c 30af 76be
00000150: ea04 303e 2f84 17be 7935 5d3d be23 15be
00000160: c8f4 1a3e 3e43 13bd d281 edbd a0f0 af3d
00000170: 4132 36be 3a59 3abe baf6 ecbe 5d33 35bd
00000180: f4a2 4b3e 5ae2 e03c 7d76 893d 6997 41be
00000190: 2e31 76bd 6992 413d da13 81be 3605 10be
000001a0: f0cc e53e 9b4b 68be 2b81 9e3d 1296 d33d
000001b0: 370a 54bd e43d 1d3f 38fc a23e dd1e d7bd
000001c0: 5925 1a3e fc93 a03d ac9b f2bd 5948 c1bd
000001d0: ec33 443d efaf e8be 98ef 6d3e 5c72 73bd
000001e0: 6afb 433c 9e3b 103e f05f b53c 3a4e 333e
000001f0: 163b 7a3d a1ec 83bd 64ac 22bc 417b 41bc
00000200: fee5 8e3c b6d5 bcbd 5de4 e13c 1979 6ebe
00000210: d4e8 8fbe f7cd 9d3d 8131 053e fccd 533e
00000220: 1bdb c13c 5be2 5dbe 1501 223e 7628 5bbe
00000230: 63a9 9e3c 6135 c13d 01e2 023e ba35 1a3e
00000240: dd5a dd3e 7cbf 4abe 6ef3 cebd 043d 5c3e
00000250: f83f 56be 95c4 8e3e 94dc 76bc e628 bfbd
00000260: b3ec aa3e e3b2 ab3e c280 ad3e a381 8c3c
00000270: d131 903d 0a49 5d3e 83aa c73d bb7e 133e
00000280: 64f4 623d 6b42 4abe b657 c7bd adf8 40be
00000290: 32ab 8ebd 8e11 83be 1eab 80be f7a9 d6bd
000002a0: 3b4c 16be 0c2e 463e ad9d 5f3e 12af b4bc
000002b0: 4f35 e53d 0600 bc3d d750 773e 894d 543e
000002c0: 1e5e 973d b003 05be c0e6 5f3e 9381 0e3d
000002d0: c167 0f3e 2592 afbd e6e8 753d f4f5 dabd
000002e0: 94ac 033e de13 363d 11ce 073e c19b a5bd
000002f0: 7f6d c23e cebd 3a3e 45c5 9b3d 8c08 1ebe
00000300: 6746 e73d 7e07 02bc fb31 23bd 889d 03be
00000310: 0be5 f3bd a12b f03d c740 dd3d 0362 cc3d
00000320: b058 013c e3df 703e 6531 84be 267c f4bd
00000330: 0793 08be 417d 2bbd 9a5c 34be df23 283e
00000340: 65dd 9e3e 5867 64bd f2d9 4d3e a22d 7abd
00000350: c431 8bbe b43a 88be f118 233e 120b ab3e
00000360: 575c 3a3d 0f5b 303e 329b d73d 2db2 643e
00000370: bf00 ab3e f6df 933d 51de 42be 7dcc 58be
00000380: 6269 563e fda7 19be 6af3 7c3e bddd 483e
00000390: eb92 e53e 7689 f93d 135c 8f3c e037 1e3c
000003a0: 0428 cf3d 6724 86bc b33b 093e c4a0 fdbd
000003b0: 6eb9 a73e 6b86 05bd b3a1 26be ad65 933d
000003c0: ebde 42bd 2ba4 fd3d 1256 ddbc d097 95bc
000003d0: 05f6 193e a52c a83d 605c d33d 4d04 913d
000003e0: bd0a 12be c76d 253e b0ca 383e ac40 0a3f
000003f0: 35a3 d9bd 1a56 b23c 43b5 17be c29e 5fbc

critic_value.critic_3.bias f4 [64]
0.017733995 -0.010862256 0.015259485 0.014876201 0.0 0.015663764 -0.0060988613 0.0153298685
0.014102589 -0.0077485945 0.020644885 0.013909638 -0.0070532304 -0.009267564 -0.0029277368 0.014782391
0.020826092 -0.011824665 -0.0033244556 0.0 0.007656709 -0.011551441 -0.011813713 0.0145666255
0.0 0.010372442 0.015061187 0.0137511445 -0.013053192 -0.009615102 0.0141252335 0.019902028
-0.0119205555 0.014330329 0.01638621 0.013894408 0.013745476 -0.008701403 -0.0011408263 0.016968792
0.0057436624 -0.008749261 0.017611168 -0.0012922164 0.014366257 0.018399732 -0.0043954873 -0.005615244
0.015166512 0.015286667 0.014717121 0.016420107 0.015932271 0.015341193 -0.0033628168 -0.011118261
0.0137526775 0.014007573 0.013390618 0.014393326 -0.013059708 0.013451154 -0.00784651 -0.01126987
00000000: e246 913c 9bf7 31bc eb02 7a3c 4fbb 733c
00000010: 0000 0000 4b51 803c f5d8 c7bb 212a 7b3c
00000020: 8c0e 673c ece7 fdbb 761f a93c 40e5 633c
00000030: c91e e7bb fbd6 17bc 46df 3fbb d731 723c
00000040: 7b9b aa3c 3dbc 41bc 1cdf 59bb 0000 0000
00000050: 21e5 fa3b 4142 3dbc 4e8e 41bc dba8 6e3c
00000060: 0000 0000 2df1 293c 32c3 763c 7b4c 613c
00000070: 0edd 55bc a988 1dbc 866d 673c 9409 a33c
00000080: 6f4e 43bc c2c9 6a3c 603c 863c 5fa5 633c
00000090: b434 613c 5490 0ebc c787 95ba 2302 8b3c
000000a0: 5535 bc3b 0f59 0fbc 4c45 903c 965f a9ba
000000b0: 7360 6b3c 09bb 963c 0508 90bb 1500 b8bb
000000c0: f67c 783c ee74 7a3c 1420 713c 7683 863c
000000d0: 6584 823c a159 7b3c b462 5cbb 5e29 36bc
000000e0: e952 613c 0580 653c 5364 5b3c fcd1 6b3c
000000f0: 63f8 55bc 3b62 5c3c a68e 00bc 43a5 38bc

critic_value.critic_output.weight f4 [1, 64]
-0.28493905 -0.04341608 -0.08841058 -0.1671682 -0.033044927 -0.04886883 0.14137448 -0.09407158
-0.25709713 0.2504805 -0.07742538 0.16780195 0.12807697 0.17058322 0.010642066 -0.03950713
-0.21010163 0.02713733 0.023760362 0.09462922 0.28079775 0.22756699 0.05450101 -0.056629848
-0.06910623 -0.09981039 -0.49210274 -0.1080247 0.12764892 0.29767296 -0.12476508 -0.34809467
0.20190077 -0.05653798 -0.04004274 -0.084599845 -0.15387376 0.2566812 0.04288175 -0.05629712
-0.029965783 0.32249627 -0.17162716 0.27677333 -0.05312015 -0.12468919 0.22812288 0.13614257
-0.08660181 -0.32325232 -0.037559606 -0.050593548 -0.25393763 -0.061116256 -0.28869614 0.10177271
-0.12337727 -0.07508002 -0.35436863 -0.1908247 0.14506319 -0.4012149 0.11030428 0.053934433
00000000: 88e3 91be 0fd5 31bd 9b10 b5bd 242e 2bbe
00000010: 1e5a 07bd af2a 48bd 79c4 103e 9aa8 c0bd
00000020: 3ca2 83be fb3e 803e 3391 9ebd 46d4 2b3e
00000030: 9c26 033e 5ead 2e3e 0f5c 2e3c 3ad2 21bd
00000040: e224 57be 1b4f de3c 17a5 c23c f7cc c13d
00000050: b9c4 8f3e 5207 693e 733c 5f3d b3f4 67bd
00000060: 9187 8dbd 6469 ccbd e4f4 fbbe 0e3c ddbd
00000070: 66b6 023e 9768 983e d684 ffbd 7739 b2be
00000080: 13bf 4e3e 5e94 67bd db03 24bd af42 adbd
00000090: 1591 1dbe b86b 833e c6a4 2f3d cf97 66bd
000000a0: cd7a f5bc 3b1e a53e 08bf 2fbe 3cb5 8d3e
000000b0: 8494 59bd 0c5d ffbd 0b99 693e f568 0b3e
000000c0: 4a5c b1bd 5481 a5be 1ad8 19bd 2e3b 4fbd
000000d0: 1d04 82be 0a55 7abd fbcf 93be 366e d03d
000000e0: 39ad fcbd 8ec3 99bd ce6f b5be 8d67 43be
000000f0: 728b 143e 0a6c cdbe 36e7 e13d 5aea 5c3d
