results/model_1660054766.9381492/network_0.pth (torch, 130543 bytes, 16 tensors)

feature_net.act_cnn1.weight f4 [1, 1, 5, 1]
0.45593363 0.5637248 0.028225373 -1.1666296 0.33648843
00000000: 2270 e93e 4550 103f e638 e73c 1e54 95bf
00000010: 3648 ac3e

actor_logit.actor_1.weight f4 [64, 110]
0.1173749 -0.15410891 -0.12037121 -0.010024389 0.06133713 -0.05765237 -0.14797853 0.012734489
0.139236 0.0726662 0.13570467 -0.53948426 0.04081691 -0.1374018 -0.122697115 -0.2425316
0.058336522 0.31850037 -0.32664397 -0.0059560854 0.025384977 -0.041360285 0.12980449 0.08476259
-0.05501202 0.06659422 0.042486507 0.08044928 -0.18690449 -0.15191337 0.062166423 0.016755424
0.007789785 0.018905872 0.06984876 0.11244151 0.017555078 -0.09628918 0.065776125 0.1535648
0.07154112 -0.24692483 -0.27717155 -0.012248158 -0.15483823 -0.14382915 -0.0003100649 -0.054253552
-0.14677429 0.041375272 -0.0038074825 -0.18070658 0.13385805 -0.12149231 0.048107766 -0.10937881
0.12003949 -0.005844887 0.00017850622 -0.04630538 -0.040889382 0.035893183 0.12246693 0.046282772
0.14027557 -0.016991448 0.27026638 0.029463354 0.09164943 -0.23946498 -0.13531962 0.23070127
0.2488977 0.1957271 0.115339264 0.020791842 0.09522013 -0.17328367 0.14266416 0.031134823
-0.10041688 0.1868337 0.012103771 -0.038197313 -0.16785067 -0.067180574 -0.0770191 -0.26660386
0.086882345 0.050410543 0.07418337 -0.088141225 -0.082712196 -0.07707473 -0.020841334 -0.012377294
-0.17391181 0.11153053 -0.09355429 -0.042988982 -0.20733894 -0.088358216 0.08372707 -0.030951828
-0.122619994 0.029669877 -0.07542081 0.16488315 -0.16355108 -0.04273374 0.14149804 0.15570658
6.382816e-05 0.24459244 -0.0028963701 -0.22973183 -0.04352364 -0.0029089996 -0.4142145 0.16349928
0.25697818 0.15289982 -0.06389261 -0.11829169 0.07754402 -0.017390933 0.041573003 -0.09837856
-0.04818671 -0.20672914 -0.045166425 0.07116098 0.042289607 0.007903097 -0.066070855 -0.05041677
0.004864054 0.069887325 -0.1062145 0.05833887 -0.10209483 0.081053145 -0.11450612 -0.050044034
-0.14302874 -0.03620271 0.024892379 -0.03568537 -0.1931669 -0.081890576 -0.15451917 -0.04847173
-0.04497544 0.04303791 -0.26295218 -0.08685166 -0.22298469 6.294536e-05 0.13046059 -0.04803688
-0.1605333 0.1351942 0.12427792 0.29522645 -0.10652048 0.0026786306 -0.027906543 0.12605841
-0.065360144 -0.03420973 -0.0124486545 0.108106546 0.21527402 0.055870846 0.30264607 0.07174272
-0.0700207 -0.06957386 -0.22566189 0.08391924 0.035132308 -0.22187696 -0.005034061 -0.014665087
0.013302371 0.11650091 0.014866454 0.0057820063 -0.05854883 -0.005478495 0.002471638 -0.029796373
0.0282042 -0.14878324 -0.1843058 -0.061778687 -0.43310088 0.028060062 -0.03865914 -0.12101384
0.28430423 0.063501544 0.18197691 -0.036361642 0.122285925 -0.07313646 -0.23030604 0.12337609
0.15555374 0.13051915 -0.13373734 -0.18139765 0.04205104 0.18964007 -0.14163962 0.023355912
-0.20786686 0.09443851 0.07406419 -0.062186595 -0.077248655 0.20463067 0.12486138 0.26969147
-0.08610109 0.057399638 0.05995369 -0.33119637 0.06113564 0.11426744 0.05033411 -0.20889767
0.053163555 0.09244154 -0.07219558 0.051173504 0.1087186 0.15933156 0.19470511 -0.016958533
0.10322275 -0.15692812 -0.14409107 -0.02542543 -0.2252146 -0.1906724 0.106922716 0.016930887
-0.1688058 -0.008472017 0.11776336 -0.078937285 0.19925302 -0.048090413 0.03158676 -0.021236131
00000000: 4062 f03d bace 1dbe 2e85 f6bd 563d 24bc
00000010: a43c 7b3d e424 6cbd af87 17be 51a4 503c
00000020: e293 0e3e 04d2 943d 2af6 0a3e a41b 0abf
00000030: a22f 273d 0fb3 0cbe a048 fbbd 345a 78be
00000040: 47f2 6e3d 7b12 a33e e13d a7be 442b c3bb
00000050: 28f4 cf3c 6769 29bd 78eb 043e 0298 ad3d
00000060: 4954 61bd 8d62 883d 5506 2e3d 98c2 a43d
00000070: e463 3fbe 2e8f 1bbe 38a2 7e3d ac42 893c
00000080: 7441 ff3b 7de0 9a3c de0c 8f3d bc47 e63d
00000090: abcf 8f3c 4333 c5bd a2b5 863d 1740 1d3e
000000a0: 2784 923d ddd9 7cbe 6ee9 8dbe 80ac 48bc
000000b0: ea8d 1ebe f347 13be 3590 a2b9 f938 5ebd
000000c0: 004c 16be 1e79 293d f586 79bb 250b 39be
000000d0: 1612 093e f6d0 f8bd a60c 453d ff01 e0bd
000000e0: 44d7 f53d 7786 bfbb 662d 3b39 b6aa 3dbd
000000f0: a07b 27bd bb04 133d f1cf fa3d 0193 3d3d
00000100: 66a4 0f3e a631 8bbc 5b60 8a3e 225d f13c
00000110: b2b2 bb3d 4f36 75be 3a91 0abe f43c 6c3e
00000120: 0adf 7e3e af6c 483e fe36 ec3d a753 aa3c
00000130: c602 c33d 4671 31be 8e16 123e 750e ff3c
00000140: 5da7 cdbd 5551 3f3e e54e 463c c974 1cbd
00000150: 0ce1 2bbe f895 89bd 31bc 9dbd 4d80 88be
00000160: 5fef b13d 497b 4e3d 73ed 973d 6383 b4bd
00000170: 0365 a9bd 5bd9 9dbd 72bb aabc 22ca 4abc
00000180: f015 32be 1e6a e43d 6499 bfbd 3715 30bd
00000190: a950 54be 27f5 b4bd 1979 ab3d b08e fdbc
000001a0: 3120 fbbd 3e0e f33c 3a76 9abd 21d7 283e
000001b0: ef79 27be 9309 2fbd dde4 103e 8c71 1f3e
000001c0: 7cdb 8538 7176 7a3e 07d1 3dbb d23e 6bbe
000001d0: d845 32bd eaa4 3ebb ec13 d4be 5b6c 273e
000001e0: a592 833e c591 1c3e 21da 82bd ea42 f2bd
000001f0: 66cf 9e3d 6e77 8ebc 7448 2a3d b37a c9bd
00000200: 6d5f 45bd ceb0 53be 6e00 39bd d9bc 913d
00000210: de37 2d3d fe7b 013c 2850 87bd d181 4ebd
00000220: a462 9f3b 1621 8f3d fd86 d9bd bdf4 6e3d
00000230: 1817 d1bd 31ff a53d 2f82 eabd f9fa 4cbd
00000240: 2076 12be 4b49 14bd 1aeb cb3c d32a 12bd
00000250: 8bcd 45be 3fb6 a7bd 463a 1ebe 4b8a 46bd
00000260: 2b38 38bd 8548 303d aba1 86be 48df b1bd
00000270: 1956 64be 8801 8438 7697 053e 52c2 44bd
00000280: d762 24be 5970 0a3e 6c85 fe3d ec27 973e
00000290: 6927 dabd f78b 2f3b 439c e4bc 7515 013e
000002a0: 8adb 85bd 801f 0cbd 71f5 4bbc f766 dd3d
000002b0: cb70 5c3e d4d8 643d 6df4 9a3e d9ed 923d
000002c0: 0367 8fbd bd7c 8ebd e913 67be dadd ab3d
000002d0: e5e6 0f3d b733 63be c4f4 a4bb d545 70bc
000002e0: 30f2 593c 0798 ee3d 6d92 733c fc76 bd3b
000002f0: e6d0 6fbd f284 b3bb 34fb 213b 8617 f4bc
00000300: 7f0c e73c a25a 18be a9ba 3cbe a60b 7dbd
00000310: 66bf ddbe 37de e53c 0c59 1ebd 1bd6 f7bd
00000320: 5390 913e 190d 823d 2858 3a3e f2ef 14bd
00000330: 0b71 fa3d 91c8 95bd 59d5 6bbe 9aac fc3d
00000340: 7b49 1f3e d0a6 053e 71f2 08be 4ec0 39be
00000350: b63d 2c3d 0231 423e fa09 11be e654 bf3c
00000360: 0ddb 54be fa68 c13d f7ae 973d 5fb7 7ebd
00000370: 8b34 9ebd b48a 513e 53b7 ff3d 0015 8a3e
00000380: c555 b0bd e21b 6b3d 0092 753d 9292 a9be
00000390: 5d69 7a3d 0c05 ea3d 242b 4e3d 45e9 55be
000003a0: 07c2 593d fd51 bd3d 47db 93bd 4f9b 513d
000003b0: dba7 de3d d027 233e c760 473e 9fec 8abc
000003c0: 7366 d33d c4b1 20be 9c8c 13be fe48 d0bc
000003d0: a89e 66be a03f 43be 4cfa da3d a5b2 8a3c
000003e0: 6ddb 2cbe 37ce 0abc eb2d f13d dfa9 a1bd
000003f0: fc08 4c3e 74fa 44bd 1e61 013d 65f7 adbc

actor_logit.actor_1.bias f4 [64]
0.002678312 -0.0010655738 -7.658173e-05 -0.0023629002 -0.0016977866 -0.002490044 0.0032400407 0.0019269718
-0.0004761689 -0.000994689 0.0018260663 0.0012949677 0.0028698486 0.0017474523 -0.0016942159 -0.0018704158
0.0011092444 0.0022763915 0.003595437 0.002063469 0.0025931916 0.00033517313 0.0014256082 -0.00068299257
0.00077313965 0.000850465 -0.0022642321 -0.001936221 -0.0013734103 -0.0012624838 0.0021323452 -0.0021064666
0.00014152609 0.00139661 0.00056149834 0.0011616909 7.7663186e-05 -0.0020925982 0.0019930722 -0.0019603497
0.003233982 -5.9265407e-05 -0.0011944916 0.002329547 -4.6354937e-05 -0.00040595644 0.0026820267 -0.0020771849
-0.0005558461 -0.0014902321 0.0024273295 -0.0025917012 -0.0012149939 -0.0027719087 -0.0023014662 0.0026974303
-0.0017714432 -0.0023143322 0.00031370812 -0.0028131353 0.0012529672 0.0031389745 0.0026676685 0.00039679717
00000000: 9e86 2f3b b9aa 8bba 819a a0b8 e3da 1abb
00000010: 4488 deba 0230 23bb dd56 543b 7292 fc3a
00000020: 4fa6 f9b9 3960 82ba 9e58 ef3a e8bb a93a
00000030: 1214 3c3b c50a e53a 7410 deba bd28 f5ba
00000040: 1164 913a 832f 153b 6ca1 6b3b 443b 073b
00000050: 89f2 293b 2dba af39 79db ba3a db0a 33ba
00000060: 86ac 4a3a bdf1 5e3a 8363 14bb ccc8 fdba
00000070: 0104 b4ba ed79 a5ba d1be 0b3b a50c 0abb
00000080: 9f66 1439 750e b73a 8431 133a e143 983a
00000090: 1bdf a238 f923 09bb 349e 023b 3679 00bb
000000a0: 37f1 533b bf93 78b8 7d90 9cba 50ab 183b
000000b0: 3c6d 42b8 8dd6 d4b9 f1c4 2f3b 6121 08bb
000000c0: 33b6 11ba e453 c3ba d513 1f3b 88d9 29bb
000000d0: 6e40 9fba e9a8 35bb 32d4 16bb 5fc7 303b
000000e0: c52f e8ba 0dac 17bb 3179 a439 945c 38bb
000000f0: 9a3a a43a 41b7 4d3b 0dd4 2e3b 3709 d039

actor_logit.actor_2.weight f4 [64, 64]
0.04175287 0.050980538 0.14394738 0.13669634 0.27929327 -0.009950759 0.08849441 -0.026700377
-0.15935916 -0.07500543 0.058026746 -0.2007827 -0.23243406 0.19844109 -0.11713147 0.0876987
0.13248128 0.27150828 -0.054593053 0.04563555 0.22480372 0.032905426 0.055250738 0.09909325
-0.103067294 -0.47017682 0.1471766 0.18022147 0.12879081 0.12365542 -0.19210732 0.55897397
0.17490223 -0.22351296 0.3516483 0.20692344 -0.010610945 -0.16066518 0.055787664 -0.06469806
-0.04689394 -0.022518333 0.04587651 -0.03503618 -0.18459202 -0.2228745 0.118957855 0.053793546
-0.06204488 0.14864352 -0.073238 0.03698898 -0.15965088 0.2696615 0.1713039 -0.04722178
0.2215471 -0.007593367 -0.058728795 -0.31706056 -0.29872692 -0.21078095 0.12134491 -0.09606345
-0.15002236 -0.022936769 -0.26707476 -0.3040098 -0.06891148 0.017828457 0.36041337 0.357184
-0.08649738 0.30485126 0.071547285 0.16050276 0.114370815 -0.09678607 -0.031374708 0.09145668
-0.09913144 -0.03135582 -0.090116374 0.120973915 -0.013642541 0.16257662 -0.17332327 -0.10471173
-0.23910254 -0.14110367 -0.039447587 0.06515153 0.09751855 0.113295466 -0.11906169 -0.19785276
0.18118277 -0.0147610605 -0.0010485767 -0.1432652 -0.16507158 -0.15257224 0.096422926 -0.07711413
-0.46993563 -0.121536784 -0.17343588 0.20058492 0.12917309 0.34159222 0.19827503 -0.15579118
0.040326066 -0.11052941 0.26366898 -0.0034423976 -0.06903988 0.025702288 -0.062027026 -0.16073419
0.30101714 -0.08054471 -0.29965034 -0.072877765 -0.24605879 0.10515483 0.22846174 -0.2603999
-0.0050644125 -0.0092808 0.11247133 -0.14713746 0.35562155 -0.032876343 -0.07555348 -0.12775072
0.11359327 0.21505128 0.054781955 0.0045905495 0.174103 0.001709425 -0.12048123 0.116638474
0.44932848 -0.14514785 0.013535478 -0.13222587 -0.19174074 -0.10744342 0.10165994 -0.26777306
0.07188789 0.16179965 0.046360966 -0.14216602 -0.008100463 -0.16727029 -0.0074666273 -0.19833124
-0.30613497 -0.25959334 -0.24919961 0.32245043 0.11190786 0.060439788 0.21771988 -0.26715425
-0.12058626 0.07591448 0.27727866 0.02743957 -0.1901067 0.070882455 0.18800057 0.19034277
-0.19301757 0.01683177 0.062508486 -0.26457703 -0.3150549 -0.1488165 0.15859377 -0.03398536
-0.23137172 -0.13456708 -0.13562939 -0.04465992 -0.35478356 -0.12614961 0.16359845 -0.12400558
-0.08541358 0.19153439 -0.026371665 0.08738209 0.21096951 0.014014672 0.23830812 -0.079251304
0.16177067 -0.07420438 0.0049715834 0.03534488 0.17520587 -0.049611796 0.10370152 0.04298249
-0.123847276 0.0070406795 0.4345805 0.34490967 -0.12413054 0.104534075 -0.07774957 -0.03609
-0.2895988 0.125781 0.041874018 -0.27727512 0.13970698 -0.18215421 0.032574445 -0.007434775
-0.1675359 0.06118778 -0.060289904 -0.09655861 0.0032096782 -0.03753951 0.13911559 0.1770056
-0.23370358 -0.16408035 0.5146023 -0.17959061 0.10434079 -0.30844352 -0.37097144 0.1499608
-0.12143922 0.13291578 -0.15828301 0.11862833 0.060051866 -0.09806798 -0.11672078 0.055912007
0.50108504 -0.12377315 0.010457872 -0.21245466 0.018851463 -0.0048581967 0.06864236 0.05971818
00000000: 0f05 2b3d f8d0 503d f166 133e 20fa 0b3e
00000010: 87ff 8e3e 8208 23bc 8f3c b53d c0ba dabc
00000020: 0c2f 23be 729c 99bd 74ad 6d3d fb99 4dbe
00000030: 3203 6ebe 2434 4b3e a0e2 efbd 609b b33d
00000040: 2ca9 073e 2203 8b3e f79c 5fbd 58ec 3a3d
00000050: f232 663e d7c7 063d 994e 623d 67f1 ca3d
00000060: f214 d3bd 04bb f0be 76b5 163e fa8b 383e
00000070: bde1 033e 0e3f fd3d c8b7 44be eb18 0f3f
00000080: 9219 333e 95e0 64be 3f0b b43e bde3 533e
00000090: 87d9 2dbc 6a85 24be 9b81 643d 6b80 84bd
000000a0: dc13 40bd 5e78 b8bc 02e9 3b3d 1982 0fbd
000000b0: b105 3dbe 3739 64be 2da0 f33d 9f56 5c3d
000000c0: c622 7ebd 0236 183e cefd 95bd c281 173d
000000d0: 857b 23be 1211 8a3e 4a6a 2f3e a06b 41bd
000000e0: 3edd 623e c7d1 f8bb 9b8d 70bd c355 a2be
000000f0: bcf2 98be f6d6 57be ae83 f83d eabc c4bd
00000100: 769f 19be e4e5 bbbc 06be 88be 2ca7 9bbe
00000110: 7621 8dbd fc0c 923c 1a88 b83e d2e0 b63e
00000120: 8a25 b1bd 7715 9c3e 6287 923d d65a 243e
00000130: 3f3b ea3d c637 c6bd c482 00bd a44d bb3d
00000140: 6d05 cbbd f66e 00bd ef8e b8bd 2cc1 f73d
00000150: f784 5fbc 7c7a 263e a87b 31be 1a73 d6bd
00000160: 4cd7 74be 7b7d 10be cb93 21bd 2a6e 853d
00000170: ceb7 c73d 7407 e83d 9ed6 f3bd ea99 4abe
00000180: fa87 393e 60d8 71bc 6570 89ba 1db4 12be
00000190: 8608 29be e63b 1cbe 6279 c53d 03ee 9dbd
000001a0: 679b f0be 47e8 f8bd 2d99 31be 2266 4d3e
000001b0: f345 043e 2de5 ae3e 9c08 4b3e b987 1fbe
000001c0: f22c 253d 3e5d e2bd 9fff 863e d999 61bb
000001d0: c864 8dbd 9b8d d23c 0d10 7ebd 8197 24be
000001e0: eb1e 9a3e a0f4 a4bd c56b 99be f040 95bd
000001f0: d6f6 7bbe 6a5b d73d e0f1 693e 2353 85be
00000200: 5ff3 a5bb 7f0e 18bc 5e57 e63d 34ab 16be
00000210: 0714 b63e 58a9 06bd c8bb 9abd 16d1 02be
00000220: 97a3 e83d 6736 5c3e 0b63 603d 526c 963b
00000230: 0f48 323e c90e e03a ddbe f6bd 27e0 ee3d
00000240: 620e e63e a3a1 14be e9c3 5d3c 3866 07be
00000250: af57 44be 4c0b dcbd 1633 d03d 8d19 89be
00000260: f539 933d cfae 253e ffe4 3d3d f893 11be
00000270: ceb7 04bc e748 2bbe 9caa f4bb 5817 4bbe
00000280: b9bd 9cbe 6be9 84be 2f2e 7fbe 3918 a53e
00000290: f32f e53d b68f 773d f6f1 5e3e 71c8 88be
000002a0: eef5 f6bd 0d79 9b3d 78f7 8d3e f3c8 e03c
000002b0: 55ab 42be d22a 913d 3983 403e 37e9 423e
000002c0: 66a6 45be c8e2 893c 7304 803d a476 87be
000002d0: e04e a1be 5a63 18be 6866 223e 3c34 0bbd
000002e0: b5ec 6cbe f4cb 09be 6ee2 0abe 52ed 36bd
000002f0: 31a6 b5be 5d2d 01be 5a86 273e a3f6 fdbd
00000300: 51ed aebd 9721 443e 6409 d8bc 62f5 b23d
00000310: 6408 583e cb9d 653c 0b07 743e 824e a2bd
00000320: 36a7 253e 77f8 97bd aae8 a23b cbc5 103d
00000330: 2b69 333e bd35 4bbd 7661 d43d 680e 303d
00000340: a4a3 fdbd 80b5 e63b 5681 de3e 0098 b03e
00000350: 2738 febd f615 d63d 2b3b 9fbd 1cd3 13bd
00000360: 4b46 94be bccc 003e 1784 2b3d 01f7 8dbe
00000370: 590f 0f3e a286 3abe c86c 053d 6a9f f3bb
00000380: 888e 2bbe 0aa0 7a3d 8cf2 76bd 85c0 c5bd
00000390: 7759 523b 07c3 19bd 5174 0e3e f540 353e
000003a0: fe4f 6fbe ae04 28be fabc 033f 9ae6 37be
000003b0: a0b0 d53d 4fec 9dbe f8ef bdbe 538f 193e
000003c0: 20b5 f8bd 131b 083e f114 22be 69f3 f23d
000003d0: f2f8 753d ddd7 c8bd 4e0b efbd fd03 653d
000003e0: 1c47 003f c77c fdbd 7f57 2b3c b78d 59be
000003f0: 626e 9a3c 8231 9fbb 5e94 8c3d 0d9b 743d

actor_logit.actor_2.bias f4 [64]
-0.0018032772 0.002812942 -0.0009304916 -0.0015929439 0.0014011738 -0.002099903 0.0016548751 0.0015749824
0.00287427 0.0003428619 0.003019854 -0.00016742354 0.00045201642 0.0013878329 -0.0009956291 0.00045059161
0.00080022245 -0.0021049462 -1.7777544e-05 0.0014976693 0.001080171 0.0025865084 9.465093e-07 -0.0013040744
0.0008023304 0.0031473879 -0.00037951543 -0.0014842674 -0.003040668 0.0 0.00024088338 0.00070673216
0.0021161446 0.003135125 -0.00026701714 0.0016959246 -0.0011862265 0.00018874339 -0.0024998821 -0.0011585186
-0.0025801912 0.00058113504 -0.0013599154 -0.0016255917 -0.0016861799 -3.69223e-05 -0.0002740047 0.0021522683
0.0020852436 -0.0010740341 -6.534468e-05 5.960021e-05 0.00038506265 -0.0003688314 0.0014339276 -0.0003965873
-0.0014469043 -0.0029734331 -0.0013471423 0.0025714352 0.002441206 -0.0020788456 0.00163134 0.00092044484
00000000: f15b ecba 5659 383b 3cec 73ba 54ca d0ba
00000010: 97a7 b73a 879e 09bb 65e8 d83a a46f ce3a
00000020: 405e 3c3b 25c2 b339 bee8 453b 6a8e 2fb9
00000030: 9efc ec39 f2e7 b53a c57f 82ba 623d ec39
00000040: 05c6 513a 23f3 09bb fc20 95b7 714d c43a
00000050: 8694 8d3a 6982 293b a013 7e35 7aed aaba
00000060: 7b53 523a 6844 4e3b b3f9 c6b9 c08b c2ba
00000070: f245 47bb 0000 0000 a495 7c39 fe43 393a
00000080: 04af 0a3b ab76 4d3b 6ffe 8bb9 c949 de3a
00000090: 287b 9bba 6be9 4539 10d5 23bb 6fd9 97ba
000000a0: 6d18 29bb 5057 183a 303f b2ba ce11 d5ba
000000b0: cf02 ddba 05dd 1ab8 4aa8 8fb9 120d 0d3b
000000c0: 95a8 083b 9bc6 8cba a809 89b8 3dfb 7938
000000d0: 3ce2 c939 b65f c1b9 a0f2 bb3a 0ced cfb9
000000e0: 0da6 bdba eedd 42bb 9892 b0ba 8685 283b
000000f0: a4fc 1f3b 3e3d 08bb b0d2 d53a 024a 713a

actor_logit.actor_3.weight f4 [64, 64]
0.15871444 -0.14959002 -0.07969919 0.2808587 -0.105807446 0.17338943 0.04035186 -0.09698089
0.21547061 -0.18730849 -0.13757704 0.223054 0.06971164 -0.0039565773 -0.042114567 -0.2514031
-0.19680883 -0.24074234 0.14988118 0.032071568 -0.10900112 -0.1763218 -0.050646804 0.14831671
-0.18667726 0.04742979 0.12940754 -0.0017180735 -0.19383366 0.1164486 0.053299908 0.0103223985
0.14144403 -0.14637132 -0.2962912 0.12206889 -0.14921059 -0.14017695 0.04918447 -0.31910983
0.10069797 0.08108793 -0.0396458 0.0938342 0.109329276 0.015972814 -0.12711734 -0.33002055
-0.056718726 -0.34123877 -0.38503572 0.22856575 -0.08294512 0.026779706 0.27828863 -0.27539936
0.24970758 -0.22084345 -0.043322753 0.061517425 0.16458589 -0.06425287 0.41860175 -0.1824658
-0.15204419 0.056552697 -0.1909641 -0.20119435 0.15560289 -0.25814253 -0.19541876 0.06900245
0.23558006 -0.08188764 0.06557993 0.0035493353 0.12909596 0.4213868 0.07044979 0.2984735
0.2312351 0.04556044 0.18020661 0.12556496 0.060373854 -0.041674383 0.07180882 -0.04800112
-0.35120475 0.24861565 -0.03290071 -0.036375564 -0.035587057 0.10820166 -0.20738077 0.0077247736
-0.019598754 0.044130288 -0.1990639 0.22827289 -0.30390128 -0.15130498 0.13950276 -0.17180817
0.2746736 0.06924287 0.09584804 0.17223078 0.18861844 0.07242624 0.103846215 0.3923036
-0.2140828 0.086347684 -0.053331517 -0.16295148 -0.36421326 -0.000684028 0.093562715 -0.1325971
-0.14572604 0.092215665 -0.16827354 -0.18804243 -0.114720054 -0.2421051 0.07664208 0.23760189
0.21839118 0.20125961 0.32215443 0.07082145 0.3885701 0.05010123 -0.113881506 -0.341433
0.02055226 -0.16127068 0.08329508 -0.0028056025 0.25649893 -0.25083512 -0.30159283 -0.07318867
-0.07495952 0.100748815 -0.20881294 -0.045276914 0.18647315 0.20524894 0.10150418 0.13080308
0.0048630573 -0.21162659 0.30568913 -0.06511724 -0.2086353 0.113914385 -0.17501155 -0.096718065
-0.14853022 0.17572227 0.00907901 0.1238255 -0.0598379 0.22701354 -0.16682604 -0.3285778
0.041338343 0.08512855 0.39870024 0.0126938615 -0.33720398 0.022715416 -0.07962424 0.06454837
0.046351016 -0.05976164 0.22225249 -0.020366859 -0.18918777 0.19288252 -0.12248032 -0.026380606
-0.122540444 0.21503112 -0.06482503 -0.025602292 -0.0830474 -0.11037349 0.2704934 -0.04720376
0.07276048 0.05547624 0.47406873 -0.14607245 -0.16338107 0.05665033 -0.27549443 0.060660534
0.17039172 -0.15658432 0.18870051 -0.05378684 -0.12859316 0.34195977 0.19697979 0.031383295
0.006030971 0.18299612 0.05022992 -0.05041763 0.082702324 -0.022401066 0.11495754 0.10414941
-0.041995354 0.35527602 -0.10313667 -0.09046192 0.23617539 -0.14345908 -0.07112335 -0.3147335
0.31912094 0.30207562 0.119375244 -0.098164245 0.11890689 -0.12654087 -0.044274278 -0.09825867
-0.06356612 0.23127294 0.07830162 0.08833228 -0.04456649 -0.032423973 -0.17089012 -0.17558393
0.06609102 -0.34800965 0.2626476 0.128685 0.10475671 -0.27307394 -0.21788397 -0.25407207
0.24260795 0.091661826 -0.16346835 0.04635528 -0.034605343 -0.045165606 -0.108568065 -0.2589328
00000000: 0a86 223e 202e 19be 5439 a3bd b6cc 8f3e
00000010: 93b1 d8bd 008d 313e fe47 253d eb9d c6bd
00000020: 54a4 5c3e cccd 3fbe ffe0 0cbe 4568 643e
00000030: fac4 8e3d 2da6 81bb 5380 2cbd e8b7 80be
00000040: 4188 49be 2985 76be 747a 193e 7a5d 033d
00000050: fb3b dfbd b48d 34be 0673 4fbd 56e0 173e
00000060: 5328 3fbe bd45 423d 6983 043e fb30 e1ba
00000070: 557c 46be 9b7c ee3d 0151 5a3d 471f 293c
00000080: b4d6 103e 5de2 15be 7bb3 97be 41ff f93d
00000090: a9ca 18be 8c8a 0fbe a875 493d 5d62 a3be
000000a0: bd3a ce3d 6e11 a63d a263 22bd 252c c03d
000000b0: 07e8 df3d 6bd9 823c 0c2b 02be 74f8 a8be
000000c0: e551 68bd d9b6 aebe 6723 c5be 240d 6a3e
000000d0: 22df a9bd 1d61 db3c d97b 8e3e 2501 8dbe
000000e0: 58b3 7f3e c924 62be 3373 31bd b2f9 7b3d
000000f0: 3489 283e 0297 83bd f852 d63e 51d8 3abe
00000100: 79b1 1bbe cda3 673d 188c 43be e405 4ebe
00000110: 5d56 1f3e 422b 84be db1b 48be 2851 8d3d
00000120: e63b 713e b5b4 a7bd c54e 863d f79b 683b
00000130: bb31 043e 03c0 d73e fb47 903d 85d1 983e
00000140: e5c8 6c3e 959d 3a3d 1588 383e 1a94 003e
00000150: 934a 773d c2b2 2abd 8110 933d d39c 44bd
00000160: 1cd1 b3be 1a95 7e3e e5c2 06bd 8bfe 14bd
00000170: bcc3 11bd d598 dd3d a05b 54be 1920 fd3b
00000180: 918d a0bc f6c1 343d 68d7 4bbe 5ec0 693e
00000190: f398 9bbe b1ef 1abe d0d9 0e3e 7bee 2fbe
000001a0: 05a2 8c3e 35cf 8d3d fa4b c43d 445d 303e
000001b0: 3125 413e 3554 943d 53ad d43d 04dc c83e
000001c0: 8638 5bbe 0ed7 b03d 2672 5abd c1dc 26be
000001d0: 297a babe 5850 33ba cf9d bf3d 89c7 07be
000001e0: 3539 15be 91db bc3d e64f 2cbe 328e 40be
000001f0: 59f2 eabd 66ea 77be 86f6 9c3d e94d 733e
00000200: f0a1 5f3e 0017 4e3e 6df1 a43e d60a 913d
00000210: a9f2 c63e f336 4d3d b53a e9bd 4ed0 aebe
00000220: 375d a83c 2424 25be 9c96 aa3d 33de 37bb
00000230: d453 833e 766d 80be 606a 9abe f1e3 95bd
00000240: 6084 99bd 6555 ce3d 0fd3 55be 4974 39bd
00000250: d1f2 3e3e c72c 523e 6ce1 cf3d 3ef1 053e
00000260: 485a 9f3b a4b4 58be 4983 9c3e 305c 85bd
00000270: 7ea4 55be f24b e93d 3a36 33be 1f14 c6bd
00000280: 4e18 18be 8af0 333e 21c0 143c 3998 fd3d
00000290: 9618 75bd 3d76 683e 72d4 2abe 593b a8be
000002a0: 6552 293d e157 ae3d 7022 cc3e eaf9 4f3c
000002b0: 00a6 acbe ae15 ba3c 0912 a3bd f031 843d
000002c0: 90da 3d3d 9fc8 74bd 2896 633e 66d8 a6bc
000002d0: 70ba 41be ff82 453e f6d6 fabd 241c d8bc
000002e0: 7cf6 fabd 1e31 5c3e fcc2 84bd e6bb d1bc
000002f0: c114 aabd 7f0b e2bd 1c7e 8a3e bb58 41bd
00000300: 7203 953d 0e3b 633d 23b9 f23e 0494 15be
00000310: 5e4d 27be 2d0a 683d 9b0d 8dbe 2e77 783d
00000320: 2b7b 2e3e a457 20be b53a 413e 974f 5cbd
00000330: edad 03be 5a15 af3e 12b5 493e c58b 003d
00000340: 749f c53b 5663 3b3e e3bd 4d3d b782 4ebd
00000350: d65f a93d 7182 b7bc dc6e eb3d 494c d53d
00000360: 5203 2cbd bde6 b53e 5239 d3bd 1944 b9bd
00000370: f6d7 713e f0e6 12be 1ea9 91bd c024 a1be
00000380: d263 a33e a8a9 9a3e 027b f43d 560a c9bd
00000390: 7585 f33d ee93 01be f258 35bd d73b c9bd
000003a0: f42e 82bd d0d2 6c3e 9a5c a03d 8ee7 b43d
000003b0: 5a8b 36bd 00cf 04bd d2fd 2ebe 46cc 33be
000003c0: bb5a 873d 522e b2be bf79 863e 00c6 033e
000003d0: b08a d63d 59d0 8bbe fa1c 5fbe bc15 82be
000003e0: 386e 783e 32b9 bb3d 3f64 27be 09df 3d3d
000003f0: 55be 0dbd 92ff 38bd ef58 debd d792 84be

actor_logit.actor_3.bias f4 [64]
0.0017822358 0.0017302075 0.003147555 0.00040648124 -0.0010719729 0.0016224409 -0.0029490052 0.0032165055
-0.0012325823 0.002363495 -0.001652177 0.0 0.00019791906 0.0021190061 -0.0010233495 -0.0024625226
-0.0010634628 0.0019457656 -0.0010183561 -0.0013613456 -0.002375394 0.0026788767 0.00058091077 -0.00029157568
-0.0020006497 0.0018891264 -0.0011717035 0.0023168428 0.0012332207 -0.0013491076 0.0023375791 0.0011827896
-0.00028212782 -0.0018384886 0.0032279924 0.0020256802 -0.002015935 -0.0034858892 0.00042666623 -0.0025270295
-0.0020507362 0.0020118905 0.0017108945 -0.0003022191 -0.0027814026 0.0023357235 0.0010650592 0.0018356205
-6.879078e-05 0.002246731 0.00028008723 -0.0007327156 0.0006767543 -0.0032310362 -2.302036e-05 0.00083911285
0.0 -0.00059882196 0.0021107702 0.0014211964 -0.0017012901 -0.0018130131 0.0 0.0010519082
00000000: e999 e93a 21c8 e23a 3647 4e3b fd1c d539
00000010: 7181 8cba 15a8 d43a 1944 41bb 02cc 523b
00000020: 998e a1ba dee4 1a3b dc8d d8ba 0000 0000
00000030: 7e88 4f39 06df 0a3b e921 86ba 4662 21bb
00000040: e463 8bba 0f09 ff3a 5c7a 85ba 2e6f b2ba
00000050: 80ac 1bbb 1890 2f3b 4348 183a a0de 98b9
00000060: 551d 03bb 909c f73a d893 99ba 2cd6 173b
00000070: 05a4 a13a 8ad4 b0ba 1232 193b d507 9b3a
00000080: 8eea 93b9 71f9 f0ba ba8c 533b 46c1 043b
00000090: c71d 04bb 8473 64bb 2cb2 df39 859c 25bb
000000a0: a565 06bb ecd9 033b 1840 e03a 2973 9eb9
000000b0: 3148 36bb f012 193b 7599 8b3a 3499 f03a
000000c0: c543 90b8 e43d 133b acd8 9239 b613 40ba
000000d0: 3668 313a cbbf 53bb d91b c1b7 e9f7 5b3a
000000e0: 0000 0000 43fa 1cba d954 0a3b 7047 ba3a
000000f0: d3fd deba a0a2 edba 0000 0000 2fe0 893a

critic_value.critic_1.weight f4 [64, 110]
0.098716676 -0.02004035 0.08047318 0.09738015 -0.10017924 0.27349633 -0.35259834 -0.037362397
-0.001827544 -0.08261463 -0.073472604 0.05825009 -0.19546492 -0.03400094 -0.05684287 0.09602762
0.104255885 -0.0024602446 0.153691 -0.10149828 0.1429264 -0.013866997 -0.110640466 -0.1235504
-0.17880982 -0.07953579 0.14143226 0.14038485 -0.07085734 -0.23244913 -0.2002104 0.034221996
0.008320169 0.009238967 0.07437894 -0.15600519 -0.07709608 -0.26090938 0.031391084 -0.01232477
-0.05001205 0.0404743 0.12890908 0.21389018 0.046730354 0.08826961 0.19533733 0.4552004
0.2249139 0.0441876 -0.22308789 -0.08129024 0.0807085 -0.14965174 -0.07856713 -0.08058099
-0.06262266 0.080018856 0.12690729 0.2501907 0.066001266 0.03149478 -0.03437357 0.075129494
-0.010263656 0.12578306 -0.26372874 -0.058927037 -0.21041076 0.11432516 0.1387257 0.1546686
-0.005325171 -0.00026259813 -0.011172679 -0.0975022 0.1708127 0.033800088 -0.1716808 -0.14750473
-0.046414934 0.15666099 0.121355936 0.14749487 0.014829327 0.07128316 0.16211677 -0.1775074
-0.010699634 -0.031310268 0.3132174 0.16304515 0.22523178 0.20914145 0.0535881 0.0063728713
-0.1640281 0.041312885 0.13454707 -0.02886763 -0.02574494 -0.034537993 0.03990386 -0.061117187
0.03250097 -0.11169587 0.0043957713 -0.22083244 -0.027420882 0.008277921 0.30459747 0.12265614
-0.015167847 0.12525289 0.06553494 0.024579007 -0.12057359 0.047149323 0.106223114 0.08596543
-0.087866016 -0.1890825 -0.056219332 0.17860411 -0.1448891 -0.09891464 0.01690739 0.25165063
-0.057322673 -0.05758546 0.059102423 -0.15148684 0.1239474 0.038714737 0.112462334 0.037474837
0.02406795 -0.07312824 0.08178196 -0.0037671719 0.0906744 -0.12129969 0.26067173 0.16132854
0.2202668 0.07585524 -0.029940214 0.10237903 -0.23579454 -0.049661037 -0.28575623 -0.27421615
-0.10541165 0.041923635 -0.021807652 0.22068663 -0.041308444 0.031432528 0.081523634 -0.046127632
0.09244036 0.0073250076 0.022846935 0.10735147 0.071146384 -0.08125925 -0.25676516 0.19244209
-0.063793674 -0.023404561 0.16089217 -0.27876824 -0.17574075 -0.173838 -0.13561523 -0.23100372
-0.22334526 -0.16073935 0.044516843 0.066434324 -0.13652264 -0.21869624 -0.05498548 -0.20912074
0.08319621 -0.098194316 0.049787413 -0.04567054 -0.20350443 -0.06500357 0.16686141 -0.17734426
-0.024465397 0.09794367 0.14366142 0.21175459 0.032351486 0.039456155 -0.009209288 -0.05486916
0.07142475 0.09234768 -0.18196581 -0.07272618 0.2026569 -0.12217431 0.026701046 0.109829456
-0.0056398516 0.3202305 -0.03557784 0.059117276 0.119952165 0.0656633 0.20875499 0.14256813
0.12722202 0.056653067 0.03310634 0.107397184 0.110278696 -0.29212734 -0.08412051 -0.09490449
0.22178955 0.22922009 0.021885218 0.06816264 0.05181633 0.04187025 -0.31216183 -0.1721142
-0.016667062 0.2621888 -0.0027186284 -0.014368105 -0.0028937284 -0.053768575 0.09194201 0.09874466
0.0642136 0.15478627 -0.15453124 0.00013929099 -0.060362812 -0.05628879 0.024836916 -0.08478191
0.20860247 0.22366914 0.012171359 -0.0023128255 0.1269028 -0.32969162 -0.0036111353 -0.19776252
00000000: f82b ca3d a92b a4bc 1fcf a43d 3e6f c73d
00000010: c62a cdbd b607 8c3e c587 b4be 5009 19bd
00000020: 338a efba dc31 a9bd ce78 96bd a597 6e3d
00000030: f527 48be 9244 0bbd 12d4 68bd 21aa c43d
00000040: 1c84 d53d 0e3c 21bb 2c61 1d3e 55de cfbd
00000050: 4c5b 123e 6732 63bc 7897 e2bd fe07 fdbd
00000060: ec19 37be a9e3 a2bd 9ed3 103e 0cc1 0f3e
00000070: a71d 91bd 2507 6ebe f503 4dbe 5d2c 0c3d
00000080: 5151 083c 095f 173c fc53 983d d3bf 1fbe
00000090: 8de4 9dbd ea95 85be f093 003d d5ed 49bc
000000a0: 6fd9 4cbd 61c8 253d be00 043e 0706 5b3e
000000b0: 5468 3f3d b3c6 b43d 8206 483e 0710 e93e
000000c0: d44f 663e 0ffe 343d 2771 64be 7f7b a6bd
000000d0: 804a a53d 4e3e 19be cee7 a0bd a507 a5bd
000000e0: 4f40 80bd ede0 a33d fcf3 013e ff18 803e
000000f0: ac2b 873d ac00 013d 4dcb 0cbd 7edd 993d
00000100: e528 28bc 46cd 003e 7407 87be 7a5d 71bd
00000110: eb75 57be 4f23 ea3d 1c0e 0e3e 7261 1e3e
00000120: c67e aebb 53ad 89b9 9d0d 37bc 3caf c7bd
00000130: 86e9 2e3e f671 0a3d 17cd 2fbe 7b0b 17be
00000140: 961d 3ebd bd6b 203e 7689 f83d e508 173e
00000150: b5f6 723c e8fc 913d f001 263e 80c4 35be
00000160: 854d 2fbc 323f 00bd 085e a03e 4ff5 263e
00000170: 29a3 663e 2d29 563e 327f 5b3d 85d3 d03b
00000180: fbf6 27be b337 293d b5c6 093e cf7b ecbc
00000190: 0de7 d2bc b677 0dbd 3b72 233d 0456 7abd
000001a0: bd1f 053d cec0 e4bd 670a 903b e621 62be
000001b0: c2a1 e0bc 1ea0 073c 33f4 9b3e 2433 fb3d
000001c0: 9082 78bc 4b42 003e 2f37 863d ea59 c93c
000001d0: 49ef f6bd a61f 413d 818b d93d a50e b03d
000001e0: 19f3 b3bd d89e 41be 3e46 66bd ffe3 363e
000001f0: cf5d 14be c293 cabd 5e81 8a3c 5ad8 803e
00000200: 2ecb 6abd bbde 6bbd 6215 723d 5e1f 1bbe
00000210: 22d8 fd3d 5893 1e3d a752 e63d 377f 193d
00000220: 262a c53c 42c4 95bd 4d7d a73d a8e2 76bb
00000230: 80b3 b93d f96b f8bd c476 853e 4f33 253e
00000240: 9f8d 613e fe59 9b3d 2e45 f5bc 19ac d13d
00000250: 2074 71be 5f69 4bbd a44e 92be 0f66 8cbe
00000260: 10e2 d7bd 1eb8 2b3d f6a5 b2bc adfb 613e
00000270: 0b33 29bd 65bf 003d ddf5 a63d 54f0 3cbd
00000280: 5f51 bd3d 9e06 f03b 7f29 bb3c 16db db3d
00000290: 32b5 913d 406b a6bd b976 83be 8a0f 453e
000002a0: 42a6 82bd ecba bfbc ebc0 243e b6ba 8ebe
000002b0: 62f5 33be 9702 32be b8de 0abe 3d8c 6cbe
000002c0: 9fb4 64be db98 24be 4b57 363d b80e 883d
000002d0: 97cc 0bbe e8f1 5fbe 7438 61bd bf23 56be
000002e0: c662 aa3d 1a1a c9bd e3ed 4b3d 0811 3bbd
000002f0: 7763 50be 9720 85bd b8dd 2a3e bc99 35be
00000300: a86b c8bc b196 c83d fb1b 133e 32d6 583e
00000310: fe82 043d c79c 213d 8ee2 16bc 7cbe 60bd
00000320: 2447 923d c820 bd3d 3f55 3abe 77f1 94bd
00000330: 4a85 4f3e 8636 fabd 27bc da3c 44ee e03d
00000340: 81ce b8bb 41f5 a33e 12ba 11bd f524 723d
00000350: 7ba9 f53d 7b7a 863d dec3 553e 61fd 113e
00000360: 7d46 023e 0c0d 683d 839a 073d 0ef3 db3d
00000370: ccd9 e13d b791 95be 6047 acbd 495d c2bd
00000380: cd1c 633e acb8 6a3e a148 b33c db98 8b3d
00000390: 5c3d 543d 2480 2b3d add3 9fbe b43e 30be
000003a0: 5d89 88bc 9c3d 863e 042b 32bb 3368 6bbc
000003b0: b5a4 3dbb 703c 5cbd 184c bc3d a43a ca3d
000003c0: 6b82 833d 4b80 1e3e 703d 1ebe a40e 1239
000003d0: ff3e 77bd 138f 66bd ca76 cb3c 23a2 adbd
000003e0: e39b 553e 8609 653e 616a 473c c692 17bb
000003f0: cff2 013e 57cd a8be cca8 6cbb 4282 4abe

critic_value.critic_1.bias f4 [64]
0.0040973136 0.0041974774 -0.0035883745 0.003876848 0.0039810985 -0.003814217 -0.0024951685 0.004015849
0.0043187393 -0.0038704562 7.520755e-05 0.0040205535 0.0040263743 0.0040633436 0.0040703584 0.004327293
-0.0037708585 -0.0039537745 -0.003941773 -0.0026860386 0.0044610472 0.0040309047 0.0041533783 -0.0035418847
-0.0029880372 0.003988204 -0.0040428783 -0.003787942 0.0042413017 0.003956199 -0.0040663853 0.0042431303
-0.0039541824 0.0025839242 0.0024632518 0.0042236936 0.0042576753 -0.0035584704 -0.0028392323 -0.0032961795
0.0026759817 -0.0036602432 -0.0039827204 -0.0038851441 -0.004124901 -0.0035503525 0.004005748 0.0038816147
-0.0035358518 -0.0033304687 -0.0038505609 -0.00064275775 0.0010431049 -0.0038788398 -0.0037640494 0.004194305
-0.003541334 0.003939389 0.0038665729 -0.0036341767 -0.0034933893 -0.001953576 0.0041116355 -0.0039358563
00000000: c242 863b fe8a 893b ef2a 6bbb b712 7e3b
00000010: e073 823b f1f7 79bb fb85 23bb 6297 833b
00000020: 3684 8d3b 7ba7 7dbb bfb8 9d38 d9be 833b
00000030: adef 833b cc25 853b a460 853b f7cb 8d3b
00000040: 8220 77bb aa8e 81bb fd29 81bb 4008 30bb
00000050: fa2d 923b ae15 843b 1019 883b f71e 68bb
00000060: f2d2 43bb 7baf 823b 1f7a 84bb 1f3f 78bb
00000070: 9efa 8a3b 01a3 813b 503f 85bb f509 8b3b
00000080: 1692 81bb 0e57 293b 826e 213b e966 8a3b
00000090: f883 8b3b 3a35 69bb 6a12 3abb b704 58bb
000000a0: 865f 2f3b b1e0 6fbb 7b81 82bb e79d 7ebb
000000b0: 2d2a 87bb 08ad 68bb a642 833b b062 7e3b
000000c0: c0b9 67bb fe43 5abb b159 7cbb be7e 28ba
000000d0: cbb8 883a 2234 7ebb 45ae 76bb 6170 893b
000000e0: ba15 68bb fd15 813b 5466 7d3b 5e2b 6ebb
000000f0: 59f1 64bb 9107 00bb e6ba 863b 5bf8 80bb

critic_value.critic_2.weight f4 [64, 64]
0.049443457 -0.19088902 -0.10747908 0.0031115701 0.0593761 -0.14120446 0.061333127 -0.05886839
-0.18721913 -0.0010608361 -0.24682444 0.20649613 0.094109505 -0.260865 -0.25140625 0.0894549
-0.39945227 -0.077922165 -0.20448056 0.28090975 -0.06579425 -0.20762639 -0.049051598 0.094104595
0.20470347 0.090807386 0.05198217 0.29497525 0.12389966 -0.2637729 -0.08962288 -0.12765151
-0.1691855 0.44955844 0.021514542 -0.27845323 0.111169584 0.09481151 -0.06437318 -0.123092875
-0.35343197 -0.06143249 -0.05548893 -0.054481775 -0.24246842 -0.26889703 0.08242458 -0.16049741
0.15127163 0.11925166 0.1810508 0.07192212 0.039393846 -0.27162758 -0.15370272 -0.0069492934
-0.008991482 0.20814662 0.02947024 0.21447001 -0.19927767 -0.14571242 -0.2535181 0.025649182
0.21742195 -0.09749775 0.15967922 0.018094392 0.059112612 0.045273166 -0.04111431 0.3445493
-0.10065882 0.2681408 0.061354086 -0.26054013 -0.038816273 -0.11874273 -0.08940559 0.0006233249
0.17860419 -0.032804765 0.26640016 0.12248248 0.47027677 -0.3162398 0.038177058 0.36250293
-0.12799026 0.13905406 0.30594167 -0.23734935 0.10138332 0.06344525 0.0777643 0.22125998
-0.20610924 0.058593124 -0.117450066 0.04142254 0.10502729 0.052168824 -0.0632952 0.042350773
0.04450881 0.10442011 -0.12352211 -0.00776503 -0.2260862 -0.065275945 -0.2682163 0.12790348
-0.055610716 0.33015364 -0.05159255 -0.13246553 -0.491492 -0.12793362 -0.005876714 -0.060813446
0.050838646 0.24789456 -0.1133914 0.1280383 -0.085834615 0.1007421 0.17729472 -0.04792353
0.17537981 0.03456663 -0.11849465 -0.2462647 0.26461294 0.30057648 0.16146891 0.33363926
0.04099345 0.20872825 -0.27510878 0.2505602 -0.042654928 -0.09412443 0.13581555 -0.016721988
0.15237893 0.028752234 0.054185815 0.101624005 0.09681805 0.09900753 0.033442006 -0.12315367
-0.25966656 0.06036948 -0.010915558 -0.07277942 0.053613927 -0.0988666 0.1941223 -0.074345194
-0.12968521 0.033060733 0.08331339 -0.027854443 0.109756134 0.10511431 0.28958178 0.029009799
0.066054344 -0.14542085 0.0854184 0.1692059 -0.120272025 -0.001641934 0.24300446 -0.34754634
-0.09688091 -0.1983025 -0.3085999 0.016072871 0.30088925 0.18156603 0.20353892 -0.23320669
0.06254196 0.22851296 -0.14488097 -0.08971808 -0.26617578 -0.3258277 0.11415606 -0.3949649
-0.27178174 0.16563968 -0.19580548 0.10047996 0.06951279 -0.26207286 -0.12370197 0.30632418
0.18479839 0.06267316 0.021732789 0.06943853 -0.08706197 0.17871006 0.122991875 -0.28826764
-0.02799913 -0.19574209 0.33431405 -0.1434353 -0.27894104 -0.006126839 -0.5500365 0.29741326
-0.05963978 -0.06716949 0.21030973 -0.17918143 -0.040050395 0.012276199 0.17244516 -0.238116
-0.26606813 0.039914507 -0.037370495 -0.08725642 -0.136647 0.018135568 0.103121124 -0.09608097
-0.13966891 0.19207466 -0.03883706 0.30175692 -0.19388045 -0.020367175 -0.008301244 -0.0066169784
-0.08230866 0.19277368 0.17313334 -0.0034898322 0.26875663 0.20957316 -0.3007478 0.07086102
-0.052247662 0.04712562 0.006251514 -0.020439235 0.20957024 -0.009289474 -0.16622943 -0.036120217
00000000: 3985 4a3d 6978 43be fe1d dcbd 7ceb 4b3b
00000010: 5a34 733d e797 10be 7238 7b3d fb1f 71bd
00000020: 5fb6 3fbe c10b 8bba 8cbf 7cbe b973 533e
00000030: 7cbc c03d 1990 85be 52b8 80be 2134 b73d
00000040: 0285 ccbe a895 9fbd 5a63 51be 67d3 8f3e
00000050: 23bf 86bd 039c 54be 54ea 48bd e9b9 c03d
00000060: c99d 513e 39f9 b93d 42eb 543d ff06 973e
00000070: 1bbf fd3d 3e0d 87be 338c b7bd 14b7 02be
00000080: f73e 2dbe 862c e63e 443f b03c 6c91 8ebe
00000090: e1ac e33d 892c c23d 16d6 83bd 1e18 fcbd
000000a0: 09f5 b4be a2a0 7bbd 5c48 63bd 4828 5fbd
000000b0: a449 78be dfac 89be 38ce a83d 6f59 24be
000000c0: f3e6 1a3e 373a f43d 6265 393e e84b 933d
000000d0: 715b 213d c512 8bbe 3f64 1dbe e6b6 e3bb
000000e0: 0251 13bc 6324 553e 936b f13c 079e 5b3e
000000f0: 720f 4cbe a335 15be 20cd 81be 3c1e d23c
00000100: dca3 5e3e e6ac c7bd f382 233e b13a 943c
00000110: 1120 723d 5b70 393d 7b67 28bd c468 b03e
00000120: 3626 cebd c049 893e 6c4e 7b3d 8465 85be
00000130: d0fd 1ebd 632f f3bd 471a b7bd a066 233a
00000140: 04e4 363e 4a5e 06bd 9a65 883e 18d8 fa3d
00000150: 1ec8 f03e 2fea a1be 8c5f 1c3d fc99 b93e
00000160: e10f 03be 3064 0e3e 63a4 9c3e b50b 73be
00000170: 0fa2 cf3d 95ef 813d e442 9f3d fa91 623e
00000180: 4d0e 53be 58ff 6f3d a989 f0bd aeaa 293d
00000190: 8c18 d73d faae 553d eaa0 81bd 0178 2d3d
000001a0: df4e 363d 36da d53d 29f9 fcbd cb71 febb
000001b0: 2483 67be 65af 85bd a653 89be 21f9 023e
000001c0: 10c8 63bd e609 a93e b652 53bd 0ba5 07be
000001d0: d7a4 fbbe 0801 03be 7391 c0bb 8517 79bd
000001e0: 2f3c 503d 12d8 7d3e c039 e8bd 791c 033e
000001f0: 0fca afbd e051 ce3d bf8c 353e 774b 44bd
00000200: c496 333e bd95 0d3d 53ad f2bd d02c 7cbe
00000210: 597b 873e 29e5 993e 1b58 253e c4d2 aa3e
00000220: bfe8 273d dcbc 553e 0fdb 8cbe 6d49 803e
00000230: efb6 2ebd 4fc4 c0bd 3b13 0b3e 8dfc 88bc
00000240: 3909 1c3e ce89 eb3c f2f1 5d3d 3f20 d03d
00000250: 8b48 c63d 76c4 ca3d 7cfa 083d fe37 fcbd
00000260: 04f3 84be fd45 773d 2bd7 32bc 600d 95bd
00000270: 479a 5b3d 927a cabd ffc7 463e 4b42 98bd
00000280: 33cc 04be b16a 073d 36a0 aa3d 002f e4bc
00000290: d3c7 e03d 2c46 d73d 1044 943e f5a5 ed3c
000002a0: 8047 873d 34e9 14be d8ef ae3d 5044 2d3e
000002b0: 2e51 f6bd 2a36 d7ba 29d6 783e 98f1 b1be
000002c0: 8069 c6bd d00f 4bbe ce00 9ebe 41ab 833c
000002d0: 280e 9a3e 72ec 393e 826c 503e bccd 6ebe
000002e0: 0016 803d 4dff 693e ad5b 14be 1dbe b7bd
000002f0: 3148 88be e3d2 a6be a7ca e93d d738 cabe
00000300: fa26 8bbe 739d 293e 3b81 48be 70c8 cd3d
00000310: b95c 8e3d 6a2e 86be 7557 fdbd 86d6 9c3e
00000320: ca3b 3d3e c95a 803d f608 b23c ca35 8e3d
00000330: 8c4d b2bd c5ff 363e 2ae3 fb3d d197 93be
00000340: 6e5e e5bc 9d70 48be 362b ab3e b4e0 12be
00000350: 5cd1 8ebe a7c3 c8bb 31cf 0cbf 8d46 983e
00000360: d848 74bd 2890 89bd 6f5b 573e 567b 37be
00000370: e20b 24bd 1c22 493c 7795 303e aed4 73be
00000380: 153a 88be 657d 233d ce11 19bd 7eb3 b2bd
00000390: 31ed 0bbe 0b91 943c 2b31 d33d 19c6 c4bd
000003a0: 5e05 0fbe 38af 443e 9c13 1fbd e27f 9a3e
000003b0: 9988 46be 10d9 a6bc f101 08bc 3dd3 d8bb
000003c0: 7191 a8bd 7766 453e de49 313e abb5 64bb
000003d0: 789a 893e 599a 563e 9efb 99be 951f 913d
000003e0: a501 56bd cb06 413d 80d9 cc3b 2f70 a7bc
000003f0: 9599 563e e132 18bc 0c38 2abe cbf2 13bd

critic_value.critic_2.bias f4 [64]
0.0 0.0036850825 0.004000475 -0.0038099736 -0.003946927 -0.003936661 -0.0025823948 0.0
-0.0039132736 0.0039251707 0.0038952725 -0.003652453 0.004089352 0.0040555308 -0.0028957094 -0.0036683707
0.0038726465 0.003401073 0.0042347712 -0.00085885584 -0.003915055 0.004224562 -1.0022258e-05 0.0037874246
0.003982346 -0.0032201884 0.00409515 0.0 0.0040883617 -0.0039555333 0.0 -0.003976125
0.004042369 0.0042219977 -0.0038014676 0.0038314962 -0.0041190414 0.0043275044 0.0041297693 -0.00016914085
-0.003317371 0.0038839947 0.0040799747 0.0038365538 -0.0036591978 0.0040735924 0.0037512314 0.004121407
0.0040738503 -0.0035390006 -0.0038152786 0.0041818502 -0.0024714246 0.0 0.004076196 0.003799519
-0.0039461763 0.0041183447 -0.0018962531 0.0037304538 -0.00037598234 0.004151076 0.00397344 0.0041259583
00000000: 0000 0000 6d81 713b 6b16 833b c0b0 79bb
00000010: 3955 81bb 1bff 80bb 653d 29bb 0000 0000
00000020: eb3a 80bb b89e 803b d447 7f3b fe5d 6fbb
00000030: f9ff 853b 42e4 843b f1c5 3dbb 0c69 70bb
00000040: 3acc 7d3b 89e4 5e3b d6c3 8a3b d724 61ba
00000050: dd49 80bb 326e 8a3b 4525 28b7 7136 783b
00000060: 577e 823b cc09 53bb 9c30 863b 0000 0000
00000070: aaf7 853b 6b9d 81bb 0000 0000 274a 82bb
00000080: d975 843b af58 8a3b 0b22 79bb d719 7b3b
00000090: 06f9 86bb bdcd 8d3b 0453 873b 675b 31b9
000000a0: 4068 59bb 9e8a 7e3b 4fb1 853b b16e 7b3b
000000b0: 27cf 6fbb c57b 853b 38d7 753b de0c 873b
000000c0: ef7d 853b 94ee 67bb c109 7abb e707 893b
000000d0: a0f7 21bb 0000 0000 9c91 853b 5a01 793b
000000e0: ed4e 81bb 2ef3 863b b28b f8ba a17a 743b
000000f0: 7f1f c5b9 c005 883b a133 823b 0c33 873b

critic_value.critic_3.weight f4 [64, 64]
0.4305353 0.019084347 -0.09318637 0.10972559 0.01596846 -0.32466692 -0.07071551 -0.036777474
0.030612387 0.235415 0.0962517 0.0139879435 -0.18084602 0.20086125 -0.113212526 -0.18354262
0.043281 -0.37959662 0.18898699 0.26610678 0.13987729 -0.10933934 -0.03366354 0.020051457
0.17482981 0.1972773 -0.10246297 -0.31968802 -0.04391352 -0.14764023 0.02079202 -0.25114548
0.20556031 0.11036601 0.06208711 -0.009753281 -0.24072738 0.27754942 -0.23067068 0.07404546
-0.012878018 -0.18459186 0.24379465 0.23294158 0.07398523 0.025494644 -0.032996286 0.26022208
-0.002451788 -0.21829085 -0.25356856 0.22602361 0.30754584 -0.00096114207 -0.22866799 -0.17910732
-0.043236457 0.15725535 0.020470656 -0.19425964 -0.09266093 0.18495815 -0.095797144 0.095206365
-0.074236825 -0.047234617 -0.042408895 -0.19035861 0.03676559 -0.21412946 0.17311129 -0.019089613
0.17905141 -0.14391842 0.012435336 0.02694201 -0.06812797 -0.082465984 0.16074435 0.11269164
-0.038529713 0.13149467 0.03404726 -0.23622893 0.1718928 -0.13927965 0.04539638 -0.13857652
0.14430799 -0.028031878 -0.11665056 0.08590838 -0.17098843 -0.1727354 -0.46281934 -0.048349217
0.19040176 0.03596829 0.08329234 -0.19868961 -0.06540537 0.036720287 -0.2431935 -0.14056186
0.4579129 -0.215446 0.06314098 0.10339782 -0.051765118 0.6054093 0.31673816 -0.111822926
0.14997208 0.074596174 -0.125819 -0.09262432 0.060138784 -0.45446876 0.24091437 -0.060290482
0.019771356 0.14340806 0.031347074 0.16956465 0.07038808 -0.07305213 -0.017516514 -0.023328492
0.017443527 -0.10257653 0.013400021 -0.22093885 -0.28909534 0.06613613 0.11894117 0.20684096
0.016456416 -0.22951694 0.14679193 -0.21667984 0.0026673682 0.08301235 0.12810545 0.14105202
0.44165134 -0.18819414 -0.11580926 0.20062901 -0.21797095 0.26563868 -0.029264426 -0.105360866
0.32098976 0.33540612 0.32590222 0.017151682 0.058410008 0.20669098 0.09749156 0.13505016
0.041708868 -0.21073155 -0.1023322 -0.20598173 -0.07912614 -0.27152213 -0.24610479 -0.11820517
-0.15533178 0.17977951 0.20107585 -0.03272821 0.09999675 0.08099637 0.24182336 0.1942138
0.057446145 -0.13995346 0.21420504 0.021854838 0.13386314 -0.085728206 0.04553165 -0.12000739
0.11969745 0.03206945 0.14428113 -0.087342225 0.38752607 0.16718554 0.064166814 -0.16753435
0.112927124 -0.020955754 -0.054055754 -0.11824381 -0.13016385 0.108435676 0.09757953 0.09979647
0.002263469 0.2230646 -0.27071354 -0.13096678 -0.15091527 -0.0547428 -0.18283148 0.15485899
0.3177097 -0.06421366 0.18785697 -0.07435791 -0.27896315 -0.278497 0.14721037 0.32373643
0.031158635 0.1653309 0.09254412 0.22333623 0.3229785 0.061933883 -0.19030063 -0.21909617
0.19664815 -0.16216457 0.2450513 0.18371552 0.43819377 0.107622005 0.0005903244 -0.0026749154
0.09247234 -0.0288428 0.117250204 -0.13430883 0.31886527 -0.043505043 -0.1724643 0.05822933
-0.05935925 0.114746064 -0.031878747 -0.031051258 0.14742339 0.0821158 0.08781529 0.057851825
-0.15159827 0.14924306 0.18984091 0.5332306 -0.11351376 0.0062958254 -0.15914047 -0.027196037
00000000: 1f6f dc3e c756 9c3c 7fd8 bebd cfb7 e03d
00000010: 4ad0 823c be3a a6be 4bd3 90bd faa3 16bd
00000020: d4c6 fa3c a110 713e 9c1f c53d b02d 653c
00000030: b32f 39be 92ae 4d3e f8db e7bd 99f2 3bbe
00000040: 6b47 313d 7d5a c2be ce85 413e 263f 883e
00000050: fe3b 0f3e 4eed dfbd c8e2 09bd f442 a43c
00000060: 9606 333e 0f03 4a3e 1bd8 d1bd 26ae a3be
00000070: aade 33bd 002f 17be 0754 aa3c 2496 80be
00000080: 677e 523e 9307 e23d 0e4f 7e3d 3acc 1fbc
00000090: 3d81 76be f51a 8e3e ef34 6cbe 25a5 973d
000000a0: 53fe 52bc a605 3dbe 4ea5 793e 3d88 6e3e
000000b0: 9185 973d 25da d03c 1d27 07bd d43b 853e
000000c0: 2dae 20bb a387 5fbe bdd3 81be bc72 673e
000000d0: a676 9d3e 27f5 7bba f127 6abe e967 37be
000000e0: b618 31bd 8c07 213e 14b2 a73c 00ec 46be
000000f0: 03c5 bdbd ab65 3d3e 4b31 c4bd 8efb c23d
00000100: 7a09 98bd 1679 41bd f3b4 2dbd 5eed 42be
00000110: 8497 163d c144 5bbe 1644 313e d261 9cbc
00000120: 4159 373e 5a5f 13be 94bd 4b3c 7db5 dc3c
00000130: ad86 8bbd ede3 a8bd 2b9a 243e e0ca e63d
00000140: 55d1 1dbd 8aa6 063e 2475 0b3d ffe5 71be
00000150: ab04 303e 539f 0ebe 8ef1 393d 01e7 0dbe
00000160: 79c5 133e 1ca3 e5bc 7de6 eebd bcf0 af3d
00000170: 9717 2fbe 8ce1 30be a8f6 ecbe d409 46bd
00000180: aef8 423e 7c53 133d 2d95 aa3d 4a75 4bbe
00000190: 40f3 85bd 0368 163d b807 79be 73ef 0fbe
000001a0: 8f73 ea3e e09d 5cbe 0f50 813d 3cc2 d33d
000001b0: a907 54bd 1bfc 1a3f 812b a23e 6b03 e5bd
000001c0: 4892 193e e1c5 983d b2d6 00be d2b1 bdbd
000001d0: 1654 763d 21b0 e8be 42b2 763e 27f3 76bd
000001e0: 8af7 a13c 90d9 123e ca65 003d 5ba2 2d3e
000001f0: a027 903d 5b9c 95bd cb7e 8fbc 651b bfbc
00000200: bae5 8e3c a513 d2bd c38b 5b3c cb3d 62be
00000210: 4e04 94be 6172 873d 6e97 f33d 1ece 533e
00000220: 9bcf 863c 7d06 6bbe a050 163e 52e1 5dbe
00000230: 03cf 2e3b 6102 aa3d 132e 033e f16f 103e
00000240: 2020 e23e f7b5 40be 682d edbd b171 4d3e
00000250: c733 5fbe cb01 883e f3bb efbc 70c7 d7bd
00000260: c558 a43e 5aba ab3e a8dc a63e af81 8c3c
00000270: 553f 6f3d cda6 533e a8a9 c73d 974a 0a3e
00000280: ebd6 2a3d 03ca 57be 8b93 d1bd e0ec 52be
00000290: e30c a2bd f304 8bbe e502 7cbe 8d15 f2bd
000002a0: 4b0f 1fbe 1f18 383e d4e6 4d3e 040e 06bd
000002b0: 19cb cc3d 6de1 a53d 8ba0 773e fbdf 463e
000002c0: a64c 6b3d f64f 0fbe 9158 5b3e eb08 b33c
000002d0: 6b13 093e 4592 afbd 657f 3a3d 6fc6 f5bd
000002e0: f023 f53d 415b 033d 6fbe 133e 7be0 b2bd
000002f0: d169 c63e b032 2b3e e469 833d 208e 2bbe
00000300: 5646 e73d 67ab abbc 9169 5dbd d029 f2bd
00000310: ac49 05be 8613 de3d c7d7 c73d 1762 cc3d
00000320: b556 143b 0c6b 643e f79a 8abe 281c 06be
00000330: 8889 1abe fc39 60bd 2d38 3bbe 5b93 1e3e
00000340: d9aa a23e 7482 83bd 945d 403e f648 98bd
00000350: 42d4 8ebe 2997 8ebe 51be 163e c8c0 a53e
00000360: 6540 ff3c 814c 293e c687 bd3d 41b2 643e
00000370: 705d a53e 62ae 7d3d 2bde 42be bf5a 60be
00000380: 225e 493e 780e 26be baee 7a3e ec1f 3c3e
00000390: ef5a e03e ed68 dc3d 00c0 1a3a a24d 2fbb
000003a0: 2362 bd3d bc47 ecbc e020 f03d 4188 09be
000003b0: 4f42 a33e 5832 32bd 7b9a 30be e181 6e3d
000003c0: af22 73bd fcff ea3d 4a93 02bd 355f febc
000003d0: 28f6 163e 542c a83d 81d8 b33d 09f6 6c3d
000003e0: 943c 1bbe 2cd3 183e a865 423e cd81 083f
000003f0: e779 e8bd 364d ce3b b8f5 22be 39ca debc

critic_value.critic_3.bias f4 [64]
0.0042584417 -0.0024957196 0.004187422 0.004188431 0.0 0.0042673172 -0.0038278643 0.0041753724
0.0039567202 -0.0037691498 0.0044596023 0.003917454 -0.0037204332 -0.0037702278 -0.0028849721 0.0040402785
0.0043175183 -0.0038462824 -0.0034281919 0.0 -0.0024849703 -0.003854727 -0.0039364626 0.0041295714
0.0 0.003998898 0.003951858 0.0039684987 -0.0038898916 -0.004004281 0.003888457 0.0039184405
-0.003954599 0.0040159347 0.0040530474 0.0039975964 0.003979212 -0.0039193765 0.0029053218 0.0040038163
0.0033894575 -0.0039445073 0.0030054967 -0.003555284 0.004027191 0.0041004526 -0.0037705784 -0.0038721738
0.004135877 0.0042273803 0.004041013 0.004007509 0.0040858923 0.004032014 -6.342082e-05 -0.003982043
0.0039943745 0.004005717 0.0039381715 0.003890779 -0.003964224 0.0039892416 0.0 -0.0035469262
00000000: 668a 8b3b 3a8f 23bb a436 893b 1b3f 893b
00000010: 0000 0000 dad4 8b3b e8dc 7abb 90d1 883b
00000020: 60a7 813b d703 77bb db21 923b fc5d 803b
00000030: 83d2 73bb ed15 77bb cd11 3dbb 5064 843b
00000040: f879 8d3b e911 7cbb 84ab 60bb 0000 0000
00000050: e2da 22bb 969f 7cbb 71fd 80bb 5b51 873b
00000060: 0000 0000 3009 833b 967e 813b 2e0a 823b
00000070: 8ded 7ebb 5836 83bb 7cd5 7e3b 4366 803b
00000080: 9595 81bb 1a98 833b 6dcf 843b 45fe 823b
00000090: 0d64 823b 1d6e 80bb 3667 3e3b 7232 833b
000000a0: a921 5e3b ed40 81bb def7 443b c5ff 68bb
000000b0: 87f6 833b 175d 863b cf1b 77bb 4cc4 7dbb
000000c0: 4086 873b d685 8a3b 796a 843b 6c51 833b
000000d0: f3e2 853b fc1e 843b cb00 85b8 cc7b 82bb
000000e0: 3ee3 823b 6442 833b c70b 813b 71fc 7e3b
000000f0: 52e6 81bb 2fb8 823b 0000 0000 8c73 68bb

critic_value.critic_output.weight f4 [1, 64]
-0.26820037 -0.048126243 -0.07482946 -0.15473263 -0.033044927 -0.035423767 0.123749115 -0.081240855
-0.24284571 0.25554508 -0.056875277 0.15626332 0.13107467 0.17697547 0.013112855 -0.027688285
-0.19459899 0.034187406 0.023316229 0.09462922 0.2695432 0.2299853 0.06305193 -0.043704133
-0.06910623 -0.092578694 -0.4774669 -0.09692195 0.13562411 0.28700575 -0.11186283 -0.33122933
0.20879911 -0.043476716 -0.029008554 -0.072398394 -0.13960516 0.25897914 0.029660383 -0.04082741
-0.027364409 0.32517597 -0.15600185 0.26789406 -0.04072008 -0.1098168 0.22092894 0.1325414
-0.07312883 -0.30911866 -0.027012648 -0.037837274 -0.24164504 -0.04624204 -0.29133216 0.10569674
-0.1104276 -0.06270115 -0.33966598 -0.17904179 0.15419526 -0.38699663 0.11802423 0.039855912
00000000: 8f51 89be 0620 45bd 3040 99bd 3b72 1ebe
00000010: 1e5a 07bd 8318 11bd 2d70 fd3d 9b61 a6bd
00000020: 8cac 78be ced6 823e 0df6 68bd 7e03 203e
00000030: 7038 063e 0f39 353e 4dd7 563c 8bd2 e2bc
00000040: f544 47be 1808 0c3d ad01 bf3c f7cc c13d
00000050: 9101 8a3e 4481 6b3e 5f21 813d 1b03 33bd
00000060: 9187 8dbd e699 bdbd 8b76 f4be 047f c6bd
00000070: 0ce1 0a3e 6bf2 923e 5718 e5bd e496 a9be
00000080: 6fcf 553e a414 32bd 59a3 edbc 9c45 94bd
00000090: a8f4 0ebe ea98 843e 55fa f23c a43a 27bd
000000a0: 532b e0bc 777d a63e f3be 1fbe 6929 893e
000000b0: 19ca 26bd a1e7 e0bd 323b 623e efb8 073e
000000c0: 91c4 95bd cd44 9ebe a149 ddbc 42fb 1abd
000000d0: cc71 77be 4b68 3dbd 7d29 95be 8877 d83d
000000e0: de27 e2bd 7669 80bd b3e8 adbe bb56 37be
000000f0: 5de5 1d3e 6c24 c6be b0b6 f13d f43f 233d
