results/model_1661328203.9619663/network_10.pth (torch, 130543 bytes, 16 tensors)

feature_net.act_cnn1.weight f4 [1, 1, 5, 1]
00000000: 86e1 043f f4db f03e 2542 523d 364d 9cbf
00000010: be37 8b3e
0.5190662 0.4704281 0.05133261 -1.2211063 0.27190965

actor_logit.actor_1.weight f4 [64, 110]
00000000: 2e9c 043e edf8 14be 330d e0bd 83c2 1fbb
00000010: df15 943d 4635 3fbd 804b 0cbe 6f2c 8f3c
00000020: 9469 173e 914a ab3d 5b3d 0e3e a44c 07bf
00000030: 351f 543d 1b77 01be 9b92 e2bd 5e84 6fbe
00000040: ebf0 8d3d 4d9b a83e d09f a1be ac53 a43b
00000050: 7fe9 143d e513 f0bc 44c1 0d3e da0f c43d
00000060: 1fba 35bd 56da 9e3d cef5 5a3d 453a bb3d
00000070: 61fc 32be 58b9 12be 37c9 953d 5443 a43c
00000080: 4db0 993c 96be f43c f784 a53d c9a3 ec3d
00000090: 9c7e d63c 4bbb aebd 0c4d 9e3d fc7b 283e
000000a0: 3dfc a83d d49d 71be 8ebc 87be ac40 6dbb
000000b0: ee51 13be 8365 12be aeac 2e3c 6d48 31bd
000000c0: bb0f 0bbe 71fb 303d 6ef7 9d3b 1acf 2dbe
000000d0: 76f3 0c3e 6259 e2bd c4fc 713d 138a c9bd
000000e0: 4d8a f93d 5a75 363b 89af 363c 0b54 0dbd
000000f0: cc19 f5bc 3ef4 3f3d f3a3 083e e740 473d
00000100: 3d7a 183e ff46 c5bb 385a 8c3e 169f 253d
00000110: e62a d23d 1afa 69be e28e 14be b83a 623e
00000120: e0ef 743e af6c 483e e236 ec3d 4553 aa3c
00000130: 438d d23d 4271 31be 3cd4 0f3e 67c2 1c3d
00000140: 94c4 d3bd 7251 3f3e d94c 463c 5f75 1cbd
00000150: 2c25 23be f995 89bd 233c 96bd 3421 8cbe
00000160: f110 b63d fe7a 4e3d 4eed 973d c483 b4bd
00000170: fb44 9abd 86d9 9dbd da2e cebc 40e0 90bb
00000180: c6e3 37be a469 e43d cf99 bfbd 7615 30bd
00000190: 0938 53be 36f5 b4bd fc35 aa3d d3a1 13bd
000001a0: 9268 fdbd 1c0e f33c 8176 9abd fad6 283e
000001b0: 40ab 2abe 0609 2fbd a5a0 0d3e f4cd 173e
000001c0: 4960 55bc 8b40 763e d8f3 82bc caa5 78be
000001d0: 42e0 67bd 3d46 003c a3e5 d7be cb05 1a3e
000001e0: b4f6 843e cf2a 0f3e 12a8 9dbd 3a88 06be
000001f0: 0509 983d 6992 cbbc e059 e93c 02ba d8bd
00000200: 2df9 7abd c617 61be 0f9c 6ebd 87e8 8a3d
00000210: 7ba9 0e3d e1e4 a9bb ab30 96bd d40e 82bd
00000220: c4c0 06bc 54a6 683d b21e e0bd 8f67 503d
00000230: 6be4 ebbd 8e28 ab3d eea7 02be 9a4b 81bd
00000240: 04dd 1fbe 949a 1fbd 65cf 8e3c 19c6 47bd
00000250: 4ec6 4bbe 5584 c2bd 1da1 2bbe 7525 7cbd
00000260: 9fdd 45bd ecb9 113d 1855 8dbe bbfc aabd
00000270: d2bc 71be 1161 55bc 2762 f03d f06f 48bd
00000280: 5b06 2cbe d412 fa3d 0107 033e 4974 903e
00000290: c7f4 f4bd 908a 2abc f880 f7bc 4ae4 f23d
000002a0: 41a8 a0bd a4e1 21bd 9e35 d1bc b898 c23d
000002b0: dc09 4f3e e6ba 5e3d aa22 973e 9940 703d
000002c0: 1e7a 87bd e149 a9bd 777a 74be 3611 913d
000002d0: 0bd8 1c3d 3964 60be e6c5 e8ba f745 70bc
000002e0: 59f1 593c fb97 ee3d c747 093c ab77 bd3b
000002f0: 08d0 43bd 6ec2 43bc 6d3e 593c 7915 f4bc
00000300: 820a e73c ec5a 18be b3aa 43be fb0b 7dbd
00000310: 68ae d7be 26bb fc3c 0b6a d9bc 3ad6 f7bd
00000320: 3790 913e 610c 823d c57b 2d3e 92f0 14bd
00000330: 0337 043e 0d5b 94bd bc12 64be d0ab fc3d
00000340: 3149 1f3e bba6 053e c0a7 13be 66c0 39be
00000350: b0ed 203d 459e 463e 5e60 12be 9154 bf3c
00000360: 5fdb 54be cc68 c13d 983a 853d bbb6 7ebd
00000370: c80c a3bd ef71 4d3e aa67 083e 8c0c 8c3e
00000380: 053f 9fbd 58a6 863d 5ce2 8b3d 1ead a4be
00000390: 5c0c 6a3d c71c fb3d 6080 403d d15c 4dbe
000003a0: 8bf2 7b3d 8d6a ce3d 3039 99bd 503d 413d
000003b0: 01c0 ef3d f3c0 1d3e caed 4f3e 2015 0dbc
000003c0: 8d7e e43d 6c6c 23be 56a4 17be 6de9 8bbc
000003d0: dbdc 6bbe 1fb3 3abe dd10 ec3d d011 cf3c
000003e0: 285c 2fbe 0d43 4cbc 8323 013e 1b0c 8bbd
000003f0: ef94 543e 72c9 22bd 9f91 233d 4fd8 62bc
0.12950203 -0.14548083 -0.109400176 -0.0024377413 0.07230734 -0.046681665 -0.13700676 0.017477242
0.14786369 0.08363832 0.13890593 -0.5285132 0.051787574 -0.12643091 -0.11063119 -0.23390338
0.06930717 0.32930985 -0.3156724 0.0050148573 0.03635549 -0.029306361 0.13843256 0.09573336
-0.044366952 0.07756488 0.053457074 0.091419734 -0.17479087 -0.14328516 0.07313769 0.020051636
0.018760825 0.029876035 0.08082002 0.11554677 0.026183419 -0.08531817 0.07729539 0.16453546
0.08251236 -0.23595363 -0.26511043 -0.0036201878 -0.14386722 -0.14296536 0.010661287 -0.04328196
-0.1358022 0.043208543 0.0048207557 -0.16973534 0.13764748 -0.11052205 0.059078947 -0.09840789
0.12184582 0.0027840943 0.011150249 -0.034503978 -0.029919527 0.046863787 0.13343792 0.04864588
0.1489038 -0.0060204263 0.2741258 0.04043492 0.102620885 -0.22849312 -0.1450763 0.22092712
0.2391963 0.1957271 0.115339056 0.02079166 0.1028085 -0.1732836 0.14045805 0.038271334
-0.10340229 0.18683413 0.012103283 -0.03819787 -0.15932149 -0.06718058 -0.07335689 -0.27369082
0.0888995 0.050410263 0.07418309 -0.08814195 -0.07532688 -0.07707505 -0.025168825 -0.004421264
-0.17957982 0.11152962 -0.093555085 -0.042989217 -0.20626844 -0.08835833 0.08311078 -0.036043
-0.12373461 0.029669814 -0.07542134 0.16488257 -0.16666889 -0.042733215 0.13830812 0.14824659
-0.013023444 0.24048059 -0.015985414 -0.24281994 -0.056610353 0.007829246 -0.42167386 0.15041272
0.2596947 0.13981174 -0.076980725 -0.13137904 0.07423595 -0.024850087 0.028485239 -0.10582353
-0.06127279 -0.21981725 -0.058254298 0.06782632 0.034829598 -0.005184755 -0.073335014 -0.063504845
-0.00822467 0.056799248 -0.10943355 0.05088001 -0.11518177 0.083573446 -0.12759373 -0.06313248
-0.15611655 -0.038965777 0.017432878 -0.048772905 -0.19899866 -0.094978966 -0.16760679 -0.06155916
-0.048307057 0.0355777 -0.27603984 -0.08348986 -0.23607185 -0.013023631 0.11737471 -0.048934877
-0.167993 0.122106224 0.1279564 0.2821372 -0.1196075 -0.010409012 -0.030212864 0.11859949
-0.07844592 -0.03952183 -0.025538262 0.09501785 0.20218605 0.05437746 0.29518634 0.058655355
-0.06615089 -0.082660444 -0.23874842 0.07083361 0.038291972 -0.21913232 -0.0017759174 -0.014665118
0.013302171 0.11650082 0.008378929 0.005782088 -0.047805816 -0.011948211 0.013259512 -0.029795395
0.028203253 -0.14878434 -0.19108085 -0.061779004 -0.4212525 0.030850958 -0.026539823 -0.12101407
0.2843034 0.06350017 0.16941746 -0.03636224 0.1291161 -0.07243929 -0.22272772 0.12337458
0.15555264 0.13051884 -0.1441946 -0.181398 0.039289176 0.19396313 -0.14294574 0.023355754
-0.20786808 0.094438165 0.065053165 -0.062185984 -0.07961422 0.20062993 0.13320795 0.27353323
-0.07775692 0.06574696 0.06830284 -0.32163328 0.057140693 0.12261348 0.046997428 -0.20054938
0.061510604 0.10078917 -0.07481611 0.047177613 0.11706544 0.15405636 0.20305553 -0.008610994
0.1115695 -0.15959328 -0.14808783 -0.01707908 -0.23033468 -0.18232392 0.11526654 0.025277048
-0.17124999 -0.012467158 0.12611203 -0.06789418 0.20759939 -0.039742894 0.039933797 -0.013845517

actor_logit.actor_1.bias f4 [64]
00000000: 3c51 3a3c 60c3 1fbc 7bd5 083c d1c5 edbb
00000010: 7997 96bb dca9 a43b 79a7 a23c 0030 afba
00000020: 0402 a3bb 9230 163b b951 58bb eabf 64bb
00000030: c6e6 9b39 313c 83b9 5081 31bb 2d66 c6bb
00000040: 1f28 b23c 168c c53b f9c3 30bc 1d63 d3bb
00000050: 0d59 9bbc 1f38 5d3c 27e6 47bc ecbe a238
00000060: 08a5 79bb 6ea3 bb3b 1ce2 ee3b f2d6 46bc
00000070: 7c52 4cbc 883c 2c3c 334d 9e3b d93a 503c
00000080: b7be 803b adff ccba 27fd ff3b 10f9 653b
00000090: 4a14 e53b 0bcf d7bb 254e 8d3c 31f1 873a
000000a0: c3d6 1b3c d3bc 113c 4a45 55bb 49ee 703c
000000b0: b140 c03b 8824 82ba bb67 ea3b 8722 ffbb
000000c0: 066a 9db9 38cc c1ba f4e9 f6bb 8a29 65bb
000000d0: 52e2 c9bb f535 823c 042b 8d3c 9dcc 23b9
000000e0: 7163 8ebc ed10 31bb 6d89 af3b 55f4 52bc
000000f0: b9db efbb 8ed7 1cbc 39b4 b73b 3e06 933b
0.011371907 -0.009751171 0.008351679 -0.0072562476 -0.0045956937 0.0050251316 0.019855248 -0.0013365746
-0.0049746055 0.0022917134 -0.0033007695 -0.0034904429 0.00029735843 -0.00025031113 -0.0027085133 -0.006054661
0.021747647 0.0060286624 -0.010788911 -0.006451024 -0.018963361 0.01350215 -0.012200869 7.760324e-05
-0.003809275 0.0057262694 0.007290138 -0.012136208 -0.012470838 0.010512479 0.00483098 0.012709343
0.003928985 -0.0015640162 0.0078121605 0.003509108 0.006990944 -0.0065859607 0.017249176 0.0010371563
0.009511652 0.008895117 -0.003254252 0.014705249 0.005867087 -0.00099291 0.007153479 -0.0077860984
-0.00030024367 -0.0014785593 -0.0075352136 -0.0034967386 -0.0061610127 0.01589487 0.017232426 -0.00015621116
-0.017381402 -0.0027018145 0.0053569586 -0.012875636 -0.007319894 -0.009572877 0.005606201 0.004486828

actor_logit.actor_2.weight f4 [64, 64]
00000000: 4a16 333d 3046 773d 51b3 303e 2c3e 123e
00000010: 7d19 943e d5e3 7c3b 8527 ce3d 4bac a3bc
00000020: a58a 18be b3e7 75bd fd9b 7f3d 6bd6 3abe
00000030: 7245 73be a38c 613e 2a4b e1bd 1f1f c03d
00000040: 652d 1a3e faf0 8f3e ca98 69bc 05ed 443d
00000050: e301 583e 2efa 613d 4d90 953d ab1a d93d
00000060: 0582 c8bd ac44 f6be 85be 273e 0580 3f3e
00000070: 614b 123e 7a07 1b3e 6ac0 3fbe 3919 113f
00000080: 7eb3 403e 79c9 5ebe de0d bd3e 2877 5b3e
00000090: 3bdc 0ebc 987f 21be 7f06 683d 2976 52bd
000000a0: 3a84 b5bc 64b9 05bc dfdf 493d 7a2f 47bc
000000b0: 73f7 27be 8381 59be 9cf5 073e dd84 6b3d
000000c0: 625b 42bd c0e2 303e a221 8fbd 7004 713d
000000d0: 0c50 1fbe c240 913e a6a4 453e 0de9 1fbd
000000e0: 2587 653e b3c0 983b 57fd 61bd a23b 9abe
000000f0: ceaa 94be ed41 59be e865 123e f144 a7bd
00000100: f867 1fbe 0fba 01bd 18be 88be 4d0c 9cbe
00000110: 2fe5 9abd b57d 933c 76de b43e 6c80 b13e
00000120: 60dd b5bd 6304 9a3e a092 963d 7209 233e
00000130: 8113 f03d 1107 d2bd 809e f5bc c753 a53d
00000140: d5b8 d9bd 7c3b 02bd 783d c3bd 5b4e f93d
00000150: 1cd2 6cbc 799d 203e 2ea2 31be 80df dbbd
00000160: f2fe 72be eb91 10be ff79 53bd f517 783d
00000170: 1fba c03d 0949 d53d 24e7 f5bd 55dc 56be
00000180: ef11 393e 5a71 6bbc 09bd c0bb ab40 17be
00000190: be19 29be bbfb 18be a3b6 cd3d 5eb1 b1bd
000001a0: 31c1 f4be 1c30 05be aa30 2ebe ef47 4b3e
000001b0: 134e f53d 10ad ac3e 76eb 433e 63a0 24be
000001c0: c00e 3a3d d907 ebbd 5998 843e b82f 4dbb
000001d0: faf0 96bd cd54 9b3c ad8b 85bd 4243 28be
000001e0: ce1e 9a3e 75b0 aebd 4bbc 9dbe 4ebf a0bd
000001f0: 25ba 82be abce d83d f1d0 643e d3fc 85be
00000200: c45f 89bb 35b9 16bc 085f c93d 296d 11be
00000210: 7b31 b83e c6fc a5bc 189d 94bd 8891 02be
00000220: c8fb ec3d 2410 653e 4656 913d 0c56 8b3b
00000230: ee63 323e ee46 c2b9 c21b fabd f2b5 f43d
00000240: 323e e73e 9c05 11be 33ec 203c beb9 08be
00000250: 453b 38be bc0e dbbd a9c4 ca3d 8f41 89be
00000260: eb87 903d dd08 2a3e 2e5d 4d3d 0a32 16be
00000270: d822 34bc 9cff 2fbe be2d f43a e8c5 46be
00000280: 1fcb 99be ef79 84be bcc4 79be 1e84 aa3e
00000290: 8992 f63d f278 873d 6902 5f3e b952 86be
000002a0: ea23 f5bd ecab af3d bdef 8e3e 833b 063d
000002b0: dbe7 3cbe c766 973d c651 4a3e 8bd3 3e3e
000002c0: c451 44be 193e 993c 9292 743d e1a4 85be
000002d0: b4ab a0be 8db3 1bbe c635 253e 07f2 0fbd
000002e0: 3dcb 6ebe 8988 09be 958b 03be 0897 1dbd
000002f0: 620b b5be aa1a fdbd 9378 223e 9a6a f1bd
00000300: c653 c0bd f2ff 4c3e 3038 30bd a857 bc3d
00000310: 38f9 513e db70 a53c b79a 5e3e 69dd 9bbd
00000320: 6f17 1e3e 3f6d a6bd 3fbf 3e3b 4d8a e13c
00000330: fe1d 3d3e c008 67bd a752 d03d 43d0 e63c
00000340: b9d0 0cbe cd5b 823a 23a5 d93e 6de7 ae3e
00000350: 7393 14be ae0a ce3d 4eaa 90bd 6281 3cbd
00000360: e8fd 94be 32d8 da3d 5c53 ca3c eae4 8abe
00000370: cbe6 123e 3b3f 48be 8ab4 013d 7720 77bc
00000380: 4ca0 2ebe 1786 753d fa8e a0bd 84ca c7bd
00000390: bc44 343c 5bae f2bc eb65 1a3e c52c 413e
000003a0: 3468 74be e559 2fbe 0a21 043f 9d7f 3ebe
000003b0: 4ba0 973d 528d 9bbe 9204 c2be 12c7 153e
000003c0: 0cff 07be 4362 033e 5a01 2cbe 7644 e53d
000003d0: c040 423d 907e d9bd 826b 05be 50ba 353d
000003e0: d16e 003f bb32 0ebe f304 23bc 11fc 62be
000003f0: ddef 3a3c 34c7 e7bb 8236 803d aca4 6f3d
0.04372243 0.06036967 0.17255904 0.14281529 0.28925696 0.0038587947 0.100661315 -0.019979617
-0.14896639 -0.06003542 0.06240462 -0.18245856 -0.2375696 0.22026305 -0.110006645 0.09380936
0.15056379 0.28113538 -0.014257619 0.048077602 0.2109447 0.05517023 0.07302914 0.1060079
-0.09790424 -0.48099267 0.16381271 0.1870118 0.14286567 0.15139571 -0.18725744 0.5667911
0.18818471 -0.21756543 0.36924642 0.21432173 -0.008719499 -0.1577133 0.05664682 -0.051382218
-0.022157777 -0.008161876 0.049285766 -0.012157315 -0.16402988 -0.21240811 0.13277286 0.057499755
-0.04745043 0.17273998 -0.06988837 0.058842123 -0.15557879 0.2836972 0.1930109 -0.039040614
0.22414835 0.0046616434 -0.055173244 -0.3012362 -0.29036564 -0.21216555 0.14296687 -0.081674464
-0.15567005 -0.03167158 -0.2670753 -0.30478135 -0.075632446 0.018004278 0.35325974 0.3466829
-0.088801146 0.30081472 0.07352185 0.15921572 0.1172247 -0.10255254 -0.029982805 0.0807262
-0.10630957 -0.03179501 -0.095332086 0.12173148 -0.014454391 0.15685071 -0.17347023 -0.107359886
-0.23730066 -0.14118163 -0.051630016 0.060569722 0.094105 0.10414321 -0.12006977 -0.20982487
0.18073247 -0.014370287 -0.0058819097 -0.14770763 -0.16513726 -0.14939778 0.10044601 -0.08676408
-0.47803643 -0.13006634 -0.17010751 0.19851659 0.11977782 0.33725786 0.1913279 -0.16076808
0.045424223 -0.11476106 0.25897482 -0.003130896 -0.073701814 0.018961335 -0.06520782 -0.16431907
0.30101627 -0.0852975 -0.3080772 -0.078489885 -0.25532642 0.10586294 0.2234533 -0.26169452
-0.0041923244 -0.00919943 0.09832579 -0.14201798 0.3597525 -0.020262133 -0.07256526 -0.12750828
0.11571461 0.22369438 0.070965335 0.004252201 0.17420933 -0.0003705541 -0.12212326 0.11948766
0.4516464 -0.14162296 0.009821939 -0.13352105 -0.1799136 -0.1069617 0.09900791 -0.2680783
0.07057174 0.16604944 0.05013769 -0.14667526 -0.0109946355 -0.17187351 0.0018629355 -0.19411433
-0.30037782 -0.25874278 -0.24391454 0.33303922 0.12039668 0.06614865 0.21778263 -0.26234987
-0.11969741 0.08577713 0.2791728 0.0327716 -0.18447821 0.0739265 0.19757757 0.18635385
-0.19171816 0.018706368 0.059710093 -0.26102355 -0.31381 -0.15205212 0.16133794 -0.035142925
-0.23319717 -0.1343099 -0.12846215 -0.038474113 -0.35360247 -0.123586014 0.15866308 -0.11787911
-0.093909785 0.2001951 -0.043022335 0.091964066 0.20505226 0.020195415 0.21738707 -0.0761059
0.15438627 -0.08126306 0.002910569 0.027531767 0.18468472 -0.05640483 0.10172015 0.028175479
-0.13751496 0.0009945572 0.42508802 0.3416094 -0.14509372 0.10060631 -0.07063733 -0.046021827
-0.29099965 0.10685767 0.024697952 -0.27127773 0.14345853 -0.1955537 0.031666316 -0.015083424
-0.17053336 0.05994233 -0.078397706 -0.09755424 0.011002716 -0.029624155 0.15077941 0.18864734
-0.23867875 -0.17124136 0.51612914 -0.18603368 0.0740362 -0.30381256 -0.37894112 0.1462672
-0.13280886 0.12830453 -0.1679739 0.111946985 0.04742503 -0.10619843 -0.13029292 0.044367135
0.5016909 -0.1388654 -0.00994991 -0.22166468 0.011409727 -0.0070733074 0.062603965 0.058506653

actor_logit.actor_2.bias f4 [64]
00000000: 6060 2b3c e709 84b9 9c2c 00ba 0d61 d6bb
00000010: f752 5d3b 1007 293c 89c5 8e3b e98e c13c
00000020: 3473 093c 0b3f f9bb 4961 913c 1a1a 073b
00000030: cc56 f53b 309b 8e3a 3a2a a03b b155 8c3b
00000040: a624 cd3b 0368 983b 9b2f 3cbb fb86 ff3b
00000050: 232d a13b 568c b43b e4fc 59bb d40a d43b
00000060: 08c2 e83b 161a 4fbb 85b7 93bb 29c0 b03a
00000070: c79d 1ebc e5b0 3c39 1a40 33bb a7f2 afbb
00000080: 7e46 a03b 19b4 463b 3f1a 32bc 281d a53b
00000090: a7f6 023c ef4a 393c ccde 54bc 8a09 bfbb
000000a0: d186 f4bb ffea f4bb 4682 76b9 91bd 23bc
000000b0: b2b0 aabb 04c6 30bb a4d1 4bbb 0711 953b
000000c0: 5e49 363b 5b10 0e3c 9609 a63b f851 113b
000000d0: 0d06 273c 4ee9 c8ba bbc6 283c ad40 ad3b
000000e0: 2650 de3b e950 6a3c a624 a3ba 5332 cc3b
000000f0: 25c9 64bb 7147 3bbb b52e 463c adb2 4d3c
0.010459989 -0.0002518438 -0.000488946 -0.006542331 0.0033771375 0.010316625 0.004357044 0.023627715
0.008389283 -0.0076063923 0.017746584 0.0020614923 0.0074871536 0.001087999 0.0048878463 0.004282676
0.0062604723 0.004651071 -0.0028714899 0.0077980733 0.004918711 0.0055098934 -0.0033262307 0.0064710174
0.0071032085 -0.0031601242 -0.004507961 0.0013485003 -0.009681172 0.00017994975 -0.002735144 -0.0053695026
0.004891216 0.003031975 -0.010870515 0.005038876 0.007993377 0.0113093695 -0.012992572 -0.0058299946
-0.0074623604 -0.007474303 -0.00023508919 -0.009993927 -0.005209052 -0.0026973495 -0.0031100297 0.004549149
0.0027814726 0.008670892 0.0050670607 0.0022174101 0.010194314 -0.0015328319 0.010301287 0.005287251
0.006784457 0.014301517 -0.0012446835 0.006231585 -0.003490993 -0.0028576518 0.012096097 0.012554807

actor_logit.actor_3.weight f4 [64, 64]
00000000: 096e 143e 5456 21be c14c 5bbd 24d6 8d3e
00000010: 670a debd 1b6d 483e f50e 083d b742 d0bd
00000020: b30d 563e cd0b 44be 78b9 18be 951a 533e
00000030: 930c 8d3d 5be1 b0ba 5d48 4cbd 47ed 86be
00000040: 1c42 47be a82d 78be f558 1e3e 2d24 113d
00000050: 2460 c4bd f3bd 38be 3f0f 4abd 4fcf 1e3e
00000060: 57ab 51be e7a5 5d3d 7293 e93d 5f9b 203a
00000070: bc08 50be 0530 ea3d 20fd 5b3d 3e13 0abc
00000080: bd86 0d3e 509b 1ebe 6563 98be 36e6 f23d
00000090: 471c 16be 24a5 05be 5a4e 0e3d 68e0 a1be
000000a0: 29ec e53d 752e bb3d f340 ffbc 4766 ae3d
000000b0: df27 d53d 8de6 6f3c d96a f9bd 5b37 a7be
000000c0: 94ae 64bd b718 a7be 51a2 c8be c949 643e
000000d0: cd3e b0bd a42c 123d 3a2a 883e bd72 89be
000000e0: 5603 813e 5e11 80be cffb 55bd 2d35 773d
000000f0: 892a 263e 5c85 90bd 9838 d73e e8f6 44be
00000100: 0746 09be ed37 5f3d 4703 47be 2c71 55be
00000110: 6bac 173e 42ce 83be 41c3 3bbe e91b 853d
00000120: 6173 7d3e 173c a6bd 3096 8d3d ebfa 39bc
00000130: f024 063e 2ac1 d53e 0823 843d 9a25 973e
00000140: 08ac 7a3e 467f 553d 448f 4f3e 0014 0f3e
00000150: 4a52 5f3d ad3f 5bbd 743c 973d 26c4 fabc
00000160: 2a17 aebe dd5c 783e e357 33bd cc57 22bd
00000170: 62d3 10bd a798 dd3d d3c4 5ebe c23f 1ebc
00000180: 2c3b 8ebc 147e 2b3d bcc1 49be 0d9c 613e
00000190: 3c18 99be 7cce f8bd 62a2 0a3e 657b 30be
000001a0: 94d9 8d3e 7309 af3d f72e c73d 847a 333e
000001b0: 3421 3d3e 3458 883d 08b8 d33d 0e30 cb3e
000001c0: d673 55be b57c d43d 1e89 fabc d729 2bbe
000001d0: 3b7a babe 9b06 a03c 15ed a83d 9a83 f7bd
000001e0: adc7 10be 5ec9 cc3d 9732 33be cea3 4ebe
000001f0: 629b f4bd a41f 7bbe b0db d23d a796 6e3e
00000200: aab5 5c3e a7b1 593e 426d a13e 9a0d 913d
00000210: 649a c93e 8236 4d3d 134b f7bd ee0d b3be
00000220: 2674 a73c b0b8 2cbe 8eec a33d 7ee1 36bc
00000230: fdcc 843e 036f 80be 9f39 95be 6c4d 9dbd
00000240: 2998 99bd dce5 e33d 69f5 5cbe da63 09bd
00000250: 9983 3e3e eebf 513e d7e2 cf3d 47f1 053e
00000260: 7ead 893b ee3e 60be 0384 9c3e b3e5 6dbd
00000270: 41a4 55be ee4b e93d 4da3 3abe 7e6a c8bd
00000280: 920f 18be 84ea 333e 11db 143c bd2f 083e
00000290: df40 7dbd 0150 6c3e 5143 32be 4a1e a4be
000002a0: ba50 293d 5543 c63d 8e22 cc3e 7bb1 4f3c
000002b0: 9dc4 a6be b085 7a3c 2ef8 b0bd 4128 843d
000002c0: 5d66 3d3d c6c8 74bd 6ef8 613e 42f6 adbc
000002d0: 2b6f 45be be52 513e b3d6 fabd dc46 d3bc
000002e0: 3d4e efbd 6a84 593e 66c2 84bd 11dc 04bd
000002f0: 5bec a8bd d19e dabd 9e0b 8a3e 6621 43bd
00000300: b0e1 943d 72f5 4a3d 4928 eb3e bfb4 15be
00000310: b46e 25be 1379 5a3d 7d96 92be 06b2 3f3d
00000320: 40b5 383e 81e2 27be 2bc9 393e 0c97 61bd
00000330: 4670 07be 1707 ae3e 8cc3 3c3e 1dba af3c
00000340: c528 393c b044 3f3e 2519 623d 4ec0 39bd
00000350: 1e29 a63d c3b3 1fbd ebf8 ee3d 5599 a23d
00000360: 9e30 15bd 9d57 ab3e 606b c5bd 7a2b bdbd
00000370: 85dd 5d3e a970 0ebe fda7 8dbd a3c3 9cbe
00000380: 5610 a53e 6e7d 963e d3c0 f93d 6fee e0bd
00000390: 47b9 ec3d 1ce5 ebbd 863a 57bd a6a1 cdbd
000003a0: 866e 6abd d107 723e fcfe 6b3d ad6f b73d
000003b0: b438 53bd 30a5 0bbd 13c8 2abe cd23 32be
000003c0: d21a 913d 28b3 b2be 1886 893e 7960 f33d
000003d0: b4c0 d73d 1b33 8abe acd4 6abe 6b47 82be
000003e0: 7810 793e 764c e73d 935f 38be a728 383d
000003f0: aec5 16bd 86e4 58bd c0a5 f3bd 6cfc 8abe
0.144951 -0.15755588 -0.053539995 0.2770244 -0.10841828 0.1957287 0.03321739 -0.10168975
0.20903663 -0.19145127 -0.149145 0.20615609 0.06887164 -0.0013494896 -0.0498737 -0.26352903
-0.19458812 -0.24236166 0.15463622 0.03543489 -0.0958865 -0.1804121 -0.049330946 0.1550877
-0.20475517 0.054113295 0.11405076 0.0006126668 -0.20315832 0.1143494 0.053708196 -0.008427439
0.1382093 -0.15488935 -0.29763332 0.118603155 -0.14659224 -0.13051277 0.03474269 -0.3161652
0.112266846 0.0913972 -0.0311589 0.085156016 0.104079954 0.01464237 -0.12178583 -0.3265942
-0.055830553 -0.32636043 -0.39186338 0.22293772 -0.08605728 0.035687104 0.26594716 -0.2684535
0.25197858 -0.2501325 -0.052242097 0.060353447 0.16227163 -0.07056686 0.42035365 -0.19234812
-0.1340562 0.054496694 -0.19434844 -0.20843953 0.14811866 -0.257433 -0.18336202 0.06499464
0.24751045 -0.0811693 0.069134116 -0.011351327 0.13100028 0.41748935 0.06451994 0.29520875
0.24479687 0.05212333 0.20269495 0.13972473 0.054521836 -0.053527523 0.073845774 -0.030611109
-0.34002048 0.24254175 -0.043784987 -0.03963451 -0.03535784 0.10820132 -0.2175477 -0.009658756
-0.0173622 0.041868284 -0.1970281 0.22032185 -0.29901302 -0.12148759 0.13538507 -0.17234571
0.2770506 0.08546724 0.09725755 0.17527205 0.18469697 0.066574484 0.103378356 0.396851
-0.20844969 0.103753485 -0.03058296 -0.1671518 -0.3642138 0.0195344 0.08248345 -0.12085648
-0.1413867 0.09999345 -0.17499767 -0.20179674 -0.119436994 -0.24523789 0.10295808 0.23299657
0.21553674 0.21259175 0.3152867 0.070826724 0.39375603 0.05010081 -0.12074866 -0.34971565
0.020441126 -0.16867328 0.080041036 -0.01116216 0.25937644 -0.25084695 -0.29145524 -0.07680783
-0.07499725 0.111278266 -0.21577992 -0.03354249 0.18604888 0.20483372 0.10150688 0.13080321
0.00420159 -0.21899006 0.30569467 -0.058080386 -0.20863439 0.113914356 -0.18226357 -0.09785937
-0.1484969 0.1756993 0.009085433 0.1329946 -0.061829444 0.23077394 -0.17408492 -0.3205436
0.041336752 0.09680811 0.39870113 0.012676592 -0.3257188 0.015290663 -0.086410865 0.0645299
0.0462402 -0.059761785 0.22067425 -0.021235589 -0.19280688 0.2044172 -0.12247982 -0.025790624
-0.11684845 0.21241918 -0.06482391 -0.032436434 -0.08248206 -0.10674823 0.26961988 -0.047639273
0.07269609 0.04955048 0.45929173 -0.1461973 -0.16155511 0.05333812 -0.28630438 0.046800636
0.18037891 -0.16394998 0.18143146 -0.05507569 -0.13226423 0.33989784 0.1843397 0.02145105
0.011301224 0.18678546 0.05519976 -0.04534941 0.08113311 -0.038989794 0.11668571 0.07939402
-0.036423318 0.3346528 -0.09639621 -0.09236808 0.21666534 -0.13910164 -0.06916807 -0.3061801
0.32239026 0.2939257 0.121949814 -0.109829776 0.11558776 -0.115183085 -0.052546047 -0.100405976
-0.05723431 0.23635794 0.05761622 0.08956847 -0.05156775 -0.034093082 -0.16677885 -0.1739647
0.07085194 -0.3490231 0.26860118 0.11883635 0.10534802 -0.26992115 -0.2293269 -0.25445113
0.24322689 0.11293881 -0.18005209 0.044960644 -0.036809616 -0.052952312 -0.11896849 -0.27145708

actor_logit.actor_3.bias f4 [64]
00000000: 5a5e 5cba 32d7 0a39 9208 a53b d91a c1ba
00000010: 6183 5c3b 9c2e 353c 7e28 5d3c c43e a03b
00000020: 4ac2 47ba d8d6 1c3b 4478 febb 73c9 d73c
00000030: e52c 39bb 0d7f ed3b db17 3abb 2da4 97ba
00000040: 59be ee3a 5241 273b 7208 383a 0342 cb3b
00000050: 18c1 593c c5c3 513b e83b 8abc ef73 a63a
00000060: f236 4fbc 45e3 7d3b 6f28 f43b 5c18 973c
00000070: b557 2d3b 0516 e638 53d3 b5bb 887a a93b
00000080: 2414 133c 6c29 203b f15c f83b 872b 763c
00000090: 6330 80bb 6ed2 9aba aead 2e3b ac97 bf3c
000000a0: 2636 0bbb e445 5e3a 638e 493b da3d e8bb
000000b0: 95eb 4d3a 6f7b b33b 3c09 033c ef5e df3a
000000c0: 593d c4bb 7f71 893b cb36 033b 3d0e 45ba
000000d0: 5a8d a1bb 451b cbbb 94e9 ee39 1b45 e63a
000000e0: 0000 0000 609b 36b9 dce2 da3b 136a a4bb
000000f0: 981c 7b3b 83fe 63bb 0000 0000 38b9 173b
-0.00084063935 0.00013240872 0.005036422 -0.0014732733 0.0033647644 0.011058476 0.013498424 0.0048902947
-0.0007620199 0.0023931768 -0.0077658016 0.026341176 -0.002825552 0.0072478116 -0.0028395567 -0.0011569314
0.0018214687 0.0025521112 0.00070203014 0.0062029376 0.013290666 0.0032007557 -0.016874269 0.0012699346
-0.012647377 0.00387402 0.007451109 0.018444233 0.0026449983 0.00010971356 -0.0055488735 0.0051720776
0.00897697 0.0024438752 0.007579439 0.015025026 -0.003912018 -0.001181198 0.0026653814 0.023387752
-0.0021241992 0.00084790424 0.0030755035 -0.0070874514 0.0007855234 0.005477361 0.007997807 0.0017041842
-0.0059887585 0.004194438 0.0020021673 -0.0007517075 -0.0049301805 -0.006198319 0.00045568927 0.0017568202
0.0 -0.00017414754 0.006679876 -0.005017528 0.0038316604 -0.0034789152 0.0 0.002315117

critic_value.critic_1.weight f4 [64, 110]
00000000: 205e d73d ea57 273c 9c0f 473e b5e3 213e
00000010: 982c 613c c05b c63e 9567 74be baa4 ecbb
00000020: f8df e83c 093d 003d c612 1cbd e64d 303e
00000030: b4ff a6bd 5dae a33d 143c 4cbd ec4f 013e
00000040: 296a 5f3e 61fc ad3c 9d04 893e 8d91 4b3c
00000050: af81 833e c168 debb 2fa1 a4bd 3fbe 1dbc
00000060: 8696 1ebe 1ad9 0c3d e8bd 823e 8c34 823e
00000070: f690 83bd 380c 4fbe a5b7 b0bd 5550 cb3d
00000080: a05a fa3d 073c fc3d 2ed2 403e a596 16be
00000090: 2ddd 3fbd bf83 16be dc32 553d 4d12 d03d
000000a0: 19e3 823d 0d1a 1e3e 5f36 0b3e f800 7a3e
000000b0: 2d82 243e 69e2 323e 4b57 9e3e 11b2 113f
000000c0: 037c ad3e 3d01 783d 4776 45be 1aa9 053d
000000d0: b205 0c3e a758 12bd 04d1 103d c590 083d
000000e0: 6091 4cbd 26d7 e13d 019c 763e d748 893e
000000f0: 193e 383e 05e8 143e 2fea a23d 702c b53d
00000100: 77c2 a33c 2d75 753e bcd3 52be 9842 613d
00000110: 8a9b c5bd c5b9 693e 12ee 043e b368 c03d
00000120: 470f 97bc 7c12 8ab9 ec0d 37bc 54af c7bd
00000130: 02c6 5e3e ce71 0a3d 82a3 7cbe 98db 94bd
00000140: 9606 f7bd c66b 203e 3f89 f83d e908 173e
00000150: 64bd 253d 11fd 913d f720 533e def5 85be
00000160: 18cd c23c f93e 00bd 155e a03e 4ef5 263e
00000170: 36f8 8d3e 3c29 563e c112 553d 9a9d bd3d
00000180: 4d2d 2dbe 1b38 293d b5c6 093e 397a ecbc
00000190: 5ac5 70bd 5677 0dbd a413 af3c 4a72 05be
000001a0: ec5d 553c 95c0 e4bd 270d 903b d921 62be
000001b0: 18e3 cb3b 41a1 073c f725 7f3e cab6 213e
000001c0: 14fb a53d 71fa 383e 6ca1 253e 2c62 f73d
000001d0: 878d c7bc d939 a73d eee2 103e 1b8d 3a3e
000001e0: c6c2 47bd 5732 bebd 84d1 233d fab4 8c3e
000001f0: f902 4cbe b759 82bd a2ab e73d 7b6f 8e3e
00000200: f74b 1f3d 9338 1e3d 090b 1f3e e197 52be
00000210: 3009 233e ad2a 0a3e 5aec 0d3e 9be5 083e
00000220: ac55 f63d 6e1c bd3c 318e da3c 1107 013d
00000230: b45f 3f3e ae53 a8bd adb9 b63e 82dc 833e
00000240: b409 a23e 432b e03d 858f ae3b f05b 4b3e
00000250: 3045 65be baad 3e3d 8617 42be bf46 36be
00000260: 716f 23be 8a15 9e3d b461 983d 3813 853e
00000270: 09e4 603d 44b5 023e 9a00 363e 80ec a0bd
00000280: b9c5 023e 4a0c d43d 7b21 703d 3973 503e
00000290: 6860 2b3e 3806 753c 683b 62be b92c 693e
000002a0: 10ca 043d 8eba babc 7aa3 833e abef 3abe
000002b0: b0df a2bd 4ae4 67be 6383 cdbd 8c06 0abe
000002c0: 86d9 3dbe 1e26 84bd b91b 103e f28c 263e
000002d0: 8cd8 2abe 44e5 82be 3cc2 aebd c223 56be
000002e0: 2c63 aa3d d319 c9bd 4c78 a53d e211 3bbd
000002f0: 6972 86be 1ac7 a1bc 6d9b e23d c099 35be
00000300: c06b c8bc a096 c83d b0c5 313e 14d6 583e
00000310: 473b 42bc 8992 c4bb 66f0 8bbd 39be 60bd
00000320: 1d47 923d 6f20 bd3d 882d 08be 67f1 94bd
00000330: efab 5d3e da4c 99bd 8db6 153d 81ee e03d
00000340: 88cf b8bb 37f5 a33e 9de3 58bc 9924 723d
00000350: b0e7 0e3e 3db3 b03c 44c9 683e 53fd 113e
00000360: 6846 023e db0d 683d 7b6f 0d3d 03f3 db3d
00000370: 7192 213e 08f7 8fbe 6aab 9cbd 0a30 17bd
00000380: c4ea 6a3e 7586 723e dcb9 f13c 51be 8e3d
00000390: b989 803d 8eb7 4a3d 19a6 a1be 9270 28be
000003a0: 1b37 14bc 9524 8a3e cc99 343d 1336 60bb
000003b0: b1ef 9a3b 565d d1bc 78e8 cb3d d9d6 d93d
000003c0: 5b1e 933d 9049 4e3e f007 13be d159 fe3b
000003d0: 04cd febc 7e56 47bd a1f4 043d fa05 9ebd
000003e0: e70d 833e f73e 703e c725 a23c 5a90 e2bb
000003f0: 07c1 093e 8be6 a4be 806a 833b cdd9 3bbe
0.10516 0.010213831 0.19439548 0.1580952 0.013743542 0.38741875 -0.23867638 -0.0072217854
0.02842711 0.031308208 -0.03810384 0.17217216 -0.0815424 0.079922415 -0.049861982 0.12628144
0.2181784 0.021238508 0.26761332 0.012424839 0.25684878 -0.00678739 -0.08038556 -0.009627878
-0.15487108 0.03438673 0.25535512 0.25430715 -0.064241335 -0.20219505 -0.086287774 0.099274315
0.122243166 0.12316137 0.18830177 -0.14705904 -0.04684179 -0.14698695 0.052050456 0.101597406
0.06390972 0.15439625 0.1359496 0.24414432 0.16065283 0.17469181 0.30925974 0.5691233
0.33883676 0.060548056 -0.192834 0.03263197 0.13674048 -0.035729077 0.035355583 0.033341188
-0.049943328 0.110273644 0.24082948 0.26813385 0.17992438 0.14541633 0.07954823 0.088463664
0.019990189 0.2397048 -0.20588583 0.05499515 -0.09648807 0.22824772 0.12981442 0.0939497
-0.018439902 -0.00026335183 -0.011172753 -0.09750238 0.21755221 0.03379994 -0.24671748 -0.07268447
-0.12061803 0.15666112 0.121355526 0.14749493 0.04046382 0.07128347 0.20618044 -0.26164144
0.023779437 -0.031310055 0.3132178 0.16304514 0.27728432 0.20914167 0.05201984 0.09258576
-0.16911812 0.041313272 0.13454707 -0.028866874 -0.05878196 -0.034537636 0.02137167 -0.13031879
0.013022881 -0.111695446 0.004396099 -0.22083224 0.00622214 0.008278192 0.24916826 0.15792385
0.0810453 0.18064286 0.16174859 0.12079272 -0.024359478 0.081653304 0.14149067 0.1821789
-0.048769735 -0.09286945 0.03999473 0.27481824 -0.19923009 -0.06364768 0.11312033 0.27819428
0.038890805 0.038628172 0.15531553 -0.2056575 0.15921474 0.13492842 0.13859692 0.13368838
0.12028059 0.023084845 0.02667913 0.03150088 0.18688852 -0.08219086 0.35688534 0.25754172
0.31648028 0.109457515 0.0053271675 0.1985929 -0.22389674 0.046552397 -0.18954286 -0.17800425
-0.1596048 0.07718952 0.074405104 0.25991225 0.05490497 0.1276446 0.17773667 -0.07857609
0.12770738 0.103539065 0.05862568 0.20356454 0.16735995 0.014955096 -0.22092974 0.22770967
0.032419264 -0.022794034 0.2571066 -0.18255489 -0.07952821 -0.22645679 -0.10034826 -0.1347906
-0.1854001 -0.06452583 0.14073075 0.16264704 -0.16684169 -0.2556554 -0.08533141 -0.20912078
0.08319697 -0.09819379 0.080795854 -0.04567135 -0.26259163 -0.01974826 0.11064801 -0.17734432
-0.024465442 0.097943544 0.17360568 0.21175414 -0.011854953 -0.0059989137 -0.06832962 -0.05486891
0.0714247 0.09234702 -0.13298619 -0.07272606 0.21647619 -0.074853614 0.036551047 0.10982991
-0.005639974 0.32023022 -0.013237861 0.059116933 0.1395557 0.021569842 0.22733027 0.14256792
0.1272217 0.05665384 0.034530144 0.1073971 0.15778519 -0.28118157 -0.07649882 -0.036911048
0.22941118 0.23684104 0.02950757 0.06969894 0.062762685 0.049491458 -0.31572035 -0.16449192
-0.009046341 0.26981035 0.044091985 -0.0034211918 0.0047282805 -0.025557201 0.09956449 0.10636682
0.07183524 0.2014525 -0.14358497 0.007762172 -0.031103618 -0.04866647 0.03245986 -0.07715984
0.25596544 0.23461519 0.019793404 -0.0069141807 0.1345254 -0.3220714 0.0040104985 -0.18344803

critic_value.critic_1.bias f4 [64]
00000000: 6dbd 9b3d db9c 383d 21d0 a6bb 465d 773d
00000010: 2b11 ad3d 2b15 163d 8d8e 993d 58c2 473d
00000020: eb6b 393d 1b8f 413d 927b cf3d 5d88 613d
00000030: e227 4b3d 686a 863d cada 413d a459 053d
00000040: dc82 e9bb 5887 d5bc 3657 613b 6740 133d
00000050: 83d9 b93d 1c2b 933c 6a3d 5b3d f8a6 043d
00000060: 1c16 c33c f9f7 4c3d dc10 e63a 5c13 37bc
00000070: 6ae8 9e3d 94a1 8c3d d979 9b3b cde7 803d
00000080: 58fd b4bb 3bee 1a3d f839 933d 7422 493d
00000090: 2273 473d 6d10 d1bb e0ac 5c3d ed23 2c3d
000000a0: 2caa 883d b6e9 cf3d 5af3 1f3d b801 f9bb
000000b0: a465 943a d547 26bc c0fd 673d da8a d93c
000000c0: 0d89 283c 586e a43d 59bb 4c3c bf9d 983d
000000d0: 005e 663d 4121 053d e014 2abc e6e4 8a3d
000000e0: 384a 9c3d 6aac 4e3d 1959 d33c 9792 633d
000000f0: 038b 01bc 7c9b f93c f4de 623d 9a7e 36bd
0.076044895 0.045071464 -0.005090729 0.060391687 0.0845054 0.03664128 0.074978925 0.048769325
0.045268934 0.047255617 0.10130991 0.055061687 0.049598582 0.06563264 0.047327794 0.03255619
-0.0071261954 -0.026065513 0.0034384257 0.03595009 0.0907469 0.017964892 0.053525366 0.032385796
0.023814254 0.050041173 0.0017552632 -0.011174049 0.07759173 0.06866756 0.00474475 0.062942125
-0.005523365 0.03782485 0.07188791 0.049105123 0.048693784 -0.006380132 0.053875804 0.04202645
0.06673083 0.10151999 0.039050438 -0.007599082 0.0011321795 -0.010148962 0.05663848 0.026555467
0.010286582 0.08028859 0.012495839 0.07451963 0.05624199 0.032502417 -0.010380954 0.0678194
0.076313436 0.050457396 0.025799321 0.05555972 -0.007906678 0.030469649 0.055388406 -0.04455433

critic_value.critic_2.weight f4 [64, 64]
00000000: 6c85 4a3d 7b78 43be fe1d dcbd 72e6 4b3b
00000010: e234 733d f797 10be 8e38 7b3d a924 71bd
00000020: 94b6 3fbe 8124 8bba 24bf 7cbe 8f73 533e
00000030: aeb5 c03d ba90 85be 20b8 80be 3b35 b73d
00000040: 7f85 ccbe fd89 9fbd 1d64 51be 67d3 8f3e
00000050: 11bf 86bd d89b 54be 3aec 48bd dfb6 c03d
00000060: 519e 513e 77f9 b93d 2ce9 543d f906 973e
00000070: 3cbf fd3d 810d 87be 318b b7bd 01b7 02be
00000080: 563f 2dbe 472c e63e 2741 b03c 8791 8ebe
00000090: 04ad e33d 4d2c c23d 9bd6 83bd 8614 fcbd
000000a0: 51f5 b4be 3da1 7bbd 6047 63bd 302a 5fbd
000000b0: 7549 78be eaac 89be 64ce a83d 6759 24be
000000c0: d3e6 1a3e a73a f43d 8765 393e a14b 933d
000000d0: 715d 213d cc12 8bbe 0c64 1dbe e1b0 e3bb
000000e0: 344e 13bc 3d24 553e f36b f13c 189e 5b3e
000000f0: 910f 4cbe d635 15be 0fcd 81be ea1b d23c
00000100: 4f8c 933e 1404 f5bc c060 3d3e 8b49 a23d
00000110: 7aff 083e dbec a63d 78c6 ee3c b97a cf3e
00000120: e372 7cbd 9f9d ab3e c9f4 ff3d 6e14 44be
00000130: 7258 cc3c 3c73 65bd 39f1 f2bc be43 4e3d
00000140: 241d 653e 41fa 2b3a 0e6f a03e 15f2 4d3e
00000150: fffb 093f c862 89be cb2b b73d b9f9 ce3e
00000160: 58d9 60bd e55e 613e f19c b33e 6586 46be
00000170: a11f 233e f9a6 033e 4eed f23d cd16 8d3e
00000180: 91f2 1cbe adc2 d03d c7dc 45bd b00e b63d
00000190: f756 1a3e 2b80 5a3d 5206 37bc fbea c23d
000001a0: 2a28 df3d 5a8d 553d be12 7fbd 7322 97b9
000001b0: a6c2 37be f0e2 92bd 1620 56be 4534 393e
000001c0: e684 c339 75a2 ca3e f76f 2eba 9bd6 8abd
000001d0: d0bf dcbe 21a1 68bd b9ba 913c 659b 093c
000001e0: 2695 033e 25b9 923e e96e 88bd 9bd8 3b3e
000001f0: d54b 37bd 2dd0 003e 9fb6 683e 7217 4cbc
00000200: 81c7 873e 5d21 a93d 6ddc 2abd 739b 32be
00000210: 658c aa3e c4a7 a63e 693e 653e e8e8 c23e
00000220: fb64 fd3d 0978 8a3e b69c 2ebe b4b8 9a3e
00000230: cd05 0a3d 7aa8 c3bc 0a45 3a3e 3a34 fd3c
00000240: f883 093e 3875 913d 6897 0c3d 2dfa d73c
00000250: 2742 0c3e 796f 143e 7edc a93d 31fb 34be
00000260: 352d 9abe 1336 a43d 12fa 44bd c243 92bd
00000270: f0f5 093e 55e3 8fbb 90bd 403e 1d79 463b
00000280: fabc 46bd 621a 1a3e 3155 093e ce38 b13c
00000290: b7a8 4e3e dc26 df3d 6753 b13e a040 8f3d
000002a0: 70d0 cc3d db4f 79be 22c0 1f3e 91d1 333e
000002b0: 2650 53bd d74a 9fbd 8941 a43e 42e2 9abe
000002c0: 63f0 fcbd 1fbc f8bd c7e3 c1be a25e c33d
000002d0: 56cb bd3e 7644 8e3e 58a0 5d3e 0122 26be
000002e0: 5d07 273e 306d 8b3e 870e f1bd 6edc 02bd
000002f0: 06cd 74be 3ee3 c4be 749f 223e 830f b9be
00000300: c6b9 73be 4377 833e 07b9 70be 317a ae3d
00000310: 60d2 023e 2a83 85be b032 3dbe a0f9 aa3e
00000320: 7750 0a3e f405 673d 8861 663d da32 653d
00000330: 09d2 e1bc ea58 413e 987d 673e ca50 5dbe
00000340: 963f a23d 6db1 4ebe dec5 c33e b3e5 eabc
00000350: ccf9 4fbe 4446 d6bb e2d9 06bf 889c c23e
00000360: bc9e c93c 5686 3c3c 193b 993e b0ab d0bd
00000370: 845d abbd 5ace 13bd 00b7 603e 839d 33be
00000380: 1989 8ebe 9cbd 1cbd 6d28 fe3b 8bbc 26bd
00000390: 4dee 15be 34f0 c43c a7c7 aa3d b290 9dbd
000003a0: d8d7 b1bc c3d5 9c3e 07ab 5dbd 90c2 9d3e
000003b0: 238f 48be 66b0 b03d 3568 f13c 7cf5 253c
000003c0: 14f1 fc3c 577a 4b3e 816f 893e e818 85bc
000003d0: b5d7 a13e d052 1c3e c5a3 96be 8c9f 6a3d
000003e0: 4cc7 ccbd 9f75 0b3d 58b4 143d fd4e 4abc
000003f0: faac 723e 82aa d53d 0587 b8bd 780f 3bbd
0.049443647 -0.19088928 -0.10747908 0.0031112698 0.059376605 -0.1412047 0.06133323 -0.058872852
-0.18721992 -0.0010615737 -0.2468229 0.20649551 0.09409653 -0.2608698 -0.25140476 0.089457
-0.399456 -0.07789991 -0.20448346 0.28090975 -0.06579412 -0.20762575 -0.04905341 0.0940988
0.20470549 0.09080785 0.051980183 0.29497507 0.12389991 -0.2637749 -0.089620955 -0.12765123
-0.16918692 0.44955656 0.021515442 -0.27845404 0.111169845 0.09481106 -0.06437417 -0.12308602
-0.35343412 -0.061433066 -0.05548799 -0.054483593 -0.24246772 -0.26889735 0.08242491 -0.1604973
0.15127115 0.119252495 0.18105136 0.071921594 0.039395753 -0.27162778 -0.15370196 -0.006948576
-0.008990813 0.20814605 0.02947042 0.21447027 -0.19927813 -0.14571318 -0.2535176 0.025648076
0.28817984 -0.029909171 0.18493938 0.079241835 0.13378707 0.08150645 0.029147372 0.40523317
-0.061633002 0.33518693 0.12497861 -0.19148418 0.024944518 -0.0560181 -0.02965604 0.050357573
0.22374398 0.0006560423 0.31334728 0.20111878 0.5390014 -0.26833177 0.089439 0.40424898
-0.054894775 0.22008856 0.35080674 -0.19387205 0.15930034 0.12856664 0.118616685 0.27556458
-0.15326907 0.101933815 -0.048306253 0.0888952 0.15072237 0.053344887 -0.0111709405 0.09517475
0.108963326 0.052136756 -0.062273733 -0.0002882663 -0.17945346 -0.07172191 -0.20910677 0.18086345
0.00037292315 0.3957707 -0.00066542573 -0.06779214 -0.4311509 -0.05679429 0.017789232 0.008398865
0.12849864 0.2865688 -0.066617794 0.18344347 -0.044750053 0.12579413 0.22725914 -0.012456762
0.26519397 0.08258317 -0.04171412 -0.17442112 0.33310238 0.3254987 0.22387089 0.38068318
0.12372776 0.27044705 -0.17051968 0.30219042 0.03369694 -0.023884047 0.18190399 0.030908693
0.13429248 0.07102436 0.03432408 0.02636441 0.1369711 0.14495648 0.08294009 -0.17673947
-0.30112615 0.08018126 -0.048090048 -0.0714183 0.13472724 -0.0043911138 0.18822312 0.0030284591
-0.048520066 0.15049127 0.13411404 0.021633532 0.20181547 0.10896084 0.34633943 0.06994748
0.10000694 -0.24346869 0.15600637 0.17560412 -0.051590107 -0.077779464 0.3208125 -0.30250746
-0.12350538 -0.12145256 -0.37869093 0.09539534 0.37069196 0.27786607 0.21643198 -0.16223909
0.16311403 0.2723174 -0.11770349 -0.0319485 -0.23906335 -0.38454622 0.15881139 -0.36144647
-0.23801336 0.25676927 -0.23508082 0.085194 0.12775564 -0.26076633 -0.18476367 0.33393574
0.13507257 0.05640216 0.056245357 0.0559567 -0.027565973 0.18881574 0.22606504 -0.2161285
0.07922284 -0.2018487 0.38236898 -0.028673982 -0.20310134 -0.006539138 -0.5267621 0.3801005
0.024611823 0.011506638 0.299279 -0.10188997 -0.08367446 -0.036085464 0.21944809 -0.17540555
-0.27838972 -0.038266763 0.007756284 -0.040707152 -0.14641686 0.024040319 0.08338862 -0.07693614
-0.021709368 0.30631837 -0.054118183 0.30812502 -0.19585852 0.08627395 0.029468635 0.010129329
0.030876674 0.19870888 0.26842883 -0.016247228 0.31609884 0.15265965 -0.2942182 0.057281062
-0.0999895 0.03404772 0.0363048 -0.012347934 0.23698798 0.104329124 -0.09010128 -0.04566905

critic_value.critic_2.bias f4 [64]
00000000: 0000 0000 3948 6f3d b986 723d d537 f43c
00000010: b062 94bc c4be b63c f52a 183d 0000 0000
00000020: f43e 803c 20fe a03c 8fce 6a3d 8b06 40bb
00000030: 3d4c a33c 697a 443d 7dd3 093d 2c51 793c
00000040: 3d17 a63d 3c96 89bc 7f0c 573d 1478 353d
00000050: b335 833d 16f2 823d a102 863d 3a9f 27bb
00000060: 7ab0 683c 9fb3 0f3d 9dec 243d 5dbc 4d3d
00000070: 61bc bf3c c1b6 38bc 9a9f 3f3d 6ef4 8ebc
00000080: 0479 2d3d e3f6 1d3d 8b78 673d de2d 393d
00000090: d74d 543d c9ff 6d3d 0141 473d 398c 943c
000000a0: afb2 313d 5f3d af3c b53f 423d 6ddc c03b
000000b0: 7a46 39bb 46e0 b23d 170f 9f3d 1bb6 1b3d
000000c0: 9e9e 323d 8ef2 35bb ac1b 64bc 2ba3 393d
000000d0: 4c1b 8d3d 0000 0000 b7c0 0b3d ee18 343d
000000e0: ba06 a2bc 5bad 3a3d 9ae4 ac3d 7221 b33d
000000f0: a0fd 333d 8e9e 373d e149 a53c 6e1b 353d
0.0 0.058418486 0.059210513 0.029811779 -0.018113464 0.022307761 0.037150342 0.0
0.015655018 0.019652426 0.057325896 -0.0029300775 0.019933814 0.047968302 0.033648957 0.015217107
0.08109901 -0.01679527 0.05250215 0.04430397 0.06406727 0.063938305 0.0654347 -0.0025577084
0.014202232 0.03508341 0.040264715 0.050228465 0.023405256 -0.011274041 0.046783067 -0.017450538
0.042351738 0.038565528 0.056511443 0.045209758 0.051832046 0.058105264 0.048645977 0.01813327
0.043383297 0.021391569 0.047424037 0.005885652 -0.0028270767 0.08734183 0.0776655 0.038015466
0.0436083 -0.0027762982 -0.013922613 0.045321625 0.06889972 0.0 0.034119334 0.043969087
-0.019778598 0.04557548 0.0844204 0.087466136 0.043943048 0.044828944 0.02017683 0.044215612

critic_value.critic_3.weight f4 [64, 64]
00000000: 216f dc3e 0247 1f3d f6df 0abd 44ca eabb
00000010: 0c9f 983c 8b06 a2be 7e82 b9bc 5ea4 16bd
00000020: 6782 ba3d f18e 8a3e 0efc 313e d14c 2a3d
00000030: f0eb febd 1fda 7b3e 8ac9 29be 3f11 1fbe
00000040: 2e1a 023e 0a01 c0be 416a 7c3e 1678 a53e
00000050: bc50 793e 1415 b1bd 25ad 2e3d 7001 343d
00000060: f624 553e b43f 1e3e a81a 3abd ed1d bdbe
00000070: 6386 debc 3b3f f5bd eab8 0c3e df4d 74be
00000080: 2053 813e 68f0 113e 81bf 143c 81e1 533d
00000090: 436f 2ebe 12de b33e 9fa1 2dbe 62da d73d
000000a0: b3a6 24bd afae 0dbe 5388 9c3e d195 7a3e
000000b0: 4f9c 923d 023c e83d fe3f 273d bb9a 9f3e
000000c0: d76b 703d c47a 3ebe 9a53 82be 1431 8a3e
000000d0: 42da ad3e 8ce2 7bba 6669 2ebe 53f5 07be
000000e0: d43c 23bd a0ee 5b3e f628 9abd d2bd 97bd
000000f0: 437d 2bbe 7f8b 773e 1aa6 81bd e105 0d3e
00000100: 8b09 98bd 79b3 74bc f56b d83c f730 93be
00000110: b59f 123c 01a3 2bbe 58f6 733e 2665 9cbc
00000120: 4955 853e 1d7e 8fbd d869 d53d 1271 4e3d
00000130: 3a5f 8f3c 5816 c8bc c3c4 f73d 18a7 733d
00000140: 1f88 a93c 6360 ac3d aa9a d83d 0725 21be
00000150: 5928 8c3e 6ff6 c2bd 2a47 133e e11c a5bd
00000160: 6d0a 653e d4c3 02be 9be4 13bd d428 963d
00000170: a8f2 08be 2928 45be 96eb b0be 9ac7 31bd
00000180: af0b 8f3e ca9b b93d eadb 163d 57a4 d6bd
00000190: ca9c d63c 4e22 fa3d a684 48be 36ac 96bd
000001a0: 2f28 ba3e 6b57 17be 1b28 243e 1296 d33d
000001b0: 6202 7bbd d7f9 323f d0e6 d23e a91e 1fbd
000001c0: 3652 7b3e d9e8 153e b089 27be 1e43 b9bc
000001d0: faeb df3d efaf e8be 327c 993e 648e 963c
000001e0: 4cd1 abbc eaba 5f3e 0f9a 8bbd 6235 8d3e
000001f0: b02b febc adce ec3b a54a 213d 495e 853d
00000200: fee5 8e3c 3616 babd 9939 ac3d 72b5 b0be
00000210: 9caf 9cbe b32b 8f3d f2b6 303e fccd 533e
00000220: 07df b33d 9699 42be 3373 6d3e a37d 3dbe
00000230: 8947 a13d 09ab 073e 6423 233d e405 153e
00000240: 84cc fe3e d3f3 63be fee9 28bd 9efd 893e
00000250: 3db9 e1bd 7d16 903e b776 663d e43c 9bbd
00000260: 523f b73e ad61 7b3e 13e4 c73e 1fb0 10bd
00000270: ae50 943d f146 5e3e b8ae 5c3e 5f3e 173e
00000280: a8b6 c13d a4a4 38be 7415 2bbe fef6 07be
00000290: 2f38 603a d173 4ebe e011 41be c937 aabd
000002a0: d7e0 58be 2a9f 6e3e cf9c 8c3e 9246 b4bc
000002b0: c601 b83d 7b0b 333e c88c a93e 7e5b 803e
000002c0: ed6a 063e 2e77 cdbd 5117 583e b016 913d
000002d0: 89fd 233e 2592 afbd 0d3d e43d fb3d 8ebd
000002e0: f3eb d43d 3ef9 c43d 73d9 3b3d dd16 d03c
000002f0: 2d83 873e 9260 703e b39e cd3d d1c3 f3bd
00000300: 6746 e73d e152 02bc 4f6e cf3b c19b 73be
00000310: 5b17 09be af95 e53d e9b2 133e 0362 cc3d
00000320: 96d6 363d 0219 833e acff 47be 3b92 d5bd
00000330: 4a20 babd 70a5 28bc 4c01 70be 67c2 253e
00000340: ccef c03e aca6 89bd d110 793e add3 a2bc
00000350: 6757 48be 3e37 86be 11d1 613e 52a4 af3e
00000360: 15ee 8a3d 5708 c73d a2ff 153e 16f2 2e3e
00000370: 014d ac3e 770e 9a3d a9bb 95bd 9965 57be
00000380: 20cb 783e 70ca 0bbe 2d45 363e 7f9b 733e
00000390: 9335 013f 077c 313e 11a3 7d3d ff5f f13c
000003a0: e398 353d f6a9 533c 9137 383e b488 fdbd
000003b0: a3d5 a03e 4f0a 413d 2cb2 cbbd 0790 e13d
000003c0: 0223 d8bb ec5b 113e 6b7a 08bd 0b77 243c
000003d0: 515c 253e a52c a83d 7ebe 133e 8d8a d13d
000003e0: a652 21be 0d0e 513e abfa dc3d 9633 273f
000003f0: e62d 52be 7074 813d 423d 00be 5871 6b3c
0.43053535 0.038886078 -0.033904992 -0.007165225 0.018630527 -0.31645617 -0.022645231 -0.036777847
0.091069035 0.2706218 0.17381307 0.041577164 -0.12447345 0.24594925 -0.16580787 -0.15533923
0.127053 -0.37500793 0.24649908 0.3231818 0.24347204 -0.086465985 0.042645592 0.043946683
0.2081488 0.15453988 -0.045435578 -0.36936894 -0.02716369 -0.11974951 0.13742414 -0.2385783
0.25258732 0.14251864 0.009078861 0.05172873 -0.1703463 0.35130364 -0.16956185 0.105397
-0.04019804 -0.13836168 0.30572757 0.24471213 0.0715872 0.113395706 0.040832512 0.31172737
0.058696594 -0.18601519 -0.25454408 0.2699057 0.3395558 -0.0009608648 -0.17032394 -0.13277178
-0.039852932 0.21477747 -0.07527344 -0.07409252 -0.16747002 0.24174307 -0.063305095 0.13771774
-0.07423695 -0.014935368 0.026418665 -0.28748295 0.00894921 -0.167614 0.23824441 -0.0190912
0.2604163 -0.07006476 0.10420579 0.0504008 0.017501462 -0.024424717 0.12098076 0.059485525
0.02069479 0.08416822 0.10576375 -0.15736781 0.27374533 -0.0951966 0.14382616 -0.08062149
0.22367258 -0.12770015 -0.036106687 0.07332006 -0.13373816 -0.19253601 -0.34554738 -0.043403246
0.279386 0.090629175 0.03683082 -0.10480564 0.02619781 0.12213574 -0.19581851 -0.073570654
0.36358783 -0.14779441 0.16030924 0.10331358 -0.06128157 0.69912475 0.4119172 -0.0388476
0.2454308 0.14639606 -0.16361117 -0.022615012 0.10933681 -0.45446727 0.29977566 0.018378444
-0.020973824 0.21848646 -0.06816494 0.2757979 -0.031026691 0.007226786 0.039377827 0.06512124
0.017443653 -0.09086268 0.084094234 -0.34513432 -0.3060273 0.06990757 0.17257288 0.20684046
0.087827735 -0.19003901 0.23188476 -0.18504958 0.078749724 0.13248838 0.039828673 0.14553028
0.49765408 -0.2226098 -0.041238777 0.26951307 -0.110216595 0.28142157 0.05626556 -0.07579973
0.35790497 0.24548979 0.39041194 -0.035324212 0.07241951 0.2170675 0.21551025 0.14769886
0.09458667 -0.18031555 -0.16707402 -0.13277814 0.0008553294 -0.20161368 -0.18854475 -0.083114214
-0.2117952 0.23302904 0.27463385 -0.022006307 0.08984713 0.17484848 0.3311522 0.25069803
0.13126726 -0.10032497 0.21102645 0.070844054 0.16014685 -0.08572797 0.11144457 -0.069454156
0.10396566 0.09617852 0.045861673 0.025401527 0.26467267 0.23474339 0.10040035 -0.119025834
0.11292725 -0.00795433 0.0063302885 -0.23789884 -0.13387816 0.112101905 0.14423718 0.09979632
0.04463824 0.25605017 -0.19531125 -0.10428282 -0.0908819 -0.01029335 -0.23437995 0.1618744
0.3768295 -0.06721243 0.24322821 -0.019876326 -0.19564591 -0.2621402 0.22052409 0.34305054
0.06783692 0.097183876 0.14648297 0.17084536 0.336525 0.0752229 -0.07311184 -0.2103485
0.24296236 -0.13651443 0.17799826 0.23789786 0.5047237 0.17332469 0.06192309 0.02946472
0.044335257 0.01291894 0.17989947 -0.1237959 0.31412992 0.04712897 -0.09946093 0.11013799
-0.00659597 0.14195222 -0.033319872 0.010038148 0.16148497 0.0821164 0.14428136 0.102315046
-0.15754184 0.20415516 0.107899986 0.6531309 -0.20525321 0.06321037 -0.12523368 0.014370285

critic_value.critic_3.bias f4 [64]
00000000: 6e95 ea3c fae4 0b3d 4512 cd3c 80df bc3c
00000010: 0000 0000 279c 3e3d 2575 0a3d 315b e93c
00000020: 504a d33c 269c 4cba 1ffc 443d 3812 8d3d
00000030: 5f0f 4a3b 9af0 333b b0f4 44bb caf1 c03c
00000040: f565 0e3d 46ab 49bc 423b 6cbb be3b 51bb
00000050: d156 663d 82bd d03c 2e44 03bc c7be ea3c
00000060: 8865 74bc 1698 883c a6ab da3c f3a4 063d
00000070: d8c6 9abc 96ce c53c 3052 5b3d 6498 033d
00000080: 6bc3 34bc 31e7 b63c b9fb 0e3d d86f ae3c
00000090: 3233 4d3d 5cd9 0ebc 5fd5 4b3d 9274 ec3c
000000a0: 6423 ddbc 69fc 023a 574e 213d 01de 723c
000000b0: b2d8 b93c b754 303d 5aaf 233d 7b5a 363d
000000c0: 168b f83c 0080 dc3c 9309 bc3c 4d2e 093d
000000d0: 2677 113d 395b c43c c214 483d 8930 39bc
000000e0: fee4 e83c e578 af3c b091 be3c ec58 263d
000000f0: 9b62 81bc 4950 ad3c 434c d4bb 206e 2a3d
0.028635707 0.034153916 0.025033126 0.023055792 0.0 0.046535637 0.033803124 0.028485866
0.02579227 -0.00078052504 0.048092004 0.068882406 0.0030831916 0.0027456642 -0.0030053072 0.023552794
0.034765203 -0.012308901 -0.0036046063 -0.0031926478 0.05623514 0.02548099 -0.008011861 0.028655423
-0.014916785 0.016674083 0.026693176 0.03287215 -0.018893644 0.02414636 0.053545177 0.032127753
-0.011032919 0.022327038 0.03490803 0.021293566 0.05009765 -0.008718815 0.049764033 0.028864179
-0.026994415 0.00049967185 0.03938135 0.014823438 0.022686336 0.04304954 0.03996215 0.044519883
0.030339759 0.026916504 0.022953784 0.03349142 0.03551402 0.02396928 0.04884792 -0.011303076
0.028429504 0.021419952 0.023262829 0.040612146 -0.015794089 0.021156447 -0.0064788177 0.04160893

critic_value.critic_output.weight f4 [1, 64]
00000000: 26d3 abbe c71c 0cbe e822 10be 4ea2 5dbe
00000010: 1e5a 07bd 6730 e1bd 6fac 743e 481e 0bbe
00000020: 81d1 9bbe 88d7 903e 8cda 16be 653b 8b3e
00000030: b7e7 523e a20c 5c3e 2f7e 233c 0eae 92bd
00000040: 0020 85be b55e dd3c ec42 c03c 15e0 bd3d
00000050: 63af ba3e 26db a73e b927 9a3d 7d25 c3bd
00000060: e838 5bbd 9bff 13be bfd3 08bf cc06 1cbe
00000070: ea1c 003e 859e cc3e 7ef3 5dbe 4843 cbbe
00000080: 3156 5c3e cd4e cfbd a145 bfbd dc1b eebd
00000090: fa18 67be 896b 833e a271 0e3e 67c1 f6bd
000000a0: fea8 483c 1138 bf3e e3da 7abe 8513 ba3e
000000b0: 91bb a4bd f7ed 3ebe aa5d a53e c541 663e
000000c0: a278 17be b473 c2be 767c 95bd 8107 d1bd
000000d0: 2728 a1be 2b20 ecbd 0056 c1be c428 d03d
000000e0: 5573 3fbe 39cf f6bd 22f8 cdbe 16ff 7cbe
000000f0: ca57 193e 84df e6be 3521 e53d 491d 0e3e
-0.3355953 -0.13682853 -0.14075816 -0.21643946 -0.033044927 -0.1099556 0.23893903 -0.1358577
-0.30433276 0.28289437 -0.14731807 0.27193752 0.20596205 0.21489194 0.009978815 -0.071621045
-0.26000977 0.027022699 0.02346941 0.09271256 0.36461934 0.32784384 0.07527108 -0.09528635
-0.053521067 -0.14452974 -0.534481 -0.15236968 0.1251103 0.3996469 -0.21674916 -0.3969977
0.21517254 -0.10122452 -0.093394525 -0.116264075 -0.22568122 0.2566798 0.13910535 -0.12048607
0.012247322 0.37347463 -0.24497561 0.36343017 -0.08043588 -0.18645464 0.32298023 0.22486027
-0.14792112 -0.379789 -0.0729913 -0.102065094 -0.31475946 -0.11529573 -0.37760925 0.101640254
-0.1869634 -0.12051243 -0.40228373 -0.24706683 0.14974895 -0.45092404 0.11187974 0.13878359
