results/model_1661328203.9619663/network_20.pth (torch, 130543 bytes, 16 tensors)

feature_net.act_cnn1.weight f4 [1, 1, 5, 1]
0.5125907 0.4567025 0.03352804 -1.2263191 0.26193145
00000000: 2539 033f e9d4 e93e b354 093d 06f8 9cbf
00000010: e11b 863e

actor_logit.actor_1.weight f4 [64, 110]
0.1261384 -0.14031215 -0.1094788 -0.00086414884 0.072228715 -0.04676033 -0.13708527 0.01293415
0.15303236 0.08355969 0.13765787 -0.52859247 0.051708907 -0.12650943 -0.11402558 -0.2287347
0.069228545 0.33407268 -0.31575087 0.004936264 0.036276825 -0.03270566 0.14360124 0.09565473
-0.040404655 0.077486254 0.053378407 0.09134111 -0.17816477 -0.13811648 0.07305907 0.019527797
0.01868226 0.029797468 0.08074139 0.10999499 0.031352084 -0.0853968 0.07687857 0.16445695
0.08243373 -0.23603214 -0.26850834 0.0015484638 -0.14394574 -0.14192824 0.010582692 -0.04336063
-0.13588071 0.038864385 0.009989415 -0.16981386 0.13767385 -0.11060067 0.05900028 -0.09848651
0.11671981 0.007952746 0.011071653 -0.036030464 -0.029998178 0.04678512 0.1333594 0.044812348
0.15407248 -0.00609902 0.27258584 0.040356252 0.10254226 -0.22857164 -0.15338086 0.21798807
0.23145579 0.1957271 0.115339056 0.02079166 0.10246328 -0.1732836 0.14242671 0.036971465
-0.10166213 0.18683413 0.012103283 -0.03819787 -0.15303797 -0.06718058 -0.071420215 -0.27239677
0.09065964 0.050410263 0.07418309 -0.08814195 -0.07047176 -0.07707505 -0.021246305 -0.007828027
-0.17568058 0.11152962 -0.093555085 -0.042989217 -0.211076 -0.08835833 0.08254171 -0.030062158
-0.12415277 0.029669814 -0.07542134 0.16488257 -0.17101954 -0.042733215 0.13343127 0.14329824
-0.010451871 0.23581783 -0.013413847 -0.24024853 -0.05403875 0.008281396 -0.42662284 0.15298413
0.26141027 0.14238314 -0.07440921 -0.12880763 0.0693185 -0.029798724 0.031056812 -0.11076709
-0.05870123 -0.21724585 -0.055682704 0.062904194 0.029881017 -0.002613173 -0.078336775 -0.06093329
-0.0056531024 0.059370853 -0.11432998 0.045931414 -0.11261025 0.08531631 -0.12502232 -0.06056092
-0.15354514 -0.0358657 0.012484246 -0.0462013 -0.20411068 -0.09240745 -0.16503538 -0.058987617
-0.053235017 0.03062911 -0.27346814 -0.081049494 -0.23350045 -0.010452057 0.11994623 -0.05243051
-0.17294134 0.12467774 0.12861213 0.2847089 -0.117035985 -0.007837442 -0.03076804 0.11365083
-0.0758744 -0.04460769 -0.022966688 0.097589366 0.20475745 0.050297573 0.29023737 0.06122696
-0.06476788 -0.08008893 -0.23617701 0.073405124 0.042107582 -0.22157206 0.0020595589 -0.014665118
0.013302171 0.11650082 0.0036392033 0.005782088 -0.048102926 -0.0076837954 0.013071589 -0.029795395
0.028203253 -0.14878434 -0.19435787 -0.061779004 -0.425997 0.033532538 -0.031241147 -0.12101407
0.2843034 0.06350017 0.17156768 -0.03636224 0.124159686 -0.075446926 -0.22763082 0.12337458
0.15555264 0.13051884 -0.14084578 -0.181398 0.037487466 0.1953365 -0.14494294 0.023355754
-0.20786808 0.094438165 0.07032902 -0.062185984 -0.08503899 0.2029682 0.13280623 0.27802777
-0.07815863 0.06534523 0.06790113 -0.32569492 0.059479203 0.12221177 0.04387159 -0.2009511
0.061108913 0.100387454 -0.08018107 0.049516123 0.116663724 0.15522815 0.20265381 -0.009012646
0.11116779 -0.1649473 -0.14574957 -0.017480733 -0.22931914 -0.18272564 0.114864826 0.024875395
-0.17665742 -0.010128676 0.12571023 -0.06948372 0.20719767 -0.040144585 0.039532106 -0.012597557
00000000: 6d2a 013e fdad 0fbe 6c36 e0bd 0c88 62ba
00000010: a6ec 933d c387 3fbd 1560 0cbe c2e9 533c
00000020: 84b4 1c3e 5821 ab3d 2ff6 0c3e d651 07bf
00000030: b8cc 533d b08b 01be 3e86 e9bd 6e39 6abe
00000040: b2c7 8d3d 930b ab3e 19aa a1be 62c0 a13b
00000050: 0297 143d 5ff6 05bd 340c 133e a1e6 c33d
00000060: 5a7f 25bd 1db1 9e3d 51a3 5a3d 0c11 bb3d
00000070: d370 36be 686e 0dbe fe9f 953d c2f8 9f3c
00000080: 8a0b 993c d219 f43c be5b a53d 0e45 e13d
00000090: 0b6b 003d 84e4 aebd 8372 9d3d 6767 283e
000000a0: 04d3 a83d 69b2 71be ed79 89be d3f5 ca3a
000000b0: 8366 13be a355 11be 0763 2d3c ea9a 31bd
000000c0: 5024 0bbe 4330 1f3d a5aa 233c afe3 2dbe
000000d0: 60fa 0c3e 9b82 e2bd 47aa 713d 4cb3 c9bd
000000e0: cc0a ef3d 3c4c 023c e165 353c ae94 13bd
000000f0: bdbe f5bc c1a1 3f3d 5e8f 083e 278d 373d
00000100: 2dc5 1d3e 4ada c7bb 5f90 8b3e 994c 253d
00000110: ad01 d23d af0e 6abe df0f 1dbe 4438 5f3e
00000120: bf02 6d3e af6c 483e e236 ec3d 4553 aa3c
00000130: 45d8 d13d 4271 31be 4fd8 113e 646f 173d
00000140: 3c34 d0bd 7251 3f3e d94c 463c 5f75 1cbd
00000150: fcb5 1cbe f995 89bd c344 92bd 9777 8bbe
00000160: c3ab b93d fe7a 4e3d 4eed 973d c483 b4bd
00000170: 8053 90bd 86d9 9dbd bb0c aebc 2041 00bc
00000180: 9ce5 33be a469 e43d cf99 bfbd 7615 30bd
00000190: 4f24 58be 36f5 b4bd a10b a93d ea44 f6bc
000001a0: cf43 febd 1c0e f33c 8176 9abd fad6 283e
000001b0: bf1f 2fbe 0609 2fbd 35a2 083e c6bc 123e
000001c0: 533e 2bbc 3b7a 713e c1c5 5bbc b603 76be
000001d0: bc57 5dbd b1ae 073c 4f6e dabe dfa7 1c3e
000001e0: 91d7 853e e3cc 113e db63 98bd 26e6 03be
000001f0: dcf6 8d3d 741c f4bc db6a fe3c dbd9 e2bd
00000200: b370 70bd b275 5ebe 8c13 64bd ead3 803d
00000210: 09c9 f43c c541 2bbb 086f a0bd 2f95 79bd
00000220: a93d b9bb da2e 733d d625 eabd 9422 3c3d
00000230: 34a0 e6bd 51ba ae3d da05 00be ba0e 78bd
00000240: f03a 1dbe eae7 12bd b98a 4c3c 933d 3dbd
00000250: 6402 51be 1e40 bdbd 09ff 28be 009d 71bd
00000260: f60c 5abd e6e9 fa3c 0404 8cbe 47fd a5bd
00000270: be1a 6fbe 1b3f 2bbc 5ea6 f53d 60c1 56bd
00000280: 8917 31be 0b57 ff3d e6b2 033e 5dc5 913e
00000290: 90b0 efbd 9d68 00bc 420d fcbc c4c1 e83d
000002a0: 0a64 9bbd 8eb6 36bd a324 bcbc efdc c73d
000002b0: f0ab 513e d404 4e3d fe99 943e 1fc9 7a3d
000002c0: 06a5 84bd aa05 a4bd 63d8 71be 6d55 963d
000002d0: 0079 2c3d c9e3 62be aaf9 063b f745 70bc
000002e0: 59f1 593c fb97 ee3d b37f 6e3b ab77 bd3b
000002f0: 9307 45bd 59c8 fbbb 382a 563c 7915 f4bc
00000300: 820a e73c ec5a 18be c005 47be fb0b 7dbd
00000310: 471c dabe 6a59 093d 6fed ffbc 3ad6 f7bd
00000320: 3790 913e 610c 823d 70af 2f3e 92f0 14bd
00000330: 6f47 fe3d eb83 9abd 0e18 69be d0ab fc3d
00000340: 3149 1f3e bba6 053e e039 10be 66c0 39be
00000350: 758c 193d 4b06 483e ec6b 14be 9154 bf3c
00000360: 5fdb 54be cc68 c13d a908 903d bbb6 7ebd
00000370: ec28 aebd e5d6 4f3e 5bfe 073e a859 8e3e
00000380: a211 a0bd b8d3 853d bf0f 8b3d 7cc1 a6be
00000390: 77a0 733d 2a4a fa3d b2b2 333d 20c6 4dbe
000003a0: 574d 7a3d f097 cd3d f935 a4bd 6bd1 4a3d
000003b0: 64ed ee3d 21f4 1e3e 7b84 4f3e c7a9 13bc
000003c0: f0ab e33d f2e7 28be 603f 15be c133 8fbc
000003d0: a3d2 6abe 6e1c 3bbe 403e eb3d 7cc7 cb3c
000003e0: afe5 34be bff2 25bc 2fba 003e 7b4d 8ebd
000003f0: a02b 543e a66e 24bd 6bec 213d fc65 4ebc

actor_logit.actor_1.bias f4 [64]
0.011268288 -0.007029147 0.00798927 -0.0058236723 -0.0034357929 0.003917321 0.029228143 -0.006967684
-0.015074697 0.013547464 -0.0003913921 -0.005232883 -0.001533228 0.0046019126 0.0052713114 -0.0051908623
0.015838291 0.008559886 -0.011697958 -0.0027652949 -0.024410283 0.00973714 -0.011889105 0.0006556534
0.002443515 0.015773771 0.0073605897 -0.010344398 0.0047147637 0.01858008 0.0034923537 0.018230358
0.007380199 -0.0011078076 0.010820665 0.0015247924 0.009888004 -0.007913861 0.022937123 0.000778178
0.012332014 0.00886566 -0.00715351 0.021416282 0.0107536875 0.0007723401 0.013591903 -0.011970036
-0.003312214 -0.0014369721 -0.0052566426 -0.0038547008 -0.0054137646 0.024938514 0.020959463 -0.0040246896
-0.023209505 -0.00793491 0.009178888 -0.011754652 -0.01196399 -0.016804 0.004864002 -0.004462584
00000000: a09e 383c c254 e6bb 6de5 023c 81d4 bebb
00000010: 0a2b 61bb df5c 803b dc6f ef3c 2b51 e4bb
00000020: ddfb 76bc 2ff6 5d3c c233 cdb9 9b78 abbb
00000030: 98f6 c8ba a4cb 963b f7ba ac3b 1c18 aabb
00000040: 4ebf 813c c43e 0c3c cba8 3fbc f339 35bb
00000050: 13f8 c7bc 8688 1f3c 85ca 42bc 28e0 2b3a
00000060: 6123 203b ff37 813c 1a31 f13b 8d7b 29bc
00000070: 4e7e 9a3b 4035 983c f9df 643b d557 953c
00000080: 99d5 f13b db33 91ba 2949 313c 8bdb c73a
00000090: 4b01 223c 24a9 01bc a2e6 bb3c a4fe 4b3a
000000a0: 370c 4a3c 4641 113c fe67 eabb 3371 af3c
000000b0: 3c30 303c de76 4a3a 93b0 5e3c f81d 44bc
000000c0: bb11 59bb c858 bcba ea3f acbb 269f 7cbb
000000d0: f365 b1bb db4b cc3c 2eb3 ab3c 8be1 83bb
000000e0: dc21 bebc 6d01 02bc 0c63 163c 9596 40bc
000000f0: 9c04 44bc 8ba8 89bc 3562 9f3b de3a 92bb

actor_logit.actor_2.weight f4 [64, 64]
0.035950452 0.06635906 0.17256053 0.14727566 0.28231236 -0.010252619 0.08787427 -0.027712174
-0.14958984 -0.07412665 0.063203976 -0.18100433 -0.23864236 0.21928565 -0.10943881 0.086038165
0.1408426 0.27597898 -0.013245035 0.041680776 0.20554812 0.05763342 0.07328494 0.1002703
-0.09371256 -0.4890016 0.16595261 0.17615293 0.15040128 0.1523703 -0.18496095 0.56582856
0.18926235 -0.22183684 0.37081236 0.21320936 -0.008924361 -0.15604651 0.063351795 -0.0449868
-0.02209618 -0.009936917 0.04595009 -0.008946018 -0.16162467 -0.2118149 0.1321085 0.053029507
-0.05795031 0.17501885 -0.06944554 0.05980367 -0.16350897 0.2634491 0.19474901 -0.04065383
0.21389465 -0.010813735 -0.06279454 -0.30230954 -0.296292 -0.21162407 0.14419006 -0.07738513
-0.15066777 -0.02595503 -0.27351835 -0.28918055 -0.061969515 0.03210425 0.36900938 0.34963843
-0.07061152 0.3215371 0.08766111 0.15254052 0.1333838 -0.09124099 -0.014213892 0.08834166
-0.099053964 -0.03179501 -0.09259179 0.1401291 -0.014454391 0.17514355 -0.17347023 -0.12104855
-0.23864368 -0.13689438 -0.035246193 0.06729956 0.101417236 0.12600152 -0.10209319 -0.18960215
0.19935882 0.0015732165 0.010679351 -0.12873706 -0.15213336 -0.13705069 0.1148542 -0.081220664
-0.47182596 -0.1112196 -0.15797733 0.21776177 0.1258959 0.35371807 0.2109514 -0.15210886
0.059683304 -0.10556322 0.26846796 -0.011240851 -0.0629084 0.040180802 -0.04712475 -0.14850156
0.30101627 -0.076558456 -0.2883049 -0.058581956 -0.24804778 0.10586294 0.23365489 -0.24171112
-0.0050073485 -0.013714444 0.09462797 -0.14636646 0.35505468 -0.022721034 -0.079199284 -0.12952614
0.11188081 0.22853753 0.072643384 -0.0010536253 0.17420933 -0.0024019512 -0.12882791 0.11644388
0.44588372 -0.14631061 0.01735167 -0.1385783 -0.18353905 -0.11168292 0.099564135 -0.2725986
0.07057174 0.16025823 0.044410594 -0.14378285 -0.0038038655 -0.16645657 -0.0025723805 -0.19938874
-0.30354145 -0.26337737 -0.24255183 0.33165148 0.115336545 0.0617498 0.21778263 -0.26485807
-0.12497775 0.08267348 0.2791728 0.0302679 -0.1898135 0.06913523 0.19372855 0.19453701
-0.19171816 0.013817512 0.065704994 -0.26102355 -0.31997615 -0.15924415 0.1636851 -0.04056406
-0.23300178 -0.14111787 -0.1318718 -0.043636505 -0.35738945 -0.123586014 0.16886497 -0.12065845
-0.1007197 0.20607802 -0.049429692 0.095983736 0.200376 0.018784879 0.20862933 -0.077429034
0.15250352 -0.088557504 0.0005177356 0.028355451 0.18292463 -0.057916056 0.10275528 0.028109275
-0.15030095 0.003404171 0.41452852 0.34626257 -0.15138295 0.10354584 -0.066972874 -0.046180665
-0.29176882 0.09507515 0.013424981 -0.27258855 0.14584267 -0.19809508 0.03276776 -0.021542972
-0.17840089 0.05846825 -0.08386262 -0.100291245 0.021742476 -0.023550756 0.15718053 0.19479477
-0.2358932 -0.17445384 0.5199022 -0.19198276 0.06445821 -0.3060448 -0.38027537 0.15026273
-0.13280886 0.12928888 -0.17046349 0.11046525 0.04814068 -0.12019641 -0.13718444 0.04339605
0.5044284 -0.13652426 -0.01398737 -0.22027183 0.0073363087 -0.0070733074 0.06156056 0.062143285
00000000: c840 133d 42e7 873d b5b3 303e 6ecf 163e
00000010: 3f8b 903e 9afa 27bc 6df7 b33d a404 e3bc
00000020: 142e 19be b7cf 97bd 1671 813d 3359 39be
00000030: aa5e 74be 6b8c 603e 7421 e0bd c734 b03d
00000040: 0b39 103e 1e4d 8d3e b401 59bc 76b9 2a3d
00000050: 357b 523e 0511 6c3d 6a16 963d 845a cd3d
00000060: 5fec bfbd 6b5e fabe 7bef 293e 6f61 343e
00000070: cb02 1a3e f606 1c3e 6766 3dbe 24da 103f
00000080: fdcd 413e 3229 63be 1edb bd3e 8e53 5a3e
00000090: 7c37 12bc a8ca 1fbe 96be 813d 1444 38bd
000000a0: 0c03 b5bc 73ce 22bc 2936 3c3d 5292 12bc
000000b0: f080 25be 01e6 58be 7347 073e 7835 593d
000000c0: 4e5d 6dbd 2438 333e 7739 8ebd b1f4 743d
000000d0: e56e 27be cde2 863e 496c 473e a184 26bd
000000e0: 3307 5b3e 182c 31bc 6c9a 80bd 51c8 9abe
000000f0: 96b3 97be fbb3 58be 8fa6 133e 187c 9ebd
00000100: a748 1abe a59f d4bc 990a 8cbe 790f 94be
00000110: bfd3 7dbd bf7f 033d ccee bc3e cf03 b33e
00000120: c69c 90bd 83a0 a43e ab87 b33d 9533 1c3e
00000130: c395 083e 8edc babd 62e1 68bc 79ec b43d
00000140: cedc cabd 7c3b 02bd c4a0 bdbd 017e 0f3e
00000150: 1cd2 6cbc d558 333e 2ea2 31be 4de8 f7bd
00000160: 025f 74be 0a2e 0cbe 505e 10bd 5ad4 893d
00000170: d7b3 cf3d 8b06 013e 3c16 d1bd 1127 42be
00000180: b824 4c3e 6334 ce3a 72f8 2e3c a6d3 03be
00000190: d9c8 1bbe 0457 0cbe ae38 eb3d 0557 a6bd
000001a0: 2c93 f1be 1ac7 e3bd cfc4 21be f1fc 5e3e
000001b0: dbea 003e 891a b53e a503 583e 6dc2 1bbe
000001c0: 7b76 743d 8831 d8bd a274 893e 8c2b 38bc
000001d0: 1fd6 80bd a094 243d e205 41bd cb10 18be
000001e0: ce1e 9a3e aeca 9cbd b39c 93be a2f3 6fbd
000001f0: 3d00 7ebe abce d83d 3a43 6f3e 1f83 77be
00000200: af14 a4bb 8cb2 60bc 4fcc c13d 17e1 15be
00000210: bac9 b53e 7621 babc 3c33 a2bd 80a2 04be
00000220: c421 e53d be05 6a3e 0ec6 943d cc19 8aba
00000230: ee63 323e 0e6a 1dbb 77eb 03be 217a ee3d
00000240: df4a e43e 73d2 15be 1725 8e3c 78e7 0dbe
00000250: a9f1 3bbe 04ba e4bd 48e8 cb3d 0b92 8bbe
00000260: eb87 903d bc1a 243e e2e7 353d d03b 13be
00000270: 464a 79bb 9773 2abe 6295 28bb 902c 4cbe
00000280: c969 9bbe 66d9 86be 825f 78be 39ce a93e
00000290: 9135 ec3d 5ced 7c3d 6902 5f3e 7a9b 87be
000002a0: 56f4 ffbd b750 a93d bdef 8e3e 63f4 f73c
000002b0: 785e 42be c596 8d3d c760 463e b634 473e
000002c0: c451 44be d962 623c 5790 863d e1a4 85be
000002d0: ead3 a3be e610 23be 119d 273e 8026 26bd
000002e0: 0598 6ebe 3481 10be 6709 07be 31bc 32bd
000002f0: c0fb b6be aa1a fdbd f0ea 2c3e c71b f7bd
00000300: 2146 cebd 1e06 533e ca76 4abd 1f93 c43d
00000310: 5e2f 4d3e bfe2 993c eda2 553e 1d93 9ebd
00000320: e229 1c3e a35d b5bd a6b8 073a b149 e83c
00000330: 9850 3b3e 6339 6dbd 5c71 d23d 6c45 e63c
00000340: 7ee8 19be 8318 5f3b 153d d43e 5449 b13e
00000350: 2204 1bbe d70f d43d 1329 89bd f027 3dbd
00000360: b962 95be c3b6 c23d 74f4 5b3c ba90 8bbe
00000370: c857 153e 70d9 4abe 7d37 063d e37a b0bc
00000380: b9ae 36be 677c 6f3d 2ac0 abbd 7f65 cdbd
00000390: 471d b23c 84ed c0bc eff3 203e 4878 473e
000003a0: fd8d 71be 07a4 32be 5018 053f 2197 44be
000003b0: aa02 843d e7b1 9cbe 74b3 c2be 79de 193e
000003c0: 0cff 07be 4e64 043e fb8d 2ebe 9b3b e23d
000003d0: 292f 453d 8929 f6bd 147a 0cbe 0ec0 313d
000003e0: 3822 013f 04cd 0bbe 482b 65bc f08e 61be
000003f0: 6b65 f03b 34c7 e7bb ed26 7c3d f589 7e3d

actor_logit.actor_2.bias f4 [64]
0.012824585 0.01817889 -0.0061523938 -0.005004779 0.0054933433 0.008693358 0.0070809755 0.020714393
0.0037275942 -0.009647334 0.017455077 -0.00096709497 0.0148281455 0.0096443845 0.00080513966 0.009550092
0.007158323 0.013277737 -5.926883e-06 0.0049247527 0.006599979 0.00859377 0.0016990311 0.009545305
0.012918162 0.007517667 0.00022219373 0.00820077 0.003105933 0.00027316675 0.0014679228 0.0028145195
0.004493385 0.0046115997 -0.0056627085 0.009635942 0.01359588 0.008147405 -0.019146673 -0.0018769308
0.0072284495 -0.011055456 0.013082782 -0.0045988625 -0.0022813433 -0.004715831 -0.00027200286 0.005607388
0.0051568444 0.024458816 0.0041743475 0.0057224887 0.017519193 -0.005610078 0.01643797 0.015635518
0.009527366 0.014189839 0.003121087 0.010421452 -0.00922758 -0.0006818153 0.01720534 0.010554289
00000000: 351e 523c e5eb 943c 059a c9bb 21ff a3bb
00000010: 8101 b43b 966e 0e3c 8707 e83b 3bb1 a93c
00000020: a74a 743b da0f 1ebc f3fd 8e3c a584 7dba
00000030: c0f1 723c 7b03 1e3c 0210 533a fd77 1c3c
00000040: 5e90 ea3b de8a 593c 8adf c6b6 d25f a13b
00000050: a344 d83b e2cc 0c3c 06b2 de3a e963 1c3c
00000060: b3a6 533c c356 f63b adfc 6839 865c 063c
00000070: e98c 4b3b d237 8f39 5167 c03a cd73 383b
00000080: 3f3d 933b e71c 973b 3e8e b9bb 12e0 1d3c
00000090: 41c1 5e3c b27c 053c 7cd9 9cbc 5903 f6ba
000000a0: a1dc ec3b f121 35bc 2a59 563c 0eb2 96bb
000000b0: 9782 15bb 4287 9abb 9b9b 8eb9 2ebe b73b
000000c0: bffa a83b db5d c83c f7c8 883b b783 bb3b
000000d0: 6984 8f3c bfd4 b7bb eca8 863c 0f16 803c
000000e0: ab18 1c3c 807c 683c 278b 4c3b bdbe 2a3c
000000f0: 472f 17bc dabb 32ba 37f2 8c3c e6eb 2c3c

actor_logit.actor_3.weight f4 [64, 64]
0.1484282 -0.14330077 -0.053460162 0.26681533 -0.11208081 0.1957287 0.025439957 -0.1115279
0.20411362 -0.19366719 -0.15099142 0.20190604 0.064918384 -0.0013494896 -0.058450192 -0.27363467
-0.18733472 -0.2292377 0.15538238 0.04508603 -0.0971097 -0.18310556 -0.04812671 0.14764741
-0.20778753 0.054113064 0.104705274 -0.0035185763 -0.20300561 0.1143494 0.043483485 -0.017563919
0.13587591 -0.16613173 -0.30705065 0.11133856 -0.15538022 -0.13188748 0.024165051 -0.31787002
0.11252949 0.09575523 -0.031137507 0.077935755 0.10192865 0.009190354 -0.1224654 -0.3262622
-0.06110395 -0.33125967 -0.3928485 0.21539262 -0.091361955 0.039320987 0.25677267 -0.26502812
0.25384244 -0.25520837 -0.0622559 0.053933103 0.15383938 -0.08103219 0.42156845 -0.20130925
-0.119760275 0.093083724 -0.18010585 -0.20885096 0.15448245 -0.26444247 -0.18114384 0.06774974
0.27620417 -0.07609084 0.0882158 -0.007802745 0.14688721 0.41748935 0.06576961 0.2964903
0.26345485 0.08133148 0.21174312 0.16238676 0.05983382 -0.0499578 0.08066302 -0.02584128
-0.3059683 0.25243288 -0.04751969 -0.035059616 -0.030393843 0.10152857 -0.22259927 -0.013200038
-0.0038703058 0.04057035 -0.20063372 0.22187798 -0.2912422 -0.112412505 0.13379529 -0.15959367
0.29479575 0.10950304 0.108703054 0.19982956 0.1907975 0.066845804 0.11057756 0.40144527
-0.19862464 0.11275403 -0.015998226 -0.16636604 -0.3787289 0.033879116 0.08870068 -0.09112659
-0.1271424 0.10867049 -0.17625035 -0.19712546 -0.117369294 -0.24160415 0.13618782 0.23537111
0.21084571 0.19923213 0.32078132 0.070826724 0.3856586 0.05010081 -0.1201706 -0.3471962
0.020441126 -0.16410345 0.07571759 -0.011860343 0.25319865 -0.25084695 -0.29955566 -0.07729713
-0.08559459 0.10413974 -0.20848945 -0.041620474 0.18765432 0.1962936 0.09395537 0.13080321
-0.0023966974 -0.21342878 0.31744298 -0.06544194 -0.23119831 0.113914356 -0.17784004 -0.09756282
-0.15491645 0.1756993 0.009085433 0.12514868 -0.059896108 0.22820786 -0.16885114 -0.32894138
0.041336752 0.088437416 0.39870113 0.012676592 -0.33330825 0.022017727 -0.08806199 0.0645299
0.0462402 -0.059761785 0.2187795 -0.025831655 -0.19545086 0.20031072 -0.11956746 -0.05494581
-0.124087796 0.21061602 -0.06482391 -0.04123166 -0.09424224 -0.11341963 0.2632719 -0.05652827
0.0710633 0.040120784 0.45881402 -0.13705924 -0.1648188 0.054419793 -0.29142183 0.05842286
0.18005721 -0.16445373 0.18038069 -0.043939035 -0.14069553 0.33989784 0.19579834 0.03051184
0.007851476 0.18576567 0.055042714 -0.051451113 0.08013522 -0.03339132 0.11217574 0.0767172
-0.041672107 0.33298808 -0.097622745 -0.0899992 0.21894568 -0.13835791 -0.07376395 -0.30523914
0.32049543 0.3040074 0.11939989 -0.103396975 0.11399743 -0.1145251 -0.045211438 -0.10349825
-0.056617383 0.23145042 0.058978103 0.09272548 -0.04705809 -0.028537227 -0.16741593 -0.17127918
0.069031075 -0.3793574 0.26354748 0.12262807 0.105128065 -0.27429426 -0.23332159 -0.26035985
0.23935093 0.108611524 -0.16892558 0.04292956 -0.037299354 -0.04465324 -0.124795385 -0.26415086
00000000: 90fd 173e 70bd 12be 0bf9 5abd 059c 883e
00000010: a08a e5bd 1b6d 483e 7567 d03c bd68 e4bd
00000020: 2903 513e b150 46be 7f9d 1abe 75c0 4e3e
00000030: eef3 843d 5be1 b0ba 7869 6fbd d819 8cbe
00000040: acd4 3fbe 4abd 6abe 8f1c 1f3e 21ac 383d
00000050: 73e1 c6bd 0680 3bbe 8320 45bd e230 173e
00000060: 41c6 54be a9a5 5d3d b86f d63d ea97 66bb
00000070: b4e0 4fbe 0530 ea3d bd1b 323d 35e2 8fbc
00000080: 0e23 0b3e 701e 2abe be35 9dbe 7905 e43d
00000090: fe1b 1fbe 830d 07be c9f5 c53c dcbf a2be
000000a0: dc75 e63d 511b c43d 1614 ffbc c89c 9f3d
000000b0: f8bf d03d 2393 163c 24cf fabd d70b a7be
000000c0: 2348 7abd de9a a9be 7023 c9be e28f 5c3e
000000d0: fa1b bbbd 0b0f 213d b577 833e c4b1 87be
000000e0: a3f7 813e acaa 82be 0b00 7fbd f5e8 5c3d
000000f0: 1288 1d3e 34f4 a5bd d2d7 d73e 0324 4ebe
00000100: e044 f5bd aea2 be3d ab6d 38be 07dd 55be
00000110: a630 1e3e 0165 87be c57d 39be 60c0 8a3d
00000120: a26a 8d3e 84d5 9bbd 7caa b43d 2bae ffbb
00000130: 9a69 163e 2ac1 d53e 38b2 863d 94cd 973e
00000140: 8ee3 863e 1e91 a63d 30d3 583e b748 263e
00000150: 4f14 753d 8da0 4cbd a732 a53d 18b1 d3bc
00000160: e1a7 9cbe e23e 813e 02a4 42bd ac9a 0fbd
00000170: 82fc f8bc 36ee cf3d 10f1 63be f944 58bc
00000180: f5a4 7dbb 182d 263d ed72 4dbe fb33 633e
00000190: b31d 95be 8738 e6bd a201 093e 866c 23be
000001a0: 78ef 963e 2143 e03d b59f de3d 1fa0 4c3e
000001b0: 6b60 433e 74e6 883d 7d76 e23d 3c8a cd3e
000001c0: 4264 4bbe 96eb e63d b60e 83bc dc5b 2abe
000001d0: c1e8 c1be d4c4 0a3d b4a8 b53d 94a0 babd
000001e0: 9e31 02be a28e de3d f97a 34be 42db 49be
000001f0: 505f f0bd 1467 77be d274 0b3e 2005 713e
00000200: f0e7 573e 8203 4c3e 733d a43e 9a0d 913d
00000210: 0b75 c53e 8236 4d3d 011c f6bd b3c3 b1be
00000220: 2674 a73c bc0a 28be d311 9b3d e251 42bc
00000230: 41a3 813e 036f 80be 5c5f 99be f54d 9ebd
00000240: 374c afbd 3747 d53d 427e 55be 3b7a 2abd
00000250: 7428 403e 3101 493e ac6b c03d 47f1 053e
00000260: e911 1dbb 138d 5abe e387 a23e 6d06 86bd
00000270: 40bf 6cbe ee4b e93d b31b 36be 04cf c7bd
00000280: 6ba2 1ebe 84ea 333e 11db 143c fa26 003e
00000290: 9f55 75bd 52af 693e 50e7 2cbe 016b a8be
000002a0: ba50 293d ad1e b53d 8e22 cc3e 7bb1 4f3c
000002b0: 61a7 aabe 855e b43c d859 b4bd 4128 843d
000002c0: 5d66 3d3d c6c8 74bd bc07 603e e89c d3bc
000002d0: 4524 48be 411e 4d3e c9df f4bd dc0e 61bd
000002e0: be21 febd baab 573e 66c2 84bd 87e2 28bd
000002f0: 1302 c1bd 8d48 e8bd 93cb 863e 308a 67bd
00000300: a389 913d b155 243d ace9 ea3e 4259 0cbe
00000310: 42c6 28be 4ae7 5e3d 3e35 95be cf4c 6f3d
00000320: eb60 383e 8f66 28be b7b5 383e 6bf9 33bd
00000330: 7d12 10be 1707 ae3e 5c7f 483e f7f3 f93c
00000340: 7aa3 003c 5b39 3e3e 7874 613d 67be 52bd
00000350: ef1d a43d 56c5 08bd 65bc e53d e81d 9d3d
00000360: 5fb0 2abd 6a7d aa3e 6fee c7bd 8051 b8bd
00000370: 4c33 603e b2ad 0dbe 8e11 97bd 4e48 9cbe
00000380: fa17 a43e dca6 9b3e ee87 f43d cbc1 d3bd
00000390: 7c77 e93d 238c eabd a12f 39bd e4f6 d3bd
000003a0: a1e7 67bd 5701 6d3e 0693 713d dbe6 bd3d
000003b0: fcbf 40bd e7c6 e9bc 156f 2bbe cf63 2fbe
000003c0: 2a60 8d3d 223b c2be b2ef 863e 6d24 fb3d
000003d0: 624d d73d 4c70 8cbe dbeb 6ebe e34d 85be
000003e0: 6918 753e b86f de3d d4fa 2cbe e8d6 2f3d
000003f0: 35c7 18bd 51e6 36bd b994 ffbd c83e 87be

actor_logit.actor_3.bias f4 [64]
-0.0071674255 0.007725238 -0.0014092752 -0.0036498671 0.0063857213 0.02116719 0.02214446 0.014847684
-0.0032575151 0.004291052 -0.0107702445 0.034443635 -0.0043389667 0.009759578 -0.0026336957 -0.002890643
-0.0020381024 0.012460103 0.012367063 0.012073799 0.022121156 0.0032007557 -0.019099245 0.0021212858
-0.018375183 0.0076133497 0.00015937442 0.03242877 0.0039856546 0.0010255317 -0.0068515437 0.014423207
0.011728371 0.007698764 0.013603479 0.018728698 -0.007885534 -0.008084121 0.009323635 0.026225645
-0.0061574364 0.009387957 0.003777297 -0.0050418535 0.01410715 0.0039329673 0.0123058 -0.00094621856
-0.011728305 0.0011466877 -0.0038972704 -0.005079292 -0.0049301805 -0.00670345 -0.00061013224 0.008471759
0.0 -0.0035344588 0.0027321302 -0.005910056 0.0056850207 -0.0037537706 0.0 -0.0022450718
00000000: b9dc eabb fe23 fd3b 6eb7 b8ba 9c32 6fbb
00000010: 503f d13b d166 ad3c 4c68 b53c b343 733c
00000020: 097c 55bb f49b 8c3b ae75 30bc c514 0d3d
00000030: e42d 8ebb a3e6 1f3c 159a 2cbb f170 3dbb
00000040: af91 05bb 7625 4c3c 399f 4a3c 2fd1 453c
00000050: 6d37 b53c c5c3 513b 0576 9cbc 4505 0b3b
00000060: 8d87 96bc 6879 f93b bf1d 2739 08d4 043d
00000070: 189a 823b 226b 863a ea82 e0bb 514f 6c3c
00000080: 5a28 403c ea45 fc3b 20e1 5e3c ed6c 993c
00000090: 5432 01bc 4373 04bc 29c2 183c 2ad7 d63c
000000a0: 52c4 c9bb f2cf 193c 878c 773b 2236 a5bb
000000b0: ad21 673c 1fe0 803b 449e 493c a70b 78ba
000000c0: 1428 40bc 744c 963a 5969 7fbb 3170 a6bb
000000d0: 5a8d a1bb 9da8 dbbb 48f1 1fba 22cd 0a3c
000000e0: 0000 0000 61a2 67bb 8a0d 333b 25a9 c1bb
000000f0: 6949 ba3b d201 76bb 0000 0000 0e22 13bb

critic_value.critic_1.weight f4 [64, 110]
0.10531324 0.0106075555 0.19849196 0.15827452 0.017840292 0.39151502 -0.2345799 -0.007007479
0.028820856 0.035404965 -0.041090384 0.17626864 -0.07744562 0.0840192 -0.049763806 0.126675
0.22227488 0.021717547 0.2717096 0.01652159 0.26094505 -0.0066987723 -0.07999187 -0.005531097
-0.15443577 0.03848349 0.2594514 0.25840342 -0.06410384 -0.2018015 -0.08219099 0.09547947
0.12633957 0.12725775 0.19239825 -0.14670417 -0.046448044 -0.14289047 0.05217568 0.10569419
0.0680065 0.15849273 0.13604012 0.24453788 0.16474931 0.16540182 0.313356 0.5732212
0.34293303 0.060246557 -0.19244045 0.03672873 0.13483804 -0.03163232 0.03945234 0.037437946
-0.050610352 0.11066733 0.24492596 0.26819673 0.18402086 0.14951281 0.083645016 0.088087514
0.020383935 0.24380128 -0.20905542 0.059091907 -0.09239129 0.2323442 0.12363231 0.097095266
-0.024221266 -0.00026335183 -0.011172753 -0.09750238 0.2182669 0.03379994 -0.24835837 -0.07626314
-0.12236059 0.15666112 0.121355526 0.14749493 0.045148224 0.07128347 0.20830232 -0.2604026
0.025674598 -0.031310055 0.3132178 0.16304514 0.27890792 0.20914167 0.052512564 0.091844045
-0.16871907 0.041313272 0.13454707 -0.028866874 -0.057679184 -0.034537636 0.017355142 -0.12789726
0.009048942 -0.111695446 0.004396099 -0.22083224 0.005835465 0.008278192 0.24847583 0.15882272
0.08089054 0.18208598 0.16159374 0.12063795 -0.02451432 0.078166105 0.14238954 0.18202405
-0.053680614 -0.09302422 0.039840005 0.27466306 -0.19991168 -0.06274862 0.11296557 0.27933064
0.03873608 0.038473446 0.15516068 -0.20633699 0.1601136 0.13477357 0.13951847 0.13353352
0.12012583 0.022930004 0.025988214 0.032399792 0.18673366 -0.087169886 0.35673016 0.25738654
0.3163251 0.10741021 0.0062260665 0.19843805 -0.22368264 0.04639767 -0.18969771 -0.1781591
-0.16029173 0.07808858 0.07425034 0.2561838 0.054750245 0.12748975 0.17758182 -0.08320742
0.12860624 0.1033843 0.05563438 0.20340969 0.1672051 0.014800289 -0.22405303 0.22860853
0.032264452 -0.022708945 0.25695142 -0.18270974 -0.079682976 -0.2285518 -0.099449195 -0.13494545
-0.19013992 -0.06468059 0.1405759 0.16249219 -0.16460697 -0.25607085 -0.083303705 -0.20912078
0.08319697 -0.09819379 0.08032776 -0.04567135 -0.26204857 -0.019020448 0.11122972 -0.17734432
-0.024465442 0.097943544 0.17179054 0.21175414 -0.02017925 -0.005322658 -0.07606269 -0.05486891
0.0714247 0.09234702 -0.13276547 -0.07272606 0.20959727 -0.07555676 0.029289722 0.10982991
-0.005639974 0.32023022 -0.009524056 0.059116933 0.13998549 0.020917708 0.22752053 0.14256792
0.1272217 0.05665384 0.038221538 0.1073971 0.15775326 -0.2781323 -0.067541756 -0.03505937
0.23836808 0.24579793 0.038464535 0.09494328 0.065812565 0.05844843 -0.3049026 -0.15553503
-8.939696e-05 0.27876678 0.04410399 -0.0003713487 0.01368523 -0.022436583 0.10852156 0.11532389
0.08079231 0.20147185 -0.14053476 0.016719116 -0.028192444 -0.039709497 0.04141683 -0.06820277
0.25594756 0.2376654 0.02875034 -0.0025286665 0.1434823 -0.31311497 0.012967451 -0.18309362
00000000: 78ae d73d 50cb 2d3c 7a41 4b3e b712 223e
00000010: ce25 923c a874 c83e b735 70be ff9e e5bb
00000020: b719 ec3c cc04 113d 644e 28bd c47f 343e
00000030: cf9b 9ebd 4212 ac3d 22d5 4bbd 17b7 013e
00000040: 079c 633e ffe8 b13c 851d 8b3e 4958 873c
00000050: 979a 853e 6081 dbbb c7d2 a3bd 343e b5bb
00000060: 6924 1ebe dda0 1d3d d0d6 843e 744d 843e
00000070: e048 83bd 0da5 4ebe c053 a8bd be8a c33d
00000080: 295f 013e db4f 023e 0c04 453e 9e39 16be
00000090: 4e40 3ebd e151 12be 2ab6 553d 3276 d83d
000000a0: fe46 8b3d eb4b 223e 1a4e 0b3e 2368 7a3e
000000b0: 0bb4 283e 185f 293e 3370 a03e a0be 123f
000000c0: eb94 af3e 18c5 763d 1c0f 45be dd70 163d
000000d0: fc12 0a3e e490 01bd c798 213d 8858 193d
000000e0: cd4c 4fbd 8ea5 e23d dfcd 7a3e 1551 893e
000000f0: f76f 3c3e e319 193e 144e ab3d 3a67 b43d
00000100: 36fc a63c 0ba7 793e a012 56be 5b0a 723d
00000110: a537 bdbd a3eb 6d3e f032 fd3d e2d9 c63d
00000120: ad6b c6bc 7c12 8ab9 ec0d 37bc 54af c7bd
00000130: 5c81 5f3e ce71 0a3d a851 7ebe d92f 9cbd
00000140: 3098 fabd c66b 203e 3f89 f83d e908 173e
00000150: 58ed 383d 11fd 913d 344d 553e 7d53 85be
00000160: 8953 d23c f93e 00bd 155e a03e 4ef5 263e
00000170: 05cd 8e3e 3c29 563e 6a17 573d bb18 bc3d
00000180: b1c4 2cbe 1b38 293d b5c6 093e 397a ecbc
00000190: 0241 6cbd 5677 0dbd 5f2c 8e3c 80f7 02be
000001a0: 0342 143c 95c0 e4bd 270d 903b d921 62be
000001b0: 6e37 bf3b 41a1 073c 7370 7e3e 6ca2 223e
000001c0: f0a9 a53d bf74 3a3e d478 253e 0811 f73d
000001d0: 41d2 c8bc 8d15 a03d 90ce 113e 8364 3a3e
000001e0: 34e0 5bbd 7b83 bebd 462f 233d a3a0 8c3e
000001f0: a6b5 4cbe 5982 80bd 7e5a e73d 6d04 8f3e
00000200: b9a9 1e3d 5596 1d3d 71e2 1e3e 014a 53be
00000210: d2f4 233e 1502 0a3e eedd 0e3e 03bd 083e
00000220: 8804 f63d b4d7 bb3c 3ce5 d43c a5b5 043d
00000230: 1c37 3f3e 2086 b2bd 56a5 b63e 2bc8 833e
00000240: 5df5 a13e e2f9 db3d 0804 cc3b 5833 4b3e
00000250: 100d 65be 7c0b 3e3d 1e40 42be 576f 36be
00000260: 8423 24be e8ec 9f3d 9010 983d 862a 833e
00000270: cb41 603d ac8c 023e 02d8 353e a768 aabd
00000280: 5bb1 033e 26bb d33d e0e0 633d a14a 503e
00000290: d037 2b3e e97c 723c 286e 65be 5b18 6a3e
000002a0: bb27 043d 1c08 babc 238f 833e 4318 3bbe
000002b0: d430 a3bd 7c09 6abe 05ac cbbd 242f 0abe
000002c0: 0ab4 42be 4277 84bd 21f3 0f3e 5a64 263e
000002d0: bb8e 28be b81b 83be 229b aabd c223 56be
000002e0: 2c63 aa3d d319 c9bd e182 a43d e211 3bbd
000002f0: 3b2b 86be c5d0 9bbc 68cc e33d c099 35be
00000300: c06b c8bc a096 c83d dce9 2f3e 14d6 583e
00000310: f44e a5bc b169 aebb c1c6 9bbd 39be 60bd
00000320: 1d47 923d 6f20 bd3d acf3 07be 67f1 94bd
00000330: aba0 563e 81bd 9abd 00f1 ef3c 81ee e03d
00000340: 88cf b8bb 37f5 a33e c90a 1cbc 9924 723d
00000350: 5b58 0f3e 9d5b ab3c 24fb 683e 53fd 113e
00000360: 6846 023e db0d 683d 308e 1c3d 03f3 db3d
00000370: 128a 213e 5b67 8ebe 5553 8abd 6a9a 0fbd
00000380: c316 743e 74b2 7b3e fd8c 1d3d 9f71 c23d
00000390: bdc8 863d 9f67 6f3d 321c 9cbe 9344 1fbe
000003a0: a17a bbb8 85ba 8e3e 63a6 343d 94b1 c2b9
000003b0: 0438 603c edcc b7bc 8d40 de3d ee2e ec3d
000003c0: 7076 a53d a34e 4e3e 58e8 0fbe 87f6 883c
000003d0: d7f3 e6bc 6da6 22bd b2a4 293d e5ad 8bbd
000003e0: 8f0b 833e 8f5e 733e d585 eb3c fcb7 25bb
000003f0: 06ed 123e 9b50 a0be 6e75 543c e57c 3bbe

critic_value.critic_1.bias f4 [64]
0.07972832 0.045116983 0.003342338 0.062961355 0.09071681 0.0408337 0.079786494 0.051812377
0.048073005 0.047036063 0.103114925 0.05528672 0.05528505 0.06987809 0.050153904 0.03209844
-0.006733477 -0.02621813 0.0045546624 0.036698274 0.099557824 0.020011256 0.057212736 0.032232616
0.026734633 0.04861658 0.0062121614 -0.011082346 0.07668892 0.06743631 0.0026683565 0.068114504
-0.0008271496 0.04076899 0.074628465 0.050479036 0.04997649 -0.006380132 0.059220478 0.046824854
0.07440728 0.104783244 0.043019053 -0.007599082 0.0022622715 -0.013099431 0.058798466 0.029034864
0.009503348 0.083609276 0.014857727 0.07854975 0.062038958 0.033169296 -0.010380954 0.073738575
0.079860434 0.05668141 0.023888249 0.058022916 -0.009236742 0.035647426 0.05970139 -0.044128798
00000000: 9a48 a33d 96cc 383d 200b 5b3b e2f1 803d
00000010: bcc9 b93d 3d41 273d 1a67 a33d 3739 543d
00000020: 33e8 443d e3a8 403d eb2d d33d 5474 623d
00000030: 9472 623d 3e1c 8f3d 2e6e 4d3d a779 033d
00000040: 80a4 dcbb 67c7 d6bc 473f 953b ee50 163d
00000050: f9e4 cb3d a5ee a33c e757 6a3d 5906 043d
00000060: 9702 db3c 2e22 473d 638f cb3b ba92 35bc
00000070: 150f 9d3d 0c1c 8a3d 98df 2e3b 9e7f 8b3d
00000080: 12d5 58ba 62fd 263d cfd6 983d 1bc3 4e3d
00000090: 26b4 4c3d 6d10 d1bb 2c91 723d 6bcb 3f3d
000000a0: d862 983d 9998 d63d bf34 303d b801 f9bb
000000b0: 9e42 143b ff9e 56bc a9d6 703d 86da ed3c
000000c0: eeb3 1b3c 573b ab3d d36d 733c b1de a03d
000000d0: 901c 7e3d 87dc 073d e014 2abc 4004 973d
000000e0: de8d a33d c42a 683d 4ab1 c33c 70a9 6d3d
000000f0: b455 17bc 0903 123d 7289 743d 66c0 34bd

critic_value.critic_2.weight f4 [64, 64]
0.049443647 -0.19088928 -0.10747908 0.0031112698 0.059376605 -0.1412047 0.06133323 -0.058872852
-0.18721992 -0.0010615737 -0.2468229 0.20649551 0.09409653 -0.2608698 -0.25140476 0.089457
-0.399456 -0.07789991 -0.20448346 0.28090975 -0.06579412 -0.20762575 -0.04905341 0.0940988
0.20470549 0.09080785 0.051980183 0.29497507 0.12389991 -0.2637749 -0.089620955 -0.12765123
-0.16918692 0.44955656 0.021515442 -0.27845404 0.111169845 0.09481106 -0.06437417 -0.12308602
-0.35343412 -0.061433066 -0.05548799 -0.054483593 -0.24246772 -0.26889735 0.08242491 -0.1604973
0.15127115 0.119252495 0.18105136 0.071921594 0.039395753 -0.27162778 -0.15370196 -0.006948576
-0.008990813 0.20814605 0.02947042 0.21447027 -0.19927813 -0.14571318 -0.2535176 0.025648076
0.2868425 -0.030002454 0.1853508 0.08287472 0.14199607 0.08273371 0.029096369 0.4121624
-0.059382558 0.33489883 0.12434247 -0.18236534 0.022792099 -0.05755767 -0.022142138 0.049282044
0.23511156 0.0005884493 0.32305327 0.20833251 0.5421727 -0.26848248 0.086201265 0.41431445
-0.02238153 0.2354387 0.3627423 -0.18648787 0.1579315 0.12925068 0.12305142 0.27442008
-0.15171994 0.101868235 -0.038226143 0.090961024 0.14512019 0.053344887 -0.011173766 0.09420511
0.112441584 0.060055487 -0.06239231 -0.0002882663 -0.1718294 -0.058617458 -0.2091887 0.18147108
0.011323239 0.39687902 0.014133447 -0.06440759 -0.43404981 -0.054668114 0.017789232 0.019765047
0.12969777 0.2854414 -0.06640624 0.18183818 -0.044657987 0.13371043 0.22938119 -0.012495391
0.2656097 0.08524822 -0.04063234 -0.17485428 0.33158028 0.32251957 0.22482254 0.38114625
0.1256369 0.2700688 -0.16981854 0.30404347 0.031887174 -0.024576178 0.18263981 0.02977187
0.13178661 0.07073142 0.03570227 0.027756523 0.1375835 0.14197952 0.08577935 -0.17603342
-0.303011 0.08071161 -0.04816324 -0.071930595 0.13545085 -0.0024857903 0.18694441 0.0026722534
-0.04797686 0.15391432 0.13563646 0.022055816 0.19725135 0.10896084 0.3433538 0.06798991
0.09860696 -0.24005103 0.1557761 0.17560412 -0.048592035 -0.07264469 0.3231731 -0.30218032
-0.123535514 -0.12068982 -0.37551454 0.095213205 0.37068826 0.2887589 0.21643198 -0.1615908
0.16370124 0.2716808 -0.117907636 -0.031228814 -0.23949301 -0.3825169 0.16096598 -0.36161792
-0.23798178 0.2548227 -0.23613064 0.08778322 0.13317871 -0.25763276 -0.18575141 0.3353298
0.13365982 0.056064684 0.056872044 0.056405447 -0.02599246 0.1897423 0.22784773 -0.21672308
0.08339478 -0.2018487 0.38331503 -0.028761398 -0.20310342 -0.0028280227 -0.5310532 0.3807402
0.034059193 0.015413227 0.30054158 -0.10073801 -0.0845473 -0.037028152 0.22079341 -0.17486471
-0.27682427 -0.04025506 0.008316138 -0.040293932 -0.14255247 0.024040319 0.08679616 -0.07531135
-0.01978892 0.3061717 -0.053263854 0.30812502 -0.19357096 0.08731687 0.02768274 0.009890122
0.032247663 0.19820431 0.2699717 -0.014396858 0.3156483 0.1401672 -0.2942182 0.06061414
-0.09991104 0.03414988 0.035849825 -0.013111098 0.23761462 0.10401207 -0.09175026 -0.045670077
00000000: 6c85 4a3d 7b78 43be fe1d dcbd 72e6 4b3b
00000010: e234 733d f797 10be 8e38 7b3d a924 71bd
00000020: 94b6 3fbe 8124 8bba 24bf 7cbe 8f73 533e
00000030: aeb5 c03d ba90 85be 20b8 80be 3b35 b73d
00000040: 7f85 ccbe fd89 9fbd 1d64 51be 67d3 8f3e
00000050: 11bf 86bd d89b 54be 3aec 48bd dfb6 c03d
00000060: 519e 513e 77f9 b93d 2ce9 543d f906 973e
00000070: 3cbf fd3d 810d 87be 318b b7bd 01b7 02be
00000080: 563f 2dbe 472c e63e 2741 b03c 8791 8ebe
00000090: 04ad e33d 4d2c c23d 9bd6 83bd 8614 fcbd
000000a0: 51f5 b4be 3da1 7bbd 6047 63bd 302a 5fbd
000000b0: 7549 78be eaac 89be 64ce a83d 6759 24be
000000c0: d3e6 1a3e a73a f43d 8765 393e a14b 933d
000000d0: 715d 213d cc12 8bbe 0c64 1dbe e1b0 e3bb
000000e0: 344e 13bc 3d24 553e f36b f13c 189e 5b3e
000000f0: 910f 4cbe d635 15be 0fcd 81be ea1b d23c
00000100: 05dd 923e b5c7 f5bc 9acc 3d3e 39ba a93d
00000110: 6b67 113e 4b70 a93d 825b ee3c f306 d33e
00000120: 203b 73bd dc77 ab3e 44a7 fe3d fbbd 3abe
00000130: 7fb6 ba3c 97c1 6bbd 6e63 b5bc f8db 493d
00000140: 16c1 703e 2a42 1a3a 3d67 a53e 1e55 553e
00000150: d4cb 0a3f 8976 89be 4a8a b03d 0621 d43e
00000160: 7859 b7bc d816 713e 5cb9 b93e adf6 3ebe
00000170: ccb8 213e 4a5a 043e 6202 fc3d ca80 8c3e
00000180: 795c 1bbe 4ba0 d03d 0493 1cbd c649 ba3d
00000190: 639a 143e 2b80 5a3d 2c12 37bc 9cee c03d
000001a0: c647 e63d befc 753d 148f 7fbd 7322 97b9
000001b0: 0cf4 2fbe dc18 70bd 9035 56be 8ed3 393e
000001c0: 1b85 393c ba33 cb3e f98f 673c 20e8 83bd
000001d0: c73b debe aceb 5fbd b9ba 913c 4fea a13c
000001e0: 7ecf 043e 6025 923e ffff 87bd ca33 3a3e
000001f0: 4beb 36bd 63eb 083e e7e2 6a3e 78b9 4cbc
00000200: fffd 873e 9e96 ae3d 196e 26bd 000d 33be
00000210: e4c4 a93e 4921 a53e e137 663e 9a25 c33e
00000220: f6a6 003e 7546 8a3e e9e4 2dbe 96ab 9b3e
00000230: 209c 023d fb53 c9bc ee05 3b3e 23e4 f33c
00000240: 12f3 063e a2db 903d 8b3c 123d a661 e33c
00000250: b0e2 0c3e 1463 113e 15ad af3d 1b42 34be
00000260: 4224 9bbe 214c a53d d146 45bd 5950 93bd
00000270: a1b3 0a3e a4e8 22bb 5b6e 3f3e f920 2f3b
00000280: 6283 44bd b79b 1d3e 49e4 0a3e 66ae b43c
00000290: 42fc 493e dc26 df3d 12cc af3e 4b3e 8b3d
000002a0: 72f2 c93d f0cf 75be c583 1f3e 91d1 333e
000002b0: 7108 47bd bdc6 94bd f276 a53e 61b7 9abe
000002c0: 3000 fdbd 392c f7bd 7143 c0be 24ff c23d
000002d0: daca bd3e 35d8 933e 58a0 5d3e 0f78 25be
000002e0: 4ca1 273e bf19 8b3e 8f79 f1bd 92d3 ffbc
000002f0: a83d 75be 41d9 c3be 44d4 243e fc25 b9be
00000300: 7fb1 73be 1f78 823e 3bcc 71be b0c7 b33d
00000310: 0060 083e 71e8 83be 9e35 3ebe 59b0 ab3e
00000320: 1fde 083e 15a4 653d a9f2 683d 6609 673d
00000330: 24ee d4bc ce4b 423e ea50 693e a8ec 5dbe
00000340: e2ca aa3d 6db1 4ebe de41 c43e 069d ebbc
00000350: 58fa 4fbe 5956 39bb 1af3 07bf 61f0 c23e
00000360: a781 0b3d c287 7c3c 96e0 993e bb4f cebd
00000370: 2327 adbd d5aa 17bd ab17 623e bc0f 33be
00000380: e9bb 8dbe 7de2 24bd 6940 083c 400b 25bd
00000390: 46f9 11be 34f0 c43c 2fc2 b13d d63c 9abd
000003a0: 601c a2bc 89c2 9c3e 332b 5abd 90c2 9d3e
000003b0: 7737 46be 30d3 b23d eac6 e23c 2e0a 223c
000003c0: 2016 043d 12f6 4a3e bb39 8a3e cde0 6bbc
000003d0: a79c a13e fe87 0f3e c5a3 96be 8846 783d
000003e0: 299e ccbd bfe0 0b3d 44d7 123d eecf 56bc
000003f0: 3f51 733e 4804 d53d 8fe7 bbbd 8c10 3bbd

critic_value.critic_2.bias f4 [64]
0.0 0.06406969 0.062743016 0.029089702 -0.017391223 0.02466214 0.040062055 0.0
0.013203656 0.022571225 0.06244739 0.0011900427 0.018883966 0.048396815 0.037216894 0.022592042
0.08321766 -0.018358003 0.054311156 0.044191714 0.065440595 0.07371599 0.06488959 -0.0014210207
0.019467149 0.035163414 0.039194882 0.051396966 0.02885335 -0.0068342113 0.050256435 -0.017472103
0.047066603 0.040036898 0.056113522 0.04706361 0.057154607 0.059389193 0.051470436 0.024392078
0.049150478 0.022194002 0.046478897 0.005885652 0.007495362 0.09137798 0.08294775 0.0373091
0.044908155 -0.008847619 -0.017378116 0.0469062 0.07386205 0.0 0.035854325 0.047419533
-0.019811535 0.047151364 0.086936906 0.094401 0.042543165 0.046933092 0.02005821 0.046337683
00000000: 0000 0000 f836 833d 697f 803d 874d ee3c
00000010: 0a78 8ebc 4208 ca3c 1c18 243d 0000 0000
00000020: 2654 583c 4ae7 b83c d6c8 7f3d 35fb 9b3a
00000030: 8cb2 9a3c bd3b 463d be70 183d f212 b93c
00000040: 056e aa3d 8663 96bc 6075 5e3d 5f02 353d
00000050: b805 863d 69f8 963d d5e4 843d 8b41 baba
00000060: 9279 9f3c 8307 103d d08a 203d a085 523d
00000070: dc5d ec3c 85f1 dfbb b1d9 4d3d a821 8fbc
00000080: e9c8 403d bbfd 233d 4bd7 653d c6c5 403d
00000090: f31a 6a3d 1542 733d aad2 523d e5d1 c73c
000000a0: 0352 493d 32d0 b53c a860 3e3d 6ddc c03b
000000b0: a79b f53b 6124 bb3d 83e0 a93d 6dd1 183d
000000c0: 9df1 373d 9bf5 10bc 8d5c 8ebc b720 403d
000000d0: fd44 973d 0000 0000 fcdb 123d fc3a 423d
000000e0: cd4b a2bc ca21 413d fa0b b23d 5055 c13d
000000f0: be41 2e3d ea3c 403d 1d51 a43c 95cc 3d3d

critic_value.critic_3.weight f4 [64, 64]
0.43053535 0.036874853 -0.03454105 -0.012623969 0.016777633 -0.31887478 -0.022008052 -0.036777847
0.09085665 0.26994905 0.17395115 0.03353629 -0.12268937 0.2451292 -0.16898598 -0.15328424
0.12424168 -0.37881774 0.24429537 0.32344228 0.24387927 -0.088917 0.042448666 0.043303456
0.2077571 0.15089136 -0.045233168 -0.37187687 -0.026676875 -0.123328015 0.14905795 -0.2385783
0.25231254 0.1411197 0.0073933573 0.052525572 -0.17114809 0.34927043 -0.16977765 0.106294446
-0.044396266 -0.13830529 0.30636755 0.24471213 0.06528138 0.11304201 0.040705495 0.31068993
0.058225017 -0.19211493 -0.2512872 0.26911712 0.33505824 -0.0009608648 -0.17039344 -0.13405716
-0.043265883 0.21506117 -0.08702516 -0.073341295 -0.17253087 0.24121587 -0.06369263 0.13776775
-0.07423695 -0.015315711 0.025842179 -0.29004875 0.009387082 -0.16881917 0.23911901 -0.0190912
0.26018286 -0.07160144 0.10434606 0.0431963 0.01990238 -0.024841893 0.119720004 0.06268402
0.01985217 0.07979379 0.10371716 -0.15681492 0.2742597 -0.09641486 0.14361006 -0.081897095
0.22320528 -0.12916967 -0.03569595 0.07244509 -0.13235308 -0.19449669 -0.33378884 -0.043401845
0.27895412 0.09021701 0.03685203 -0.10375477 0.025315288 0.12119338 -0.1950297 -0.0721279
0.36212075 -0.14767402 0.16118419 0.10331358 -0.06967502 0.6987591 0.41180152 -0.04023375
0.24488802 0.13814847 -0.1577533 -0.023091346 0.10697097 -0.45446727 0.29974493 0.018190004
-0.022729805 0.21889758 -0.07615283 0.2766165 -0.03319421 0.006510478 0.03852668 0.065270916
0.017443653 -0.09349579 0.0832952 -0.3512347 -0.30892974 0.06675349 0.17316025 0.20684046
0.08760456 -0.19096442 0.23201977 -0.19589703 0.08085304 0.13138889 0.036106065 0.147258
0.49431223 -0.22804707 -0.04406483 0.2697544 -0.10980424 0.2783879 0.05605674 -0.07692038
0.35747406 0.24126287 0.39067373 -0.038337227 0.07270271 0.2125311 0.22718863 0.14769886
0.09425153 -0.18229063 -0.16928245 -0.13187192 1.2612874e-05 -0.20408154 -0.18908043 -0.08243906
-0.21681772 0.2331041 0.27536798 -0.022006307 0.08119609 0.17448467 0.33102903 0.24951296
0.13075253 -0.10823909 0.21473981 0.0697114 0.15504947 -0.08572797 0.111381605 -0.07128786
0.09955479 0.09650192 0.033366323 0.026168184 0.25901455 0.23413096 0.099907815 -0.1189638
0.11292725 -0.010524767 0.005577452 -0.24405068 -0.1364866 0.10923101 0.14479104 0.09979632
0.04442925 0.2553487 -0.19517475 -0.11355379 -0.08902411 -0.011319143 -0.23809761 0.16351405
0.37349913 -0.07181938 0.24072872 -0.019683443 -0.19524011 -0.265106 0.22032312 0.34239423
0.0674254 0.09294137 0.14669098 0.16782933 0.33677587 0.07113097 -0.06144223 -0.2103485
0.24267119 -0.13827029 0.17578836 0.23869814 0.5039124 0.17091869 0.061413992 0.030110167
0.039302785 0.01297577 0.18055911 -0.1237959 0.30762938 0.04677102 -0.09958768 0.10904698
-0.007069314 0.13623184 -0.030046556 0.009064837 0.15637635 0.0821164 0.14421237 0.1005792
-0.16149446 0.20444609 0.09522444 0.6538918 -0.21095008 0.062660806 -0.12565762 0.014415912
00000000: 216f dc3e 160a 173d eb7a 0dbd c4d4 4ebc
00000010: 3f71 893c 8e43 a3be 3b4a b4bc 5ea4 16bd
00000020: 0d13 ba3d c336 8a3e 4020 323e 595d 093d
00000030: 9044 fbbd 2603 7b3e a90a 2dbe 8bf6 1cbe
00000040: 6c72 fe3d 66f4 c1be 9128 7a3e 3a9a a53e
00000050: 7dbb 793e 1e1a b6bd a7de 2d3d f75e 313d
00000060: 47be 543e 4483 1a3e 6a46 39bd a566 bebe
00000070: 7689 dabc 6693 fcbd a6a2 183e df4d 74be
00000080: 1c2f 813e af81 103e fa43 f23b 0e25 573d
00000090: 7241 2fbe 93d3 b23e 31da 2dbe e7b0 d93d
000000a0: dcd8 35bd e79f 0dbe 35dc 9c3e d195 7a3e
000000b0: 3fb2 853d 9282 e73d ceba 263d c012 9f3e
000000c0: 5b7d 6e3d c7b9 44be b7a8 80be b8c9 893e
000000d0: c18c ab3e 8ce2 7bba 9e7b 2ebe 4846 09be
000000e0: 9137 31bd ff38 5c3e 3f3a b2bd f633 96bd
000000f0: efab 30be 4b01 773e 4871 82bd fd12 0d3e
00000100: 8b09 98bd bfee 7abc fab2 d33c 4581 94be
00000110: 47cc 193c efde 2cbe 9ddb 743e 2665 9cbc
00000120: b036 853e c7a3 92bd 63b3 d53d 9aee 303d
00000130: 510a a33c 3a81 cbbc c32f f53d 7b60 803d
00000140: 05a1 a23c ed6a a33d aa69 d43d 1794 20be
00000150: c46b 8c3e 2775 c5bd 840e 133e aab9 a7bd
00000160: ed8f 643e 0e45 04be eb35 12bd 175e 943d
00000170: 9187 07be 242a 47be 5fe6 aabe 22c6 31bd
00000180: 13d3 8e3e b2c3 b83d 27f2 163d 617d d4bd
00000190: 0262 cf3c 3c34 f83d deb5 47be cbb7 93bd
000001a0: e467 b93e dc37 17be 780d 253e 1296 d33d
000001b0: c7b1 8ebd e0e1 323f a6d7 d23e 25cc 24bd
000001c0: edc3 7a3e cb76 0d3e 158a 21be 102a bdbc
000001d0: 9913 db3d efaf e8be 2b78 993e 3403 953c
000001e0: db33 babc b026 603e 04f6 9bbd aea0 8d3e
000001f0: a7f6 07bd d955 d53b 27ce 1d3d c2ac 853d
00000200: fee5 8e3c b97a bfbd ac96 aa3d 09d5 b3be
00000210: 0a2c 9ebe 0eb6 883d ec50 313e fccd 533e
00000220: 056a b33d 2d8c 43be 9796 6d3e 3b99 48be
00000230: 4796 a53d cf8a 063e f4e3 133d cdca 163e
00000240: 7e16 fd3e 2c85 69be 537d 34bd 401d 8a3e
00000250: 0ce1 e0bd dc88 8e3e c19b 653d 6f88 9dbd
00000260: d706 b73e 9d0d 773e 6306 c83e 7f07 1dbd
00000270: 29e5 943d c1a1 593e 23a4 683e 5f3e 173e
00000280: f206 c13d 65aa 3abe 6158 2dbe 6f09 07be
00000290: e29b 5337 c0fa 50be 4d9e 41be cfd5 a8bd
000002a0: 7705 5ebe d7b2 6e3e 08fd 8c3e 9246 b4bc
000002b0: 234a a63d 1cac 323e a37c a93e 5380 7f3e
000002c0: fee3 053e 75ac ddbd c1e4 5b3e dac4 8e3d
000002d0: 4ac5 1e3e 2592 afbd 0a1c e43d 5fff 91bd
000002e0: 62e3 cb3d cca2 c53d 20ab 083d a95e d63c
000002f0: 8e9d 843e 07c0 6f3e 789c cc3d 4ba3 f3bd
00000300: 6746 e73d 1370 2cbc 0fc3 b63b 6ce8 79be
00000310: 25c3 0bbe 82b4 df3d 1a44 143e 0362 cc3d
00000320: 72fb 353d 11bd 823e e4db 47be e48e e8bd
00000330: 4652 b6bd ed73 39bc dccf 73be 3a70 273e
00000340: 473b bf3e 0a16 93bd 9781 763e 2c3f a1bc
00000350: 06ed 47be f9bb 87be 629c 613e 4c4e af3e
00000360: 5416 8a3d 0c58 be3d 2936 163e 74db 2b3e
00000370: e36d ac3e 1dad 913d d9aa 7bbd 9965 57be
00000380: cc7e 783e ba96 0dbe dd01 343e 496d 743e
00000390: 6700 013f 4f05 2f3e 3d8d 7b3d 99a9 f63c
000003a0: f5fb 203d 5398 543c 7de4 383e b488 fdbd
000003b0: 9981 9d3e f892 3f3d a0f4 cbbd 0654 df3d
000003c0: b4a5 e7bb 5c80 0b3e 3224 f6bc af84 143c
000003d0: 1f21 203e a52c a83d 68ac 133e 78fc cd3d
000003e0: ce5e 25be 515a 513e 0805 c33d 7465 273f
000003f0: 4c03 58be 4f54 803d 64ac 00be b830 6c3c

critic_value.critic_3.bias f4 [64]
0.027435731 0.033888523 0.022741405 0.021553213 0.0 0.049851526 0.037754375 0.028647684
0.027112221 0.0013072618 0.0521597 0.07298309 0.0046746796 0.0054751225 -0.0030053072 0.021487568
0.03260825 -0.012308901 -0.0036046063 -0.0031926478 0.06140775 0.0294548 -0.005116241 0.029242128
-0.014916785 0.017699273 0.027680086 0.035805866 -0.018718759 0.02594842 0.057607178 0.03402571
-0.010561727 0.020338329 0.037073754 0.019780476 0.049603038 -0.008718815 0.06247909 0.026097042
0.0010601165 0.0010012224 0.037504822 0.017827637 0.02095818 0.045112327 0.044039834 0.05165729
0.030090783 0.025641095 0.020781681 0.0369231 0.037577704 0.021784587 0.052351493 -0.011303076
0.02796205 0.019667989 0.024972826 0.0445524 -0.014734841 0.021903157 -0.0064788177 0.049918555
00000000: e6c0 e03c b1ce 0a3d 2f4c ba3c 5d90 b03c
00000010: 0000 0000 1d31 4c3d 55a4 1a3d 8cae ea3c
00000020: 731a de3c 6d58 ab3a 69a5 553d 2978 953d
00000030: 0e2e 993b a868 b33b b0f4 44bb b206 b03c
00000040: 3a90 053d 46ab 49bc 423b 6cbb be3b 51bb
00000050: b186 7b3d 314b f13c 24a6 a7bb 308d ef3c
00000060: 8865 74bc 11fe 903c 59c1 e23c 2ca9 123d
00000070: 1558 99bc c891 d43c 81f5 6b3d 8b5e 0b3d
00000080: 180b 2dbc 919c a63c a6da 173d aa0a a23c
00000090: 8e2c 4b3d 5cd9 0ebc 13ea 7f3d 77c9 d53c
000000a0: 9bf3 8a3a 733b 833a a89e 193d 440b 923c
000000b0: 7db0 ab3c b4c7 383d 1d63 343d 9896 533d
000000c0: f280 f63c 460d d23c 583e aa3c ad3c 173d
000000d0: 14eb 193d 9775 b23c 856e 563d 8930 39bc
000000e0: ab10 e53c c31e a13c d093 cc3c 947c 363d
000000f0: 676a 71bc 406e b33c 434c d4bb 6677 4c3d

critic_value.critic_output.weight f4 [1, 64]
-0.33522046 -0.13651167 -0.14027475 -0.21627948 -0.033044927 -0.1100781 0.24407513 -0.13570647
-0.30391 0.2916637 -0.14756048 0.2782736 0.21202536 0.22215606 0.009978815 -0.07067107
-0.26024643 0.027022699 0.02346941 0.09271256 0.36969492 0.33290872 0.07976661 -0.095488414
-0.053521067 -0.15386075 -0.5347252 -0.1519865 0.1259154 0.40476167 -0.2174158 -0.39812297
0.21735136 -0.10079236 -0.0936432 -0.11548497 -0.22540528 0.2566798 0.14347091 -0.12036568
0.06166417 0.37862742 -0.24487229 0.3676685 -0.07911296 -0.1859775 0.32961932 0.2319386
-0.14806822 -0.37949833 -0.07237816 -0.10229021 -0.3145112 -0.114616536 -0.3774552 0.101640254
-0.18739936 -0.12019542 -0.40243354 -0.24711142 0.1551117 -0.45140448 0.11187974 0.14344864
00000000: 04a2 abbe b7c9 0bbe 2fa4 0fbe 5e78 5dbe
00000010: 1e5a 07bd a070 e1bd d5ee 793e a3f6 0abe
00000020: 179a 9bbe f254 953e 181a 17be e179 8e3e
00000030: 2d1d 593e e17c 633e 2f7e 233c febb 90bd
00000040: 053f 85be b55e dd3c ec42 c03c 15e0 bd3d
00000050: a748 bd3e 0373 aa3e ad5c a33d 6e8f c3bd
00000060: e838 5bbd ac8d 1dbe c0e3 08bf 59a2 1bbe
00000070: f7ef 003e ec3c cf3e 3fa2 5ebe c6d6 cbbe
00000080: 5b91 5e3e 3a6c cebd 02c8 bfbd 6283 ecbd
00000090: a4d0 66be 896b 833e 0aea 123e 4882 f6bd
000000a0: 9293 7c3d 74db c13e cdbf 7abe 0c3f bc3e
000000b0: fa05 a2bd e370 3ebe ddc3 a83e 5081 6d3e
000000c0: 329f 17be 9b4d c2be 003b 94bd 887d d1bd
000000d0: 9d07 a1be 13bc eabd cf41 c1be c428 d03d
000000e0: 9ee5 3fbe 0429 f6bd c50b cebe c70a 7dbe
000000f0: 9ad5 1e3e 7d1e e7be 3521 e53d 33e4 123e
