results/model_1661328203.9619663/network_0.pth (torch, 130543 bytes, 16 tensors)

feature_net.act_cnn1.weight f4 [1, 1, 5, 1]
0	0x3ef20a5a	0.47273523
1	0x3f0cdb91	0.5502253
2	0x3d17f3d8	0.037097782
3	0xbf97965e	-1.1842763
4	0x3ea42d81	0.32065967

actor_logit.actor_1.weight f4 [64, 110]
0	0x3df6cab9	0.12050385
1	0xbe1b2c17	-0.15153538
2	0xbdf94b18	-0.12172526
3	0xbbff3e5c	-0.0077894162
4	0x3d75aff7	0.059982266
5	0xbd71b116	-0.059006773
6	0xbe18ea79	-0.14933194
7	0x3c3c9d53	0.011512118
8	0x3e11366a	0.14180914
9	0x3d920cac	0.07131323
10	0x3e0bb118	0.13641775
11	0xbf0a745d	-0.54083806
12	0x3d21a365	0.039462466
13	0xbe0e1611	-0.13875605
14	0xbdf4e466	-0.11957626
15	0xbe75b788	-0.23995793
16	0x3d696608	0.05698207
17	0x3ea3f276	0.3202092
18	0xbea7ef4e	-0.32799762
19	0xbbef8ac4	-0.0073102433
20	0x3cc4db58	0.024030373
21	0xbd1ca1eb	-0.038240355
22	0x3e078e1a	0.13237801
23	0x3daad1f5	0.083408274
24	0xbd5b5ec7	-0.053557184
25	0x3d859c71	0.065239795
26	0x3d2879fe	0.041131966
27	0x3da1fc60	0.07909465
28	0xbe3c3094	-0.18377906
29	0xbe18ec82	-0.1493397
30	0x3d7916a8	0.060812622
31	0x3c89de14	0.016829528
32	0x3bd2e2f4	0.0064357463
33	0x3c8fc704	0.017550953
34	0x3d8c4712	0.06849493
35	0x3de50fce	0.11184655
36	0x3ca4e4cb	0.020128628
37	0xbdc7f930	-0.097643256
38	0x3d8c9bc4	0.068656474
39	0x3e1bdd03	0.15221028
40	0x3d8fbe58	0.07018727
41	0xbe7e3ccd	-0.24827881
42	0xbe8c5006	-0.27404803
43	0xbc1e83dd	-0.009674993
44	0xbe1ff0e7	-0.1561924
45	0xbe155c41	-0.14585973
46	0xbada144c	-0.0016638129
47	0xbd63c43d	-0.05560707
48	0xbe17aeb4	-0.14812738
49	0x3d2c432e	0.042056255
50	0xbaa1c029	-0.0012340593
51	0xbe3a6e13	-0.18206052
52	0x3e0a58d6	0.1351045
53	0xbdfb9747	-0.12284713
54	0x3d3f80f4	0.04675384
55	0xbde2c7f8	-0.11073297
56	0x3df5181f	0.11967491
57	0xbb5659a1	-0.0032707232
58	0xba99fd85	-0.0011748528
59	0xbd316bab	-0.04331557
60	0xbd2d08ad	-0.042244602
61	0x3d0d786e	0.03453868
62	0x3df809f1	0.12111271
63	0x3d40474e	0.046943
64	0x3e124713	0.14284925
65	0xbc964951	-0.018345507
66	0x3e8a4305	0.27004257
67	0x3ce6468f	0.028109817
68	0x3db8ed01	0.0902958
69	0xbe769913	-0.2408183
70	0xbe0a859b	-0.13527529
71	0x3e6c4408	0.23072827
72	0x3e7f0afe	0.24906537
73	0x3e486caf	0.1957271
74	0x3dec36e2	0.115339056
75	0x3caa5345	0.02079166
76	0x3dbf6574	0.093455225
77	0xbe317142	-0.1732836
78	0x3e123793	0.14279012
79	0x3cff4580	0.03116107
80	0xbdcd287d	-0.10017488
81	0x3e3f5172	0.18683413
82	0x3c464cd9	0.012103283
83	0xbd1c755f	-0.03819787
84	0xbe2c59e0	-0.1683116
85	0xbd8995f9	-0.06718058
86	0xbd9fcac8	-0.07802349
87	0xbe887bd1	-0.26656964
88	0x3db25316	0.08707254
89	0x3d4e7afe	0.050410263
90	0x3d97ed4e	0.07418309
91	0xbdb483c4	-0.08814195
92	0xbda76653	-0.08173814
93	0xbd9dd986	-0.07707505
94	0xbcbc6443	-0.022997027
95	0xbc495c13	-0.012290019
96	0xbe3469e4	-0.17618519
97	0x3de469a4	0.11152962
98	0xbdbf99cf	-0.093555085
99	0xbd301576	-0.042989217
100	0xbe52b2a3	-0.20575957
101	0xbdb4f536	-0.08835833
102	0x3da84886	0.08216958
103	0xbcfb48c9	-0.030674355
104	0xbdfec85d	-0.1244056
105	0x3cf30e1c	0.029669814
106	0xbd9a7681	-0.07542134
107	0x3e28d6fa	0.16488257
108	0xbe2643ec	-0.16236848
109	0xbd2f0906	-0.042733215
110	0x3e11dd78	0.1424464
111	0x3e201a2a	0.15634981
112	0xb9137e9b	-0.00014066177
113	0x3e7acd1e	0.24492308
114	0xbb4b5628	-0.0031026695
115	0xbe6b74a0	-0.22993708
116	0xbd331bc0	-0.043727636
117	0xbb7bf66a	-0.0038446435
118	0xbed3bf8c	-0.41357076
119	0x3e2736f5	0.16329558
120	0x3e839e62	0.25706774
121	0x3e1c5bf9	0.1526946
122	0xbd8345c0	-0.06409788
123	0xbdf2ae1e	-0.118496165
124	0x3da0bf4f	0.07848989
125	0xbc893124	-0.016747065
126	0x3d29717b	0.04136799
127	0xbdc80661	-0.09766842
128	0xbd4634b4	-0.048390105
129	0xbe53e69c	-0.20693439
130	0xbd39d78d	-0.04537158
131	0x3d93ac63	0.072106145
132	0x3d2fda18	0.0429326
133	0x3bfc3f9a	0.0076980116
134	0xbd85d8b6	-0.06535475
135	0xbd4f592a	-0.050622143
136	0x3b98a304	0.004658105
137	0x3d8eb573	0.069682024
138	0xbdd7972c	-0.105268806
139	0x3d71982c	0.058983013
140	0xbdd18219	-0.10229892
141	0x3da6d4b2	0.08146037
142	0xbdeaed79	-0.114710756
143	0xbd4dd2c0	-0.050249815
144	0xbe12abda	-0.14323369
145	0xbd18d043	-0.03730799
146	0x3cd130aa	0.0255359
147	0xbd130197	-0.035890188
148	0xbe44f340	-0.19233418
149	0xbda82203	-0.08209612
150	0xbe1e6ff3	-0.15472393
151	0xbd476103	-0.048676502
152	0xbd3456ec	-0.044028208
153	0x3d32ea89	0.0436807
154	0xbe86bc82	-0.26315695
155	0xbdaff1ba	-0.085910276
156	0xbe648ba8	-0.223189
157	0xb913b085	-0.00014084771
158	0x3e05623e	0.13025758
159	0xbd458dd7	-0.048230972
160	0xbe23ba25	-0.15988977
161	0x3e0a3a8e	0.134989
162	0x3dffcadd	0.12489865
163	0x3e970cdf	0.29502007
164	0xbdda9275	-0.10672466
165	0x3b221ef9	0.00247377
166	0xbcedb30f	-0.029016046
167	0x3e01be52	0.12670258
168	0xbd8645ef	-0.065563075
169	0xbd0880e5	-0.03332605
170	0xbc4f591f	-0.0126555255
171	0x3ddcfb0a	0.107900694
172	0x3e5c3b06	0.2150689
173	0x3d675845	0.056480665
174	0x3e9b48c1	0.30328944
175	0x3d928296	0.071538135
176	0xbd8efabc	-0.069814175
177	0xbd8ee78f	-0.0697776
178	0xbe67494d	-0.22586556
179	0x3dab7388	0.08371645
180	0x3d0ca0f2	0.034333177
181	0xbe656ced	-0.22404833
182	0xbbbf3a0c	-0.005835777
183	0xbc7045f7	-0.014665118
184	0x3c59f159	0.013302171
185	0x3dee97fb	0.11650082
186	0x3c8491de	0.016182836
187	0x3bbd77ab	0.005782088
188	0xbd70fb88	-0.05883363
189	0xbb78e993	-0.0037981018
190	0x3b0e8afb	0.002175032
191	0xbcf41579	-0.029795395
192	0x3ce70a82	0.028203253
193	0xbe185aec	-0.14878434
194	0xbe3c1072	-0.18365648
195	0xbd7d0bfb	-0.061779004
196	0xbede1dc6	-0.4338209
197	0x3cdc73c9	0.02691068
198	0xbd2145ad	-0.03937309
199	0xbdf7d63a	-0.12101407
200	0x3e919037	0.2843034
201	0x3d820c61	0.06350017
202	0x3e3b1bb6	0.1827229
203	0xbd14f092	-0.03636224
204	0x3df98e30	0.12185323
205	0xbd939d41	-0.07207728
206	0xbe6c5f0c	-0.23083133
207	0x3dfcabd0	0.12337458
208	0x3e1f4931	0.15555264
209	0x3e05a6bb	0.13051884
210	0xbe08da55	-0.13364537
211	0xbe39c066	-0.181398
212	0x3d31d176	0.04341265
213	0x3e40f4c3	0.18843369
214	0xbe102d6d	-0.14079829
215	0x3cbf5491	0.023355754
216	0xbe54db5f	-0.20786808
217	0x3dc168cc	0.094438165
218	0x3d968437	0.07349437
219	0xbd7eb6bb	-0.062185984
220	0xbd9e4b4d	-0.07729206
221	0x3e513a8d	0.20432492
222	0x3dff2eb3	0.12460079
223	0x3e89dad9	0.2692478
224	0xbdb0dfaf	-0.08636414
225	0x3d6a0b37	0.0571396
226	0x3d74833a	0.05969546
227	0xbea9face	-0.3319916
228	0x3d792ed6	0.06083568
229	0x3de97c1d	0.11400626
230	0x3d4ae821	0.04953778
231	0xbe562d26	-0.2091566
232	0x3d58b120	0.052903295
233	0x3dbcc9e3	0.09218194
234	0xbd93f764	-0.072249204
235	0x3d505fca	0.0508726
236	0x3dde1f57	0.10845821
237	0x3e22e247	0.1590663
238	0x3e471d75	0.1944483
239	0xbc8d0d3f	-0.01721823
240	0x3dd2dde3	0.10296228
241	0xbe20c023	-0.15698294
242	0xbe13dbb8	-0.14439285
243	0xbcd26c32	-0.025686357
244	0xbe66e351	-0.22547652
245	0xbe438374	-0.19093114
246	0x3dda7033	0.106659316
247	0x3c888f05	0.01666976
248	0xbe2ce811	-0.16885401
249	0xbc0fb909	-0.008772143
250	0x3df0a65d	0.11750481
251	0xbda34d4e	-0.07973729
252	0x3e4bc49a	0.19899216
253	0xbd460add	-0.048350204
254	0x3d005042	0.03132654
255	0xbc9f0a70	-0.019414157

actor_logit.actor_1.bias f4 [64]
0	0x3b2009eb	0.0024419974
1	0xba5ae6ef	-0.0008350452
2	0xba7bac4d	-0.0009600565
3	0xb9551a09	-0.00020322962
4	0x3ae963ed	0.001780627
5	0xbb2f4558	-0.0026744213
6	0x3b9ab3bb	0.0047211326
7	0x3ab1f7ea	0.0013577912
8	0xba9363d5	-0.0011244962
9	0xbb90f3c1	-0.004423589
10	0x3b1702ad	0.0023042366
11	0x39cadac6	0.0003869144
12	0x3b462593	0.0030234798
13	0x3b3be8bb	0.0028672654
14	0xbb1f2985	-0.0024286222
15	0x3a6d9146	0.000906248
16	0x39db7a2e	0.00041861966
17	0x3b947760	0.004530832
18	0x3b627310	0.0034553446
19	0xbae93f7a	-0.0017795407
20	0x3b36ea53	0.0027910664
21	0x3b47985b	0.0030455801
22	0x3a18cbe0	0.00058287196
23	0x3b5f7c01	0.0034101012
24	0x3a3c2bd2	0.00071781606
25	0xb991be4c	-0.00027798337
26	0x3954c8fe	0.00020292771
27	0xbb94545b	-0.0045266575
28	0xba41b495	-0.00073892745
29	0x399c0d79	0.00029764677
30	0x3b702192	0.0036641103
31	0xbba2ef11	-0.0049723466
32	0x3a3e1c05	0.00072521
33	0xba41089a	-0.00073636475
34	0x3889b68b	6.56667e-05
35	0x3a5131d4	0.0007980142
36	0x3a4580c2	0.000753414
37	0x3a982493	0.001160758
38	0x3aa08e79	0.0012249491
39	0x3a1a0412	0.00058752403
40	0x3b730d14	0.0037086653
41	0x3b62f467	0.0034630538
42	0xb8a397a8	-7.800694e-05
43	0x3ab1a2de	0.0013552567
44	0xbae3e509	-0.0017386983
45	0x3a04c7b5	0.0005065159
46	0x3a8cdbc2	0.0010746645
47	0xbb1302ae	-0.0022432017
48	0x3a8c8e44	0.0010723551
49	0x3a29563f	0.000645969
50	0x3b1bd21a	0.0023776353
51	0xbb0889f0	-0.002083417
52	0x3b067ce9	0.002052123
53	0xbb459c2a	-0.0030152895
54	0xb9c46cb1	-0.00037465015
55	0xbaa8a6cf	-0.0012867096
56	0xbb4e4001	-0.0031471255
57	0x39b7160d	0.0003492091
58	0xbb15f458	-0.0022881236
59	0xbb539357	-0.0032283866
60	0xbaa623b1	-0.0012675432
61	0x3ab7a702	0.0014011564
62	0x3b3dde89	0.0028971753
63	0x39fb16f7	0.0004789156

actor_logit.actor_2.weight f4 [64, 64]
0	0x3d302bf9	0.043010686
1	0x3d536058	0.051605552
2	0x3e128ac9	0.14310755
3	0x3e0bbd74	0.1364649
4	0x3e8f0c80	0.27939224
5	0xbc685f07	-0.0141828125
6	0x3db392c1	0.087682255
7	0xbcd41d9e	-0.025893029
8	0xbe23e093	-0.16003637
9	0xbd9c4749	-0.07630784
10	0x3d6bc030	0.05755633
11	0xbe4d2706	-0.20034418
12	0xbe6ddc22	-0.23228505
13	0x3e4b9d7b	0.19884293
14	0xbdf15ab3	-0.11784878
15	0x3db11229	0.08646042
16	0x3e08a3f7	0.13343798
17	0x3e8c2827	0.27374384
18	0xbd5feabe	-0.054667227
19	0x3d43b405	0.047779102
20	0x3e656fa9	0.22405876
21	0x3d058d31	0.032605354
22	0x3d698d52	0.05701954
23	0x3dcd621b	0.10028478
24	0xbdd3ac7d	-0.10335634
25	0xbeef8077	-0.46777698
26	0x3e170449	0.14747728
27	0x3e3891f7	0.18024431
28	0x3e0379f6	0.12839493
29	0x3df90be5	0.12160472
30	0xbe4437d5	-0.19161923
31	0x3f0f2a57	0.5592398
32	0x3e3226fd	0.17397685
33	0xbe65461f	-0.2239003
34	0x3eb36d00	0.35044098
35	0x3e534a96	0.20633921
36	0xbc32326b	-0.010876278
37	0xbe2573f6	-0.16157517
38	0x3d56c20f	0.052431162
39	0xbd824770	-0.06361282
40	0xbd393b2a	-0.04522244
41	0xbcb2a9e6	-0.02180953
42	0x3d3879e8	0.045038134
43	0xbd174183	-0.03692771
44	0xbe3bfaee	-0.18357441
45	0xbe65ebc7	-0.22453223
46	0x3df20959	0.11818189
47	0x3d604d24	0.054761067
48	0xbd823fbe	-0.06359814
49	0x3e18213e	0.14856431
50	0xbd966f03	-0.073453926
51	0x3d0b82d2	0.034060307
52	0xbe24650f	-0.16054176
53	0x3e89912e	0.26868576
54	0x3e2d4e56	0.16924414
55	0xbd405e25	-0.046964783
56	0x3e64d12c	0.22345418
57	0xbbeb206b	-0.0071754954
58	0xbd6d46db	-0.0579289
59	0xbea2fbaf	-0.31832644
60	0xbe986c60	-0.29770184
61	0xbe5586b0	-0.2085216
62	0x3df89aa2	0.12138869
63	0xbdc749d8	-0.097308815
64	0xbe17f634	-0.14840013
65	0xbcbc5eda	-0.022994447
66	0xbe88be18	-0.2670753
67	0xbe9b6a84	-0.30354702
68	0xbd8bd2c4	-0.0682731
69	0x3c9f2bb1	0.019430013
70	0x3eb964e1	0.36209777
71	0x3eb72969	0.3577378
72	0xbdaf48f8	-0.085588396
73	0x3e9ca8f0	0.3059764
74	0x3d91e177	0.07123082
75	0x3e230ae6	0.15922126
76	0x3df01bb4	0.11724034
77	0xbdc44e6a	-0.09585269
78	0xbcf35663	-0.029704278
79	0x3dbd8843	0.092545055
80	0xbdc63d92	-0.09679712
81	0xbd023755	-0.03179105
82	0xbdb6b009	-0.08920295
83	0x3dfd2614	0.123607785
84	0xbc6f0efc	-0.014590975
85	0x3e2618eb	0.16220443
86	0xbe31a22e	-0.17347023
87	0xbdd5a3f8	-0.10431665
88	0xbe744530	-0.23854518
89	0xbe1091eb	-0.14118163
90	0xbd23c346	-0.03998115
91	0x3d8925c4	0.06696656
92	0x3dccbf44	0.099974185
93	0x3deaa14d	0.11456547
94	0xbdf483c0	-0.11939192
95	0xbe4e298b	-0.20133035
96	0x3e3bea3c	0.18351072
97	0xbc5c451d	-0.013444212
98	0x3a935c10	0.0011242647
99	0xbe114ac3	-0.14188676
100	0xbe2b749d	-0.16743703
101	0xbe1af8c5	-0.1513396
102	0x3dcb481f	0.099258654
103	0xbd9e024f	-0.07715284
104	0xbeefdd4a	-0.46848518
105	0xbdf6d275	-0.1205186
106	0xbe303c52	-0.1721051
107	0x3e4f86fa	0.20266333
108	0x3e03ec61	0.1288314
109	0x3eaf6c93	0.34262523
110	0x3e4c38e3	0.19943576
111	0xbe1e8493	-0.1548026
112	0x3d2ea8e4	0.042641535
113	0xbddf06ed	-0.10889993
114	0x3e87b21b	0.2650307
115	0xbb4d0d40	-0.0031288415
116	0xbd8a3c3b	-0.06749769
117	0x3ce29e04	0.027663238
118	0xbd76ea5b	-0.060282093
119	0xbe22cb08	-0.15897763
120	0x3e9a1ece	0.30101627
121	0xbda2f11e	-0.07956146
122	0xbe986302	-0.29763037
123	0xbd943d4b	-0.07238253
124	0xbe7ac406	-0.2448884
125	0x3dd86b3e	0.1056733
126	0x3e6b0a66	0.22953185
127	0xbe837ea9	-0.25682572
128	0xbb6ed61c	-0.0036443537
129	0xbc13fc78	-0.009032361
130	0x3de657e9	0.11247236
131	0xbe153f8e	-0.14575025
132	0x3eb6b841	0.3568745
133	0xbcf6759b	-0.030085376
134	0xbd9813b9	-0.07425637
135	0xbe02d3c0	-0.12776089
136	0x3deb0c43	0.11476948
137	0x3e5da9c1	0.21646787
138	0x3d6f70d4	0.05845721
139	0x3ad7fea0	0.0016479082
140	0x3e3265e0	0.17421675
141	0x3b396625	0.0028289643
142	0xbdf49930	-0.11943281
143	0x3deb52c3	0.11490395
144	0x3ee6b723	0.45061597
145	0xbe140cd0	-0.14458013
146	0x3c6b9ffa	0.014381403
147	0xbe08ba92	-0.13352421
148	0xbe408f3d	-0.18804641
149	0xbddc2626	-0.10749464
150	0x3dd00b8a	0.10158451
151	0xbe89cd65	-0.26914516
152	0x3d90888e	0.07057296
153	0x3e25af5d	0.16180177
154	0x3d4b5323	0.049639832
155	0xbe0fef12	-0.14056042
156	0xbbc7c936	-0.0060969843
157	0xbe2bac18	-0.16764867
158	0xbbad4e96	-0.005288909
159	0xbe4b16a3	-0.19832854
160	0xbe9bf52f	-0.30460498
161	0xbe84a735	-0.2590882
162	0xbe7ddca8	-0.24791205
163	0x3ea6429e	0.324727
164	0x3decee50	0.11568892
165	0x3d820435	0.06348459
166	0x3e5efa7c	0.2177524
167	0xbe88ce04	-0.26719677
168	0xbdf429d6	-0.11922042
169	0x3d9e072d	0.077162124
170	0x3e8eefbd	0.2791728
171	0x3cee1b57	0.029065771
172	0xbe42714b	-0.1898853
173	0x3d939c53	0.07207551
174	0x3e41c8d5	0.18924268
175	0x3e43f9c0	0.19138241
176	0xbe445190	-0.19171739
177	0x3c96cfcf	0.018409638
178	0x3d7c1cf8	0.061551064
179	0xbe85a4e0	-0.26102352
180	0xbea0a4a0	-0.313756
181	0xbe16e98c	-0.14737529
182	0x3e23da34	0.16001207
183	0xbd0c792c	-0.034295246
184	0xbe6ced07	-0.23137294
185	0xbe086db5	-0.133231
186	0xbe0b1966	-0.13583907
187	0xbd31cb7c	-0.04340695
188	0xbeb5189e	-0.35370344
189	0xbdfd33e7	-0.12363415
190	0x3e28af6b	0.16473167
191	0xbe00de91	-0.12584902
192	0xbdad5d46	-0.08465056
193	0x3e43a976	0.19107613
194	0xbcd94dfd	-0.026526446
195	0x3daea059	0.08526678
196	0x3e58a336	0.2115601
197	0x3c976535	0.018480876
198	0x3e72e81f	0.2372136
199	0xbda38e28	-0.079860985
200	0x3e244185	0.16040619
201	0xbd9c03bc	-0.076179
202	0x3af993b4	0.0019041211
203	0x3d0ad2ce	0.033892445
204	0x3e33cd5d	0.17558809
205	0xbd491b8b	-0.049098533
206	0x3dd30ed1	0.103055604
207	0x3d25d4bb	0.04048608
208	0xbe005553	-0.12532549
209	0x3bd94aba	0.0066312226
210	0x3edf740a	0.43643218
211	0x3eb1276d	0.34600392
212	0xbdfd96fe	-0.12382315
213	0x3dd89d96	0.10576932
214	0xbd9ee945	-0.077593364
215	0xbd12469e	-0.035711877
216	0xbe959432	-0.29214627
217	0x3dfddc3d	0.12395523
218	0x3d263e41	0.040586714
219	0xbe8d8196	-0.2763793
220	0x3e115298	0.14191663
221	0xbe3cc3bb	-0.1843404
222	0x3cfa4b97	0.030553622
223	0xbc25ff1c	-0.010131624
224	0xbe2d7af0	-0.16941428
225	0x3d75c082	0.059998043
226	0xbd7e574e	-0.06209498
227	0xbdc85ef9	-0.097837396
228	0x3ae3d830	0.0017383154
229	0xbd2353b5	-0.03987475
230	0x3e128e8e	0.14312193
231	0x3e34aea6	0.17644748
232	0xbe6e7f84	-0.23290831
233	0xbe28369f	-0.16427086
234	0x3f0369b4	0.51333165
235	0xbe376840	-0.17910862
236	0x3dd5534a	0.10416277
237	0xbe9e4d23	-0.30918226
238	0xbebf3623	-0.3734599
239	0x3e1b0c0d	0.15141316
240	0xbdf9fad8	-0.12206048
241	0x3e078f46	0.13238248
242	0xbe243575	-0.16036017
243	0x3df4a902	0.11946298
244	0x3d6fb23e	0.058519594
245	0xbdc06396	-0.093939945
246	0xbdebc6af	-0.11512505
247	0x3d5e9faf	0.054351505
248	0x3f004dd1	0.5011874
249	0xbe00dc73	-0.12584095
250	0x3c4330fb	0.011913533
251	0xbe5ae19b	-0.21375124
252	0x3c90b644	0.017665036
253	0xb906adb2	-0.00012843942
254	0x3d8e763c	0.06956145
255	0x3d76de15	0.060270388

actor_logit.actor_2.bias f4 [64]
0	0xbb1cfdd9	-0.0023955016
1	0x3b8e2ec1	0.0043390696
2	0x39e81aa0	0.00044270325
3	0xbb38124d	-0.002808708
4	0x39917ea4	0.0002775091
5	0xbb48ded6	-0.0030650399
6	0x3baba989	0.005238716
7	0x3b0d1729	0.0021528697
8	0xbb1ddef5	-0.0024089192
9	0xbae5a69f	-0.001752097
10	0x3b73e34c	0.0037214337
11	0xb94c4831	-0.0001948185
12	0x3a3f2e9a	0.0007293016
13	0x3bbd584b	0.0057783476
14	0xbb024365	-0.0019876596
15	0x3a82ff05	0.0009994215
16	0xba747b37	-0.0009326222
17	0xbae1d761	-0.0017230326
18	0x3b0594d2	0.0020382893
19	0xbab3fe84	-0.0013732468
20	0xb97d82b6	-0.00024176654
21	0x3b423192	0.0029631597
22	0x3a31af96	0.00067781785
23	0xbafc4230	-0.00192458
24	0xbaa8601f	-0.0012846029
25	0xbb4848f7	-0.0030561069
26	0x3b142f53	0.0022611215
27	0x3aace75e	0.0013191511
28	0xbb9bb891	-0.0047522266
29	0xba965374	-0.0011468963
30	0x3a319791	0.00067745993
31	0x38a47362	7.841621e-05
32	0x3b17c29f	0.0023156775
33	0x3b616480	0.0034392178
34	0x3b2a55cb	0.0025991078
35	0x3a22c960	0.0006209817
36	0xba5d7dab	-0.0008449207
37	0x3b9a5b8a	0.0047106193
38	0xbb29868d	-0.0025867552
39	0xb963233b	-0.00021661531
40	0xbb8c7ae3	-0.00428711
41	0x3a9bace6	0.0011877089
42	0x39f725bf	0.00047139634
43	0x3aeedafe	0.0018223224
44	0xba1a4ccb	-0.0005886077
45	0xba92b026	-0.0011191412
46	0xb7f60e76	-2.933222e-05
47	0x3b6c9b35	0.0036103253
48	0x3aa92003	0.0012903217
49	0xbb3c5d73	-0.0028742224
50	0x3a859529	0.0010191548
51	0xb850105b	-4.9606297e-05
52	0xbb4658b5	-0.0030265276
53	0x3b1223be	0.0022299136
54	0xbaa87652	-0.0012852645
55	0xba786ea4	-0.0009476936
56	0xba0ad01e	-0.0005295294
57	0xbb88f614	-0.0041797254
58	0xba6f224c	-0.0009122237
59	0x3b800d99	0.003907871
60	0x3b37b952	0.0028034043
61	0xbb0cafcb	-0.0021467085
62	0x3ab9e9bc	0.0014184038
63	0x3acb6866	0.0015518784

actor_logit.actor_3.weight f4 [64, 64]
0	0x3e22866f	0.15871595
1	0xbe1bc9d1	-0.15213706
2	0xbda19f57	-0.0789172
3	0x3e8f98c9	0.28046253
4	0xbdd42c0f	-0.10359966
5	0x3e341999	0.1758789
6	0x3d2653d2	0.04060728
7	0xbdc3ba1c	-0.09556982
8	0x3e5ad331	0.21369626
9	0xbe419b28	-0.18906844
10	0xbe0f3ff9	-0.13989247
11	0x3e649696	0.22323069
12	0x3d936424	0.07196835
13	0xbb06e924	-0.002058574
14	0xbd31606f	-0.043304857
15	0xbe80698a	-0.2508052
16	0xbe4d7555	-0.2006429
17	0xbe7318c6	-0.23739919
18	0x3e177d80	0.14793968
19	0x3d00cac3	0.03144337
20	0xbdde0d61	-0.108423956
21	0xbe34ef59	-0.17669429
22	0xbd5e89f6	-0.05433079
23	0x3e18f7d8	0.14938295
24	0xbe3f6486	-0.1869069
25	0x3d479fa4	0.04873623
26	0x3e0224ec	0.12709397
27	0xbac0cc71	-0.0014709366
28	0xbe44de7a	-0.19225493
29	0x3dee7c05	0.116447486
30	0x3d5746b3	0.05255766
31	0x3c2fc95a	0.010729158
32	0x3e0fedb8	0.14055526
33	0xbe150c77	-0.14555536
34	0xbe9757fa	-0.29559308
35	0x3dff18d4	0.124559075
36	0xbe1901a1	-0.14942028
37	0xbe0d5c9e	-0.13804862
38	0x3d49547d	0.04915284
39	0xbea43c4f	-0.32077262
40	0x3dcd79d6	0.10033004
41	0x3da57fd5	0.08081023
42	0xbd1d7a62	-0.03844679
43	0x3dbbcd4d	0.091700174
44	0x3de21f73	0.11041155
45	0x3c7a4f8d	0.015277755
46	0xbe051024	-0.12994438
47	0xbea90435	-0.33011022
48	0xbd70df16	-0.0588065
49	0xbeae7d55	-0.34079996
50	0xbec544c5	-0.3852903
51	0x3e68ef90	0.22747636
52	0xbdaa22bd	-0.08307407
53	0x3ce447eb	0.027866324
54	0x3e8e5fea	0.27807552
55	0xbe8c052e	-0.27347702
56	0x3e8050ab	0.25061545
57	0xbe616f04	-0.22015005
58	0xbd2daf6b	-0.04240362
59	0x3d79fc89	0.061031852
60	0x3e25fee0	0.16210508
61	0xbd84e1c9	-0.064883776
62	0x3ed69bd6	0.41915768
63	0xbe3c7430	-0.18403697
64	0xbe207776	-0.1567057
65	0x3d4c8d19	0.04993925
66	0xbe470298	-0.19434583
67	0xbe4feff7	-0.20306383
68	0x3e201fd4	0.15637141
69	0xbe83ec98	-0.25766444
70	0xbe4c96bb	-0.19979374
71	0x3d890468	0.066902936
72	0x3e6f2175	0.23352607
73	0xbdabd9ed	-0.083911754
74	0x3d763786	0.060111545
75	0x3b3e64eb	0.002905185
76	0x3e0438d4	0.12912303
77	0x3ed5f530	0.41788626
78	0x3d8c9b96	0.06865613
79	0x3e97c8c4	0.2964536
80	0x3e6b2ca2	0.22966245
81	0x3d3d2f39	0.046187613
82	0x3e36ebd6	0.17863402
83	0x3dff84ad	0.12476478
84	0x3d77d006	0.06050112
85	0xbd3267b0	-0.043555915
86	0x3d9004df	0.07032179
87	0xbd52b133	-0.05143852
88	0xbeb4c98b	-0.35310015
89	0x3e7af01d	0.24505658
90	0xbd0d0b59	-0.03443465
91	0xbd175d28	-0.036954075
92	0xbd186b2c	-0.037211582
93	0x3ddd98a7	0.10820132
94	0xbe549682	-0.20760539
95	0x3bfd00fa	0.0077210637
96	0xbca9d60c	-0.020731948
97	0x3d33990e	0.043847136
98	0xbe4d1dfb	-0.20030968
99	0x3e699dc2	0.22814086
100	0xbe9ee5e1	-0.3103476
101	0xbe1a3306	-0.15058526
102	0x3e0cf81e	0.13766524
103	0xbe31cbbc	-0.17362875
104	0x3e8be3e1	0.27322295
105	0x3d8c40fb	0.068483315
106	0x3dc7121b	0.0972025
107	0x3e2e15ba	0.17000476
108	0x3e40584a	0.1878368
109	0x3d92ccd3	0.07167973
110	0x3dd23875	0.102646746
111	0x3ec8b3b7	0.39199612
112	0xbe5b3d2a	-0.21410051
113	0x3dae5073	0.08511438
114	0xbd651b19	-0.055934045
115	0xbe28ad50	-0.16472363
116	0xbeba7a3b	-0.3642138
117	0xb9e9444a	-0.00044492102
118	0x3dbf9e25	0.093563356
119	0xbe07d8eb	-0.13266341
120	0xbe15b8b1	-0.14621235
121	0x3dbc0bdf	0.09181952
122	0xbe2caf5b	-0.16863768
123	0xbe415486	-0.188799
124	0xbdf0821f	-0.11743569
125	0xbe7a82fd	-0.2446403
126	0x3d9a58cb	0.07536467
127	0x3e70c7e3	0.2351375
128	0x3e5fa1f3	0.21839122
129	0x3e4e094f	0.20120738
130	0x3ea4f16b	0.32215437
131	0x3d910d9a	0.070826724
132	0x3ec6ec6c	0.3885225
133	0x3d4d3682	0.05010081
134	0xbde931f6	-0.113864824
135	0xbeaed33e	-0.3414554
136	0x3ca77426	0.020441126
137	0xbe25368e	-0.16134092
138	0x3daa81e9	0.0832556
139	0xbb37d572	-0.0028050807
140	0x3e8353c4	0.25649846
141	0xbe806f03	-0.25084695
142	0xbe9a6aa8	-0.30159497
143	0xbd95e986	-0.07319932
144	0xbd999829	-0.07499725
145	0x3dce4964	0.10072592
146	0xbe55d306	-0.2088128
147	0xbd39f91c	-0.045403585
148	0x3e3ef2ed	0.18647356
149	0x3e520d54	0.20512897
150	0x3dcfe2d7	0.10150688
151	0x3e05f147	0.13080321
152	0x3b9d00a3	0.0047913357
153	0xbe58cddf	-0.21172284
154	0x3e9c8403	0.30569467
155	0xbd85509c	-0.06509516
156	0xbe55a441	-0.20863439
157	0x3de94bee	0.113914356
158	0xbe332b02	-0.17496875
159	0xbdc61d18	-0.09673518
160	0xbe183c03	-0.14866643
161	0x3e33ea84	0.1756993
162	0x3c14db11	0.009085433
163	0x3dfd7b76	0.12377064
164	0xbd751459	-0.05983386
165	0x3e688030	0.2270515
166	0xbe2ad40a	-0.16682449
167	0xbea83891	-0.32855657
168	0x3d2950ba	0.041336752
169	0x3dae4b72	0.08510484
170	0x3ecc228e	0.39870113
171	0x3c4fb17b	0.012676592
172	0xbeaca580	-0.33720016
173	0x3cba02e7	0.022706462
174	0xbda311c0	-0.0796237
175	0x3d842841	0.0645299
176	0x3d3d665d	0.0462402
177	0xbd74c8c6	-0.059761785
178	0x3e63987a	0.22226134
179	0xbca76cea	-0.020437676
180	0xbe41ba9d	-0.18918844
181	0x3e4583b3	0.1928852
182	0xbdfad6b3	-0.12247982
183	0xbcd81818	-0.026378676
184	0xbdfaf603	-0.12253954
185	0x3e5c313e	0.2150316
186	0xbd84c266	-0.06482391
187	0xbcd237f5	-0.025661448
188	0xbdaa4d7e	-0.08315562
189	0xbde20b1c	-0.11037275
190	0x3e8a726b	0.2704042
191	0xbd416c5f	-0.04722249
192	0x3d914a4b	0.070942484
193	0x3d59ec81	0.053204063
194	0x3ef49e7f	0.47777173
195	0xbe134db0	-0.14385104
196	0xbe27a0fd	-0.16370006
197	0x3d6595be	0.05605101
198	0xbe8d1944	-0.2755834
199	0x3d7f42ad	0.062319446
200	0x3e3060ac	0.17224377
201	0xbe1fe832	-0.15615919
202	0x3e3e7ee1	0.18603088
203	0xbd58f039	-0.05296347
204	0xbe065f88	-0.1312238
205	0x3eade46a	0.3396333
206	0x3e482e3f	0.19548891
207	0x3cfb5cc8	0.03068389
208	0x3c0ca293	0.008583683
209	0x3e38f02f	0.18060373
210	0x3d51c047	0.05120876
211	0xbd4b2881	-0.049599174
212	0x3dae3c60	0.08507609
213	0xbcd5ba10	-0.026089698
214	0x3df09111	0.11746419
215	0x3dd11ffa	0.10211177
216	0xbd2916db	-0.041281562
217	0x3eb4b3c3	0.35293397
218	0xbdd133ee	-0.10214983
219	0xbdb914ee	-0.09037195
220	0x3e6cfc32	0.2314308
221	0xbe12e6fc	-0.14345926
222	0xbd8a84a8	-0.067635834
223	0xbea0c4e7	-0.31400225
224	0x3ea37b5a	0.31930047
225	0x3e9bdcfb	0.30442032
226	0x3df3dac9	0.11906964
227	0xbdcdc356	-0.10047023
228	0x3df648b4	0.12025586
229	0xbe03c22e	-0.12867042
230	0xbd35b088	-0.044357806
231	0xbdc9f753	-0.098616265
232	0xbd781507	-0.06056693
233	0x3e6dad02	0.23210528
234	0x3d9cf87b	0.076645814
235	0x3dae565e	0.08512567
236	0xbd417016	-0.047226034
237	0xbceeb6ae	-0.029139843
238	0xbe2c7b07	-0.16843806
239	0xbe30b1f3	-0.17255382
240	0x3d8f56ab	0.069989525
241	0xbeb2abef	-0.348968
242	0x3e87afd8	0.26501346
243	0x3e034de6	0.12822685
244	0x3dd8a314	0.1057798
245	0xbe8abdda	-0.2709797
246	0xbe5e9308	-0.21735775
247	0xbe81af46	-0.25329036
248	0x3e77c866	0.2419754
249	0x3dc051e1	0.09390617
250	0xbe262fc3	-0.16229157
251	0x3d4bbbd3	0.04973967
252	0xbd08e053	-0.033417057
253	0xbd47b809	-0.048759494
254	0xbde6bd7e	-0.112666115
255	0xbe863c8c	-0.2621807

actor_logit.actor_3.bias f4 [64]
0	0x3ae44abf	0.0017417296
1	0x3a14a1ac	0.0005669843
2	0x3b1f7afb	0.0024334777
3	0xbad0ea24	-0.001593892
4	0xb96ea05e	-0.0002275719
5	0x3b30d56e	0.0026982683
6	0xbba3e8f4	-0.0050021354
7	0x39ebdca4	0.00044987083
8	0x3ac3717f	0.0014911144
9	0x3a469581	0.00075753784
10	0xb78cb359	-1.6772816e-05
11	0x00000000	0.0
12	0x392f5e1c	0.00016724359
13	0x3b313592	0.0027039987
14	0xb9832254	-0.00025011844
15	0xbb17255c	-0.002306304
16	0xb983fd8f	-0.00025175183
17	0x39763bcc	0.00023482664
18	0xbabcebb2	-0.0014413504
19	0xb8c19019	-9.2297974e-05
20	0xba8e5c47	-0.0010861241
21	0x3b72b2c1	0.0037032815
22	0xbb300188	-0.0026856381
23	0xbabb7fce	-0.0014305057
24	0xb98515aa	-0.00025383878
25	0x3af605b9	0.0018770016
26	0xba98b3c8	-0.0011650259
27	0x3a5331aa	0.0008056412
28	0x3ada6926	0.0016663417
29	0x38e61716	0.00010971555
30	0x3b5d6e37	0.0033787617
31	0x3a6c04c9	0.00090033986
32	0x3ae7b3ca	0.0017677483
33	0xb9a00eb8	-0.00030528544
34	0x3a782e21	0.0009467323
35	0xb9fd976e	-0.00048368744
36	0xbad48161	-0.0016212874
37	0xbbeb817c	-0.0071870666
38	0x3b6700f4	0.003524837
39	0x3a47d51b	0.0007623003
40	0xbad6220f	-0.0016337055
41	0x39906310	0.00027539628
42	0x3b005773	0.0019583374
43	0xba04252c	-0.00050409394
44	0xbb80e766	-0.003933835
45	0x3b46e99d	0.0030351647
46	0x39a7b3ca	0.00031986675
47	0x3a86fcd3	0.0010298736
48	0x3ab15bf2	0.001353143
49	0x3b135f5b	0.0022487256
50	0x3a15c018	0.0005712523
51	0xbb18e0d3	-0.0023327365
52	0xbb31c013	-0.0027122542
53	0xbbcd3c77	-0.0062633115
54	0xb9e74fdb	-0.0004411925
55	0xba283b86	-0.0006417561
56	0x00000000	0.0
57	0x3a0de927	0.00054134656
58	0x3b8b707d	0.004255353
59	0x3a8296d9	0.0009963169
60	0xb964952c	-0.00021799345
61	0xbab9aab9	-0.0014165259
62	0x00000000	0.0
63	0x3a35a118	0.0006928607

critic_value.critic_1.weight f4 [64, 110]
0	0x3dde70f3	0.10861387
1	0xbc19f9a6	-0.0093979
2	0x3dcf7950	0.101305604
3	0x3dde75c0	0.10862303
4	0xbda2805f	-0.07934641
5	0x3e96b245	0.29432884
6	0xbea9dd3d	-0.33176604
7	0xbccfe126	-0.025375914
8	0x3c106e60	0.008815378
9	0xbd7d0ece	-0.061781697
10	0xbd755325	-0.059893746
11	0x3da1f5d7	0.07908218
12	0xbe32d2c8	-0.17463219
13	0xbc57bc7a	-0.013167495
14	0xbd40608e	-0.04696708
15	0x3dda759f	0.10666966
16	0x3e001736	0.12508854
17	0x3c03a5c9	0.008035132
18	0x3e32b639	0.17452325
19	0xbda533bc	-0.08066508
20	0x3e27b068	0.16375887
21	0xbb82e540	-0.003994614
22	0xbdcccb77	-0.09999745
23	0xbdd25db6	-0.1027178
24	0xbe2c5afd	-0.16831584
25	0xbd7072b5	-0.058703143
26	0x3e2628da	0.16226521
27	0x3e25161d	0.16121717
28	0xbd79b7e4	-0.060966387
29	0xbe632143	-0.22180657
30	0xbe37aebf	-0.17937754
31	0x3d4572ce	0.04820519
32	0x3ceed2da	0.029153276
33	0x3cf6587b	0.030071488
34	0x3dc2fe73	0.095211886
35	0xbe0fc419	-0.14039649
36	0xbd8818c2	-0.06645347
37	0xbe75d6b2	-0.24007681
38	0x3d2b094a	0.041756906
39	0x3c0b6310	0.008507505
40	0xbcef0b77	-0.029180272
41	0x3d7b1c4f	0.061306294
42	0x3e0e1caa	0.13878122
43	0x3e65ebed	0.2245328
44	0x3d8a5e67	0.06756287
45	0x3dcef271	0.10104836
46	0x3e5d5ba9	0.21616997
47	0x3ef3ba9a	0.47603303
48	0x3e7ba50f	0.24574684
49	0x3d60bd47	0.05486801
50	0xbe598b52	-0.21244553
51	0xbd77a2b5	-0.060457904
52	0x3dc5c3dc	0.09656498
53	0xbe03e921	-0.128819
54	0xbd6c7ac6	-0.057734273
55	0xbd74bb0b	-0.05974869
56	0xbd4e48b9	-0.050362322
57	0x3db9acde	0.09066175
58	0x3e17490e	0.14773962
59	0x3e855c46	0.26046962
60	0x3db1d641	0.08683444
61	0x3d565453	0.05232651
62	0xbc5dddfa	-0.013541693
63	0x3daf0061	0.08544994
64	0x39c66940	0.0003784392
65	0x3e16223a	0.14661494
66	0xbe7f8c2e	-0.24955818
67	0xbd1c093c	-0.038094744
68	0xbe4220b3	-0.18957786
69	0x3e0a66d2	0.13515785
70	0x3e005f4e	0.12536356
71	0x3e0e531d	0.13898893
72	0xbc9a67e0	-0.01884836
73	0xb98a127c	-0.00026335183
74	0xbc370dec	-0.011172753
75	0xbdc7af54	-0.09750238
76	0x3e3db28e	0.18525144
77	0x3d0a71ce	0.03379994
78	0xbe3dcbba	-0.18534747
79	0xbe068355	-0.13136037
80	0xbd778a11	-0.060434405
81	0x3e206bc6	0.15666112
82	0x3df8893f	0.121355526
83	0x3e1708e9	0.14749493
84	0x3ce093f8	0.027414307
85	0x3d91fd11	0.07128347
86	0x3e1be20d	0.1522295
87	0xbe46b11d	-0.19403501
88	0xbcaf6b4c	-0.021413468
89	0xbd003ef9	-0.031310055
90	0x3ea05e15	0.3132178
91	0x3e26f54e	0.16304514
92	0x3e7656bc	0.24056524
93	0x3e56293c	0.20914167
94	0x3d388e2f	0.04505747
95	0x3cb1ad5b	0.021689108
96	0xbe312e01	-0.17302705
97	0x3d29381b	0.041313272
98	0x3e09c6b5	0.13454707
99	0xbcec7a39	-0.028866874
100	0xbc81267d	-0.015765423
101	0xbd0d7756	-0.034537636
102	0x3d1840a6	0.03717103
103	0xbd9c5ec6	-0.07635264
104	0x3cec22f9	0.02882527
105	0xbde4c095	-0.111695446
106	0x3b900d27	0.004396099
107	0xbe6221d9	-0.22083224
108	0xbca087ac	-0.019595943
109	0x3c07a141	0.008278192
110	0x3e9912a3	0.2989703
111	0x3e0b52b2	0.13605765
112	0x3b9197f7	0.0044431644
113	0x3e0e8a77	0.13920008
114	0x3dae614b	0.08514651
115	0x3d350120	0.044190526
116	0xbdcec4fb	-0.10096165
117	0x3d737422	0.059436925
118	0x3df4fdbe	0.1196246
119	0x3dd838b4	0.1055769
120	0xbd995ac2	-0.07488014
121	0xbe2d89f3	-0.16947155
122	0xbd15f19c	-0.03660737
123	0x3e4af90d	0.19821568
124	0xbe1a4431	-0.15065075
125	0xbdaf21d2	-0.085513726
126	0x3d15940a	0.036518134
127	0x3e879b2c	0.26485574
128	0xbd1a772d	-0.03771131
129	0xbd1b8a91	-0.037973944
130	0x3da1347d	0.078713395
131	0xbe210acb	-0.15726773
132	0x3e0ca518	0.13734853
133	0x3d6ee790	0.058326304
134	0x3e00aa4e	0.12564966
135	0x3d69d344	0.057086244
136	0x3d32e81f	0.0436784
137	0xbd5b34ff	-0.053517338
138	0x3d9bdb06	0.07610135
139	0x3c1ddbca	0.009634921
140	0x3de1dde7	0.11028653
141	0xbdde7e5e	-0.108639464
142	0x3e8f8142	0.28028303
143	0x3e394816	0.18093905
144	0x3e75a28b	0.23987786
145	0x3db3c0b9	0.08776993
146	0xbc877c4f	-0.016538767
147	0x3df9d65a	0.121990874
148	0xbe646d5f	-0.22307347
149	0xbcf62acf	-0.03004971
150	0xbe88441e	-0.2661447
151	0xbe825bc0	-0.25460625
152	0xbde3bdce	-0.11120187
153	0x3d629ad7	0.055323448
154	0xbb0ffbb6	-0.00219701
155	0x3e6ea821	0.23306324
156	0xbcb1be33	-0.02169714
157	0x3d5111df	0.051042434
158	0x3dcf1faf	0.10113465
159	0xbd1f5e94	-0.038908556
160	0x3dd8c354	0.10584131
161	0x3cdcaabc	0.026936881
162	0x3d12a554	0.0358022
163	0x3e020276	0.12696251
164	0x3db9df4e	0.09075795
165	0xbd7c819c	-0.061647043
166	0xbe7aa88f	-0.24478363
167	0x3e52c8a1	0.20584346
168	0xbd34f91d	-0.044182885
169	0xbc36721d	-0.011135605
170	0x3e38d605	0.18050392
171	0xbe84b033	-0.2591568
172	0xbe1fe0a8	-0.15613043
173	0xbe3392c8	-0.17536461
174	0xbdfa4b7e	-0.1222143
175	0xbe58774f	-0.21139263
176	0xbe57d2f2	-0.21076563
177	0xbe1083e0	-0.14112806
178	0x3d8355df	0.06412863
179	0x3db03859	0.086044975
180	0xbe18c5b5	-0.14919169
181	0xbe6cbfbd	-0.23120017
182	0xbd8a768c	-0.06760892
183	0xbe5623c2	-0.20912078
184	0x3daa632c	0.08319697
185	0xbdc919d3	-0.09819379
186	0x3d7dd556	0.06197103
187	0xbd3b11e2	-0.04567135
188	0xbe5f06f7	-0.2178
189	0xbd55020b	-0.0520039
190	0x3e1c71a7	0.1527773
191	0xbe3599c0	-0.17734432
192	0xbcc86bc0	-0.024465442
193	0x3dc896a0	0.097943544
194	0x3e20545c	0.1565718
195	0x3e58d614	0.21175414
196	0x3ccc1412	0.024911914
197	0x3cd84b29	0.026403027
198	0xbcc3f360	-0.023919761
199	0xbd60be39	-0.05486891
200	0x3d92471d	0.0714247
201	0x3dbd206f	0.09234702
202	0xbe2cfe63	-0.16893916
203	0xbd94f167	-0.07272606
204	0x3e5a85b1	0.21340062
205	0xbddf5df1	-0.1090659
206	0x3d172f13	0.036910128
207	0x3de0ee81	0.10982991
208	0xbbb8cf88	-0.005639974
209	0x3ea3f537	0.32023022
210	0xbd11ca0b	-0.035593074
211	0x3d722499	0.059116933
212	0x3e070c35	0.1318825
213	0x3d577eef	0.052611288
214	0x3e61d358	0.22053277
215	0x3e11fd53	0.14256792
216	0x3e024668	0.1272217
217	0x3d680ddb	0.05665384
218	0x3cbee10e	0.023300674
219	0x3ddbf303	0.1073971
220	0x3ded7b60	0.115957975
221	0xbe99d681	-0.30046466
222	0xbdaef25a	-0.08542319
223	0xbdafb737	-0.08579867
224	0x3e61c751	0.2204869
225	0x3e696302	0.22791675
226	0x3ca89e19	0.0205832
227	0x3d851eea	0.06500037
228	0x3d321730	0.043479145
229	0x3d262998	0.04056701
230	0xbea1be7c	-0.3159064
231	0xbe319405	-0.17341621
232	0xbc933749	-0.017970698
233	0x3e8592e8	0.26088643
234	0x3b41ca8a	0.0029570186
235	0xbcb9ff47	-0.022704734
236	0xbb897f6e	-0.004196099
237	0xbd3a3a88	-0.045465976
238	0x3db9a188	0.09064013
239	0x3dc78fe9	0.097442456
240	0x3d80d76b	0.06291088
241	0x3e244ea7	0.16045628
242	0xbe26c6f4	-0.16286832
243	0xba985532	-0.001162207
244	0xbd55923f	-0.052141424
245	0xbd6be474	-0.057590917
246	0x3cc0cd74	0.023535468
247	0xbdb04cea	-0.0860842
248	0x3e5b721f	0.21430252
249	0x3e5c7ff3	0.21533184
250	0x3c3213fe	0.010869024
251	0xbbe41e12	-0.0069615925
252	0x3e009d94	0.12560111
253	0xbea97838	-0.33099532
254	0xbba1049d	-0.00491388
255	0xbe4c9800	-0.19979858

critic_value.critic_1.bias f4 [64]
0	0x3c9b978a	0.018993158
1	0x3c8b2dc8	0.016989604
2	0xbbf4bd37	-0.007468845
3	0x3c7c2bb1	0.015391276
4	0x3c921907	0.0178342
5	0xbc34a9f9	-0.011026853
6	0x3c14d7a9	0.0090846205
7	0x3c8ea07a	0.017410506
8	0x3c82cdbc	0.015967242
9	0xbab4ca47	-0.0013793194
10	0x3c8fb43b	0.017541995
11	0x3c855c50	0.01627937
12	0x3c8b91ff	0.01703739
13	0x3c89fe33	0.016844844
14	0x3c64973f	0.0139520755
15	0x3c80fc05	0.015745172
16	0xbc31c41d	-0.01084998
17	0xbc5d439e	-0.013504891
18	0xbc271682	-0.010198237
19	0x3bdd4fc0	0.0067538917
20	0x3c8e2776	0.0173528
21	0x3c0f67fb	0.008752818
22	0x3c84a799	0.016193198
23	0xbbc429ab	-0.0059864125
24	0xbc021817	-0.007940314
25	0x3c897acc	0.016782187
26	0xbc1ff793	-0.009763616
27	0xbc04dc75	-0.008109202
28	0x3c998b62	0.01874322
29	0x3c50ad27	0.012736595
30	0xbc543dd6	-0.012954196
31	0x3c9e12f4	0.019296147
32	0xbc313b7e	-0.010817407
33	0xbb82a910	-0.003987439
34	0x3c8892b2	0.016671512
35	0x3c84c007	0.016204847
36	0x3c83a69a	0.016070653
37	0xbbd35592	-0.0064494098
38	0x3bf134de	0.0073610386
39	0x3c069a89	0.008215555
40	0x3c5c367f	0.013440727
41	0x3bdf88d4	0.006821731
42	0xbc59fc3a	-0.013304764
43	0xbbf97ebf	-0.0076139863
44	0xbc41719b	-0.011806871
45	0xbc519530	-0.012791917
46	0x3c69eff5	0.014278402
47	0x3c5eb164	0.013592098
48	0xbc0c0c00	-0.008547783
49	0x3b51b162	0.0031996598
50	0xbc1d460d	-0.009599221
51	0x3c81636d	0.01579448
52	0xbacb4aec	-0.0015509999
53	0xbc1421c9	-0.009041258
54	0xbbe01a9e	-0.0068391105
55	0x3c8c3b37	0.01711808
56	0xbb5ac758	-0.0033382978
57	0x3c8321a1	0.016007246
58	0x3c655a4d	0.01399858
59	0x3b9e1444	0.004824193
60	0xbc2472c3	-0.010037127
61	0xbb4d347a	-0.0031311796
62	0x3c82ee98	0.015982911
63	0xbc8e609b	-0.01738005

critic_value.critic_2.weight f4 [64, 64]
0	0x3d4a856c	0.049443647
1	0xbe43787b	-0.19088928
2	0xbddc1dfe	-0.10747908
3	0x3b4be672	0.0031112698
4	0x3d7334e2	0.059376605
5	0xbe1097f7	-0.1412047
6	0x3d7b388e	0.06133323
7	0xbd7124a9	-0.058872852
8	0xbe3fb694	-0.18721992
9	0xba8b2481	-0.0010615737
10	0xbe7cbf24	-0.2468229
11	0x3e53738f	0.20649551
12	0x3dc0b5ae	0.09409653
13	0xbe8590ba	-0.2608698
14	0xbe80b820	-0.25140476
15	0x3db7353b	0.089457
16	0xbecc857f	-0.399456
17	0xbd9f89fd	-0.07789991
18	0xbe51641d	-0.20448346
19	0x3e8fd367	0.28090975
20	0xbd86bf11	-0.06579412
21	0xbe549bd8	-0.20762575
22	0xbd48ec3a	-0.04905341
23	0x3dc0b6df	0.0940988
24	0x3e519e51	0.20470549
25	0x3db9f977	0.09080785
26	0x3d54e92c	0.051980183
27	0x3e9706f9	0.29497507
28	0x3dfdbf3c	0.12389991
29	0xbe870d81	-0.2637749
30	0xbdb78b31	-0.089620955
31	0xbe02b701	-0.12765123
32	0xbe2d3f56	-0.16918692
33	0x3ee62c47	0.44955656
34	0x3cb04127	0.021515442
35	0xbe8e9187	-0.27845404
36	0x3de3ad04	0.111169845
37	0x3dc22c4d	0.09481106
38	0xbd83d69b	-0.06437417
39	0xbdfc1486	-0.12308602
40	0xbeb4f551	-0.35343412
41	0xbd7ba13d	-0.061433066
42	0xbd634760	-0.05548799
43	0xbd5f2a30	-0.054483593
44	0xbe784975	-0.24246772
45	0xbe89acea	-0.26889735
46	0x3da8ce64	0.08242491
47	0xbe245967	-0.1604973
48	0x3e1ae6d3	0.15127115
49	0x3df43aa7	0.119252495
50	0x3e396587	0.18105136
51	0x3d934ba1	0.071921594
52	0x3d215d71	0.039395753
53	0xbe8b12cc	-0.27162778
54	0xbe1d640c	-0.15370196
55	0xbbe3b0e1	-0.006948576
56	0xbc134e34	-0.008990813
57	0x3e55243d	0.20814605
58	0x3cf16bf3	0.02947042
59	0x3e5b9e18	0.21447027
60	0xbe4c0f91	-0.19927813
61	0xbe1535d6	-0.14571318
62	0xbe81cd0f	-0.2535176
63	0x3cd21bea	0.025648076
64	0x3e6f5f1e	0.23376128
65	0xbda4c1ba	-0.08044763
66	0x3e234fe1	0.1594844
67	0x3d0bb7d4	0.03411086
68	0x3d9763bb	0.07392069
69	0x3d6ba581	0.057530884
70	0xbcca78f7	-0.024715884
71	0x3eb8ee22	0.3611918
72	0xbdb290c7	-0.0871902
73	0x3e8d5461	0.27603438
74	0x3d9583f6	0.0730056
75	0xbe7a2859	-0.24429454
76	0xbcb59ed1	-0.022170456
77	0xbde300a6	-0.11084108
78	0xbdc64f69	-0.09683115
79	0x3bc1c743	0.0059136464
80	0x3e4496bf	0.1919813
81	0xbcc5b500	-0.02413416
82	0x3e8c7914	0.27436125
83	0x3dfed1de	0.12442373
84	0x3efa3de6	0.4887535
85	0xbe9a9600	-0.30192566
86	0x3d4b3acf	0.04961663
87	0x3ec17695	0.37785783
88	0xbe001f25	-0.1251188
89	0x3e1c3238	0.15253532
90	0x3ea3aaf8	0.31966376
91	0xbe63e9d5	-0.22257169
92	0x3de71d09	0.11284835
93	0x3da18a43	0.078876995
94	0x3dbbd368	0.09171182
95	0x3e719e08	0.2359544
96	0xbe43ee1a	-0.19133797
97	0x3d920134	0.07129136
98	0xbdd51f97	-0.10406416
99	0x3d633b52	0.055476494
100	0x3defd7c1	0.11711074
101	0x3d5930ed	0.053025175
102	0xbd514976	-0.05109545
103	0x3d66b531	0.05632514
104	0x3d7bd9da	0.061487056
105	0x3dc01d70	0.09380615
106	0xbde383e1	-0.11109138
107	0xba831ccb	-0.0010003088
108	0xbe5c8f22	-0.21538976
109	0xbd995814	-0.07487503
110	0xbe8174f2	-0.25284535
111	0x3e156158	0.14587915
112	0xbd27b635	-0.04094525
113	0x3eae4b79	0.34041956
114	0xbd6e329f	-0.058153745
115	0xbdf78d14	-0.120874554
116	0xbefb15af	-0.4903998
117	0xbdff9e5e	-0.12481378
118	0x3c298791	0.010347263
119	0xbd22cd06	-0.039746307
120	0x3d779f61	0.06045473
121	0x3e8604d0	0.26175547
122	0xbdcf4ebb	-0.101224385
123	0x3e0ed641	0.13948919
124	0xbd8f100e	-0.06985484
125	0x3de52dce	0.11190377
126	0x3e45a149	0.19299807
127	0xbd2f96b3	-0.042868327
128	0x3e425a68	0.189798
129	0x3ce14061	0.027496519
130	0xbe0076cf	-0.12545322
131	0xbe7146cf	-0.23562168
132	0x3e86b648	0.26310945
133	0x3e9e5228	0.30922055
134	0x3e2d4d37	0.16923986
135	0x3eb0b1d2	0.34510666
136	0x3d65dbd4	0.056117848
137	0x3e569c46	0.20958051
138	0xbe8f223a	-0.279558
139	0x3e85f6e3	0.26164922
140	0xbcf5692d	-0.029957378
141	0xbdc040a0	-0.09387326
142	0x3e0893e5	0.13337667
143	0xbc7855b5	-0.015157153
144	0x3e23f210	0.16010308
145	0x3d1dbf04	0.038512245
146	0x3d6f1122	0.05836595
147	0x3db30b0f	0.08742344
148	0x3ddb9532	0.10721816
149	0x3de5443e	0.11194657
150	0x3d3d9fa2	0.046294816
151	0xbdeda3fe	-0.11603545
152	0xbe827d77	-0.25486347
153	0x3d9298a4	0.0715802
154	0xbb1ad573	-0.002362576
155	0xbd83b1dd	-0.06430409
156	0x3d86de5f	0.06585383
157	0xbdb11b0c	-0.08647737
158	0x3e508843	0.2036448
159	0xbd818e61	-0.06325985
160	0xbdf64f61	-0.12026859
161	0x3d14eb7e	0.036357395
162	0x3dc92080	0.09820652
163	0xbc97634c	-0.018479966
164	0x3df77faf	0.120849006
165	0x3ddec281	0.108769424
166	0x3e9a357b	0.30118927
167	0x3d1be21f	0.038057443
168	0x3d9ac4d0	0.0755707
169	0xbe22add7	-0.15886627
170	0x3dc8481f	0.09779381
171	0x3e337c4b	0.17527883
172	0xbdf745c2	-0.12073852
173	0xbc32bf2c	-0.010909837
174	0x3e82796a	0.25483257
175	0xbeac3d45	-0.33640495
176	0xbdb6f23f	-0.089329235
177	0xbe40139f	-0.18757485
178	0xbea2f1a0	-0.3182497
179	0x3cef3d69	0.029204087
180	0x3e9602c6	0.2929899
181	0x3e3f7f43	0.1870089
182	0x3e5808c7	0.21097098
183	0xbe622e71	-0.22088028
184	0x3d949278	0.07254499
185	0x3e7538b2	0.23947409
186	0xbe06c27a	-0.13160124
187	0xbda26c7d	-0.07930849
188	0xbe837f68	-0.2568314
189	0xbea5305d	-0.3226346
190	0x3dfdf4ed	0.124002315
191	0xbeca2888	-0.39484048
192	0xbe83bde0	-0.257308
193	0x3e36f25b	0.17865889
194	0xbe4288c0	-0.18997478
195	0x3dc007da	0.093764976
196	0x3d91363e	0.07090424
197	0xbe895028	-0.26818967
198	0xbdf08384	-0.117438346
199	0x3e997103	0.29969034
200	0x3e35dab3	0.17759208
201	0x3d8cd9d0	0.06877482
202	0x3d126324	0.03573908
203	0x3d7fc1b6	0.062440597
204	0xbda41f9a	-0.0801384
205	0x3e37012f	0.17871545
206	0x3e0c49ee	0.13700077
207	0xbe8cfbce	-0.27535862
208	0xbc87ff65	-0.016601274
209	0xbe4e9d64	-0.20177227
210	0x3ea90d6f	0.33018062
211	0xbe0406e1	-0.12893249
212	0xbe91d3a7	-0.2848179
213	0xbc41900c	-0.011814129
214	0xbf0e3d89	-0.55562645
215	0x3e96dd03	0.29465494
216	0xbd743ff3	-0.0596313
217	0xbd95f139	-0.073214
218	0x3e60c961	0.2195182
219	0xbe377b2e	-0.17918083
220	0xbd3f683c	-0.046730265
221	0x3bb2dfe9	0.005458821
222	0x3e2a9e19	0.16661872
223	0xbe5f1523	-0.21785407
224	0xbe8b48e4	-0.2720405
225	0x3d0b470b	0.0340033
226	0xbd31e43d	-0.043430556
227	0xbdc5a781	-0.096510895
228	0xbe14da8e	-0.14536497
229	0x3cc045a9	0.023470717
230	0x3dc67acc	0.096913904
231	0xbdd04a27	-0.101703934
232	0xbe02f4a1	-0.12788631
233	0x3e53f035	0.206971
234	0xbd384e6f	-0.044996675
235	0x3e9d6c11	0.3074651
236	0xbe4b070c	-0.19826907
237	0xbbcfab68	-0.006337572
238	0xba8a68ca	-0.0010559794
239	0xbc59efb2	-0.013301777
240	0xbd8ee09c	-0.069764346
241	0x3e3f6af5	0.18693145
242	0x3e3ce345	0.18446071
243	0xbc23450c	-0.0099651925
244	0x3e8fb684	0.28068936
245	0x3e5c636e	0.21522304
246	0xbe96fb46	-0.2948858
247	0x3d81ab96	0.063315555
248	0xbd6f0024	-0.058349743
249	0x3d266908	0.04062751
250	0x3892f107	7.006717e-05
251	0xbcd97bf5	-0.026548365
252	0x3e50326d	0.20331736
253	0x3bb90854	0.0056467447
254	0xbe2204c5	-0.15822132
255	0xbcf9b3fb	-0.03048133

critic_value.critic_2.bias f4 [64]
0	0x00000000	0.0
1	0x3c9cb41b	0.01912885
2	0x3c741670	0.014897928
3	0xbc092996	-0.008371731
4	0xbc3ec9ab	-0.011644761
5	0xbb3d740d	-0.0028908283
6	0x3c19844a	0.009369919
7	0x00000000	0.0
8	0xbc2413f2	-0.010014521
9	0x3c38ea7e	0.011286376
10	0x3c2c97ca	0.010534236
11	0xbbf13e75	-0.007362182
12	0x3c40374e	0.011731936
13	0x3c7da194	0.015480418
14	0xbc098627	-0.008393801
15	0xbc2b9b8a	-0.010474095
16	0x3c99d2e4	0.018777318
17	0xbbdd2f95	-0.006750057
18	0x3c999f47	0.018752707
19	0x3c3540aa	0.01106278
20	0xbbb2a6d0	-0.0054520145
21	0x3ca9d664	0.020732112
22	0x3bde4606	0.00678325
23	0x3a81e5be	0.0009910387
24	0x3c588286	0.013214713
25	0xbbccd9ce	-0.0062515503
26	0x3c704b5f	0.014666407
27	0x00000000	0.0
28	0x3c6b5a69	0.014364817
29	0xbc1dd818	-0.00963404
30	0x00000000	0.0
31	0xbc5e8771	-0.013582096
32	0x3c89d6b0	0.016826004
33	0x3c974436	0.018465143
34	0xbb6aed9a	-0.0035847188
35	0x3c8a5f3d	0.016891116
36	0xbb538022	-0.0032272418
37	0x3cb045b0	0.021517605
38	0x3c6b9c82	0.014380576
39	0x3c39cfda	0.01134106
40	0xbc17638b	-0.0092400415
41	0x3c34c88e	0.011034144
42	0x3c929c4d	0.017896796
43	0x3bc31cb1	0.005954348
44	0xbc09b048	-0.008403845
45	0x3c83e250	0.016099125
46	0x3c4f86d5	0.012666424
47	0x3c737ff8	0.014862053
48	0x3c652135	0.013984968
49	0xbc44d2ec	-0.012013178
50	0xbc4c2c20	-0.012461692
51	0x3c966f51	0.018363627
52	0x3b906468	0.0044065006
53	0x00000000	0.0
54	0x3c85ec72	0.016348097
55	0x3c6c7f0b	0.014434586
56	0xbc62897b	-0.013826723
57	0x3c8c3c4d	0.017118597
58	0x3b9bfbe5	0.004760253
59	0x3c586011	0.013206498
60	0xbbcf8f00	-0.0063341856
61	0x3c93997c	0.018017523
62	0x3c578d42	0.013156237
63	0x3c9062b0	0.017625183

critic_value.critic_3.weight f4 [64, 64]
0	0x3edc6f21	0.43053535
1	0x3d04e13c	0.032441363
2	0xbda051f0	-0.07828128
3	0x3dd593bc	0.10428569
4	0x3ce7c8ea	0.028294045
5	0xbea0a18a	-0.31373245
6	0xbd73685c	-0.059425697
7	0xbd16a45e	-0.036777847
8	0x3d22e5ac	0.039769813
9	0x3e7f5ab2	0.24936941
10	0x3de3f4b0	0.11130655
11	0x3ce1e7ac	0.02757629
12	0xbe283cf7	-0.16429506
13	0x3e5b0349	0.21387972
14	0xbdd039a9	-0.10167248
15	0xbe2d7920	-0.16940737
16	0x3d58a2cc	0.05288963
17	0xbebb8f47	-0.3663275
18	0x3e51342d	0.2043006
19	0x3e908d05	0.2823259
20	0x3e1d68b3	0.15371971
21	0xbdc63a1b	-0.096790515
22	0xbc9e3227	-0.019311024
23	0x3d0a960a	0.033834495
24	0x3e404de9	0.1877972
25	0x3e558082	0.20849803
26	0xbdb34868	-0.08754045
27	0xbea3ae23	-0.31968793
28	0xbd0270e6	-0.03184595
29	0xbe081da9	-0.13292564
30	0x3caa50cd	0.020790482
31	0xbe7678b3	-0.2406948
32	0x3e60bccb	0.21947019
33	0x3dffaf38	0.12484592
34	0x3d87670c	0.066114515
35	0x3beeb756	0.007285039
36	0xbe691d14	-0.22764999
37	0x3e980f11	0.29698995
38	0xbe5d87a3	-0.21633773
39	0x3db13ba7	0.08653956
40	0x3a205a35	0.00061169575
41	0xbe2ce284	-0.16883284
42	0x3e859f9a	0.2609833
43	0x3e7a779c	0.2445969
44	0x3dafba9c	0.08580515
45	0x3d128d1e	0.03577911
46	0xbc9f8611	-0.019473108
47	0x3e8c7482	0.27432638
48	0x3c614e8f	0.01375164
49	0xbe53529f	-0.20636986
50	0xbe7e5a9b	-0.2483925
51	0x3e763ea2	0.2404733
52	0x3ea0972a	0.3136533
53	0xba7be28c	-0.0009608648
54	0xbe5975d3	-0.21236353
55	0xbe28ed02	-0.16496661
56	0xbd002d78	-0.031293362
57	0x3e2f4a9d	0.17118306
58	0x3bfb23bf	0.0076641734
59	0xbe3f824f	-0.18702053
60	0xbda34fc1	-0.07974196
61	0x3e4e60d6	0.20154127
62	0xbdacbfd4	-0.08435026
63	0x3de11b25	0.109915055
64	0xbd98098b	-0.07423695
65	0xbd63664e	-0.055517487
66	0xbd407ee2	-0.046996005
67	0xbe4b2da9	-0.19841637
68	0x3cebbccd	0.02877655
69	0xbe6078c7	-0.21921073
70	0x3e3469dd	0.17618509
71	0xbc9c6526	-0.0190912
72	0x3e375949	0.17905153
73	0xbe09f909	-0.13473906
74	0x3c4bb9f0	0.012434468
75	0x3cabae85	0.02095724
76	0xbd8bfe90	-0.06835663
77	0xbdb6ea8e	-0.089314565
78	0x3e1a7d7c	0.15086931
79	0x3dd5b76c	0.104353756
80	0xbd4257d6	-0.047447048
81	0x3e0143a1	0.12623455
82	0x3cbdef93	0.023185527
83	0xbe760c99	-0.24028243
84	0x3e3004ea	0.17189375
85	0xbe1727d8	-0.14761293
86	0x3d5db860	0.05413091
87	0xbe14f445	-0.14546306
88	0x3e1a8c7b	0.15092652
89	0xbd1209a4	-0.035653725
90	0xbdeff25f	-0.117161505
91	0x3daff0a0	0.085908175
92	0xbe365a95	-0.17807992
93	0xbe3a0a09	-0.1816789
94	0xbeecf6ba	-0.46281987
95	0xbd3306bc	-0.043707594
96	0x3e4bb690	0.19893861
97	0x3ce307e4	0.027713723
98	0x3d8baf03	0.0682049
99	0xbe4166aa	-0.1888682
100	0xbd76e672	-0.060278364
101	0x3d4267cd	0.047462273
102	0xbe80ec53	-0.251803
103	0xbe100536	-0.14064488
104	0x3ee5f933	0.44916686
105	0xbe67cb49	-0.22636141
106	0x3d9ec63e	0.077526554
107	0x3dd39612	0.10331358
108	0xbd540a37	-0.051767554
109	0x3f1d3a87	0.6141743
110	0x3ea1d4be	0.31607622
111	0xbdd6bf25	-0.10485677
112	0x3e1a4bb6	0.15067944
113	0x3da1b5af	0.078959815
114	0xbdf11303	-0.11771204
115	0xbdc10ca2	-0.09426238
116	0x3d4649de	0.04841029
117	0xbee8afef	-0.45446727
118	0x3e6e1741	0.23251058
119	0xbd792d8c	-0.060834453
120	0x3c44ed04	0.0120194
121	0x3e0f6350	0.14002728
122	0x3cb7b480	0.022424936
123	0x3e33f755	0.17574818
124	0x3d7bb4ce	0.061451726
125	0xbd837a7d	-0.06419847
126	0xbc28a081	-0.010292173
127	0xbc41f232	-0.011837529
128	0x3c8ee5fe	0.017443653
129	0xbdbc6417	-0.09198778
130	0x3ce1cb57	0.02756278
131	0xbe6e6ef9	-0.2328452
132	0xbe8fe583	-0.2810479
133	0x3d9e0c5a	0.077171996
134	0x3e0554b8	0.13020599
135	0x3e53cdfc	0.20684046
136	0x3cc258ae	0.023723926
137	0xbe5ddd5d	-0.21666475
138	0x3e21fd22	0.15819219
139	0xbe5bc918	-0.2146343
140	0x3c9d9d82	0.019240145
141	0x3dc12601	0.09431077
142	0x3e03a7a0	0.12856913
143	0x3e1a3b25	0.15061624
144	0x3edda522	0.4329005
145	0xbe4b1422	-0.19831899
146	0xbdceac76	-0.10091488
147	0x3e5c4233	0.21509628
148	0xbe564920	-0.20926332
149	0x3e8ecebc	0.278921
150	0xbc7607f5	-0.015016546
151	0xbdbed683	-0.093182586
152	0x3eab01ef	0.33399913
153	0x3eab81a3	0.33497342
154	0x3ead800c	0.33886755
155	0x3c8c81a3	0.01715166
156	0x3d907e33	0.070553206
157	0x3e5d4654	0.2160886
158	0x3dc7aa83	0.097493194
159	0x3e13a125	0.1441694
160	0x3d62f875	0.05541273
161	0xbe4a2b0b	-0.19742982
162	0xbdc7050b	-0.09717759
163	0xbe40cb28	-0.18827498
164	0xbd8ed926	-0.069750115
165	0xbe8308fa	-0.25592786
166	0xbe808cf7	-0.25107548
167	0xbdd67be3	-0.10472848
168	0xbe1648ee	-0.14676258
169	0x3e463b13	0.19358473
170	0x3e5f9f61	0.21838142
171	0xbcb51e9f	-0.022109328
172	0x3de551c8	0.11197239
173	0x3dbbd856	0.09172122
174	0x3e76e3ea	0.2411038
175	0x3e5452a5	0.20734651
176	0x3d977a26	0.07396345
177	0xbe04cc1b	-0.12968485
178	0x3e5fd44d	0.2185833
179	0x3d0e8dea	0.03480331
180	0x3e0fd47c	0.140459
181	0xbdaf9225	-0.08572797
182	0x3d75e040	0.060028315
183	0xbddb1150	-0.106966615
184	0x3e03addc	0.12859291
185	0x3d36307e	0.04447984
186	0x3e07cf38	0.13262641
187	0xbda446d3	-0.08021321
188	0x3ec27a8e	0.37984127
189	0x3e3abc2d	0.18235846
190	0x3d9bb156	0.076021835
191	0xbe1dfd7a	-0.15428725
192	0x3de74667	0.11292725
193	0xbc014acc	-0.007891368
194	0xbd231388	-0.03981355
195	0xbe0397ed	-0.12850924
196	0xbdf3f324	-0.1191161
197	0x3df03b5b	0.11730071
198	0x3ddd53cc	0.108069986
199	0x3dcc6203	0.09979632
200	0x3c01440c	0.007889759
201	0x3e70df37	0.2352265
202	0xbe8433e7	-0.25820848
203	0xbdf4be26	-0.119503304
204	0xbe08848b	-0.13331811
205	0xbd2bbdb6	-0.04192897
206	0xbe344ca0	-0.17607355
207	0x3e282a80	0.16422462
208	0x3e9f4405	0.31106582
209	0xbd6537ff	-0.055961605
210	0x3e4ddc45	0.20103557
211	0xbd7a26da	-0.061072208
212	0xbe8b3cca	-0.27194816
213	0xbe883265	-0.26600948
214	0x3e2316eb	0.15926711
215	0x3eab0db5	0.33408895
216	0x3d3a6a11	0.04551131
217	0x3e2fc07b	0.17163269
218	0x3dd78cb0	0.10524881
219	0x3e64b22d	0.22333594
220	0x3eab0543	0.33402452
221	0x3d93cce8	0.07216817
222	0xbe42de51	-0.1903012
223	0xbe58cf12	-0.21172741
224	0x3e566b54	0.2093938
225	0xbe19a5ca	-0.1500465
226	0x3e7d0f7c	0.24712938
227	0x3e48dbc6	0.19615087
228	0x3ee58851	0.44830564
229	0x3df9ea7a	0.12202926
230	0x3c8fedc4	0.01756943
231	0x3c1f1629	0.009709873
232	0x3dcf344b	0.10117396
233	0xbc861205	-0.016366014
234	0x3e093c26	0.13401851
235	0xbdfdbbd9	-0.12389345
236	0x3ea7bc06	0.32760638
237	0xbd05ec5b	-0.03269611
238	0xbe26be22	-0.16283467
239	0x3d935607	0.07194143
240	0xbd42e641	-0.04758287
241	0x3dfd9f2d	0.12383876
242	0xbcde0d95	-0.027106086
243	0xbc959f5e	-0.018264469
244	0x3e1a1e73	0.15050678
245	0x3da82ca5	0.0821164
246	0x3dd35299	0.10318489
247	0x3d90fb0a	0.07079132
248	0xbe120e9e	-0.14263389
249	0x3e256926	0.16153392
250	0x3e38c63f	0.18044375
251	0x3f0a5fe9	0.540526
252	0xbdd9bfba	-0.10632272
253	0x3cb24915	0.021763364
254	0xbe16ecfa	-0.14738837
255	0xbc5f6694	-0.013635296
