results/model_1660054717.4020126/network_0.pth (torch, 130543 bytes, 16 tensors)

feature_net.act_cnn1.weight f4 [1, 1, 5, 1]
000000 ea 6c e9 3e 87 5c 10 3f 0e 12 e7 3c 96 54 95 bf
       0.45590907 0.56391186 0.028206851 -1.1666439
000010 f7 4b ac 3e
       0.33651707

actor_logit.actor_1.weight f4 [64, 110]
000000 7b 59 f2 3d 84 0d 1d be 2e 85 f6 bd f3 70 20 bc
       0.11833473 -0.15337187 -0.12037121 -0.009792554
000010 a4 3c 7b 3d e4 24 6c bd af 87 17 be 3e b5 4e 3c
       0.06133713 -0.05765237 -0.14797853 0.012616454
000020 18 55 0f 3e 04 d2 94 3d fb cc 0a 3e a4 1b 0a bf
       0.13997304 0.0726662 0.13554756 -0.53948426
000030 a2 2f 27 3d 0f b3 0c be b7 52 f9 bd fe 98 77 be
       0.04081691 -0.1374018 -0.1217398 -0.24179456
000040 47 f2 6e 3d 35 22 a3 3e e1 3d a7 be 44 2b c3 bb
       0.058336522 0.31862035 -0.32664397 -0.0059560854
000050 28 f4 cf 3c d2 7d 25 bd ae ac 05 3e 02 98 ad 3d
       0.025384977 -0.040403195 0.13054153 0.08476259
000060 a3 d7 60 bd 8d 62 88 3d 55 06 2e 3d 98 c2 a4 3d
       -0.054893147 0.06659422 0.042486507 0.08044928
000070 a3 68 3e be f8 cd 1a be 38 a2 7e 3d a3 d8 88 3c
       -0.18594603 -0.15117633 0.062166423 0.016704863
000080 74 41 ff 3b 7d e0 9a 3c de 0c 8f 3d 9e 7d e6 3d
       0.007789785 0.018905872 0.06984876 0.11254428
000090 71 d9 95 3c 43 33 c5 bd 60 8e 88 3d 17 40 1d 3e
       0.01829216 -0.09628918 0.06667781 0.1535648
0000a0 27 84 92 3d dd d9 7c be 07 6c 8d be f8 98 3c bc
       0.07154112 -0.24692483 -0.2762148 -0.01151108
0000b0 ea 8d 1e be 9f 45 13 be 35 90 a2 b9 f9 38 5e bd
       -0.15483823 -0.14382027 -0.0003100649 -0.054253552
0000c0 00 4c 16 be cf d9 29 3d d8 38 49 bb 25 0b 39 be
       -0.14677429 0.041467484 -0.0030704048 -0.18070658
0000d0 61 23 09 3e f6 d0 f8 bd a6 0c 45 3d ff 01 e0 bd
       0.13392402 -0.12149231 0.048107766 -0.10937881
0000e0 85 10 f6 3d 6c 5f a7 bb 66 2d 3b 39 58 f0 39 bd
       0.120148696 -0.0051078107 0.00017850622 -0.045395225
0000f0 a0 7b 27 bd bb 04 13 3d f1 cf fa 3d b7 26 3e 3d
       -0.040889382 0.035893183 0.12246693 0.04642364
000100 9c 65 10 3e a6 31 8b bc 06 53 8a 3e 22 5d f1 3c
       0.14101261 -0.016991448 0.27016467 0.029463354
000110 b2 b2 bb 3d 4f 36 75 be 6c ab 0a be 40 28 6c 3e
       0.09164943 -0.23946498 -0.13541955 0.23062229
000120 ec c6 7e 3e af 6c 48 3e fe 36 ec 3d a7 53 aa 3c
       0.2488057 0.1957271 0.115339264 0.020791842
000130 f1 2a c3 3d 46 71 31 be 59 f5 11 3e 8d a1 ff 3c
       0.09529675 -0.17328367 0.14253749 0.031204963
000140 9d e1 cd bd 55 51 3f 3e e5 4e 46 3c c9 74 1c bd
       -0.10052798 0.1868337 0.012103771 -0.038197313
000150 e9 b5 2b be f8 95 89 bd 80 fe 99 bd 77 8a 88 be
       -0.16768612 -0.067180574 -0.07519245 -0.2666814
000160 ba bd b2 3d 49 7b 4e 3d 73 ed 97 3d 63 83 b4 bd
       0.08727594 0.050410543 0.07418337 -0.088141225
000170 5c 10 a9 bd 5b d9 9d bd 84 72 a9 bc 25 9e 49 bc
       -0.082550734 -0.07707473 -0.020684488 -0.012305771
000180 53 dc 31 be 1e 6a e4 3d 64 99 bf bd 37 15 30 bd
       -0.17369203 0.11153053 -0.09355429 -0.042988982
000190 d2 f5 55 be 27 f5 b4 bd fe be ab 3d 36 72 fe bc
       -0.20894554 -0.088358216 0.08386038 -0.03106032
0001a0 41 dc fa bd 3e 0e f3 3c 3a 76 9a bd 21 d7 28 3e
       -0.12249041 0.029669877 -0.07542081 0.16488315
0001b0 70 97 27 be 93 09 2f bd a4 b4 10 3e 82 6d 1f 3e
       -0.16366363 -0.04273374 0.14131409 0.15569118
0001c0 7c db 85 38 9d 5b 7a 3e 07 d1 3d bb d2 3e 6b be
       6.382816e-05 0.2444901 -0.0028963701 -0.22973183
0001d0 d8 45 32 bd 4b 56 43 bb f2 15 d4 be 5b 6c 27 3e
       -0.04352364 -0.0029806073 -0.41422993 0.16349928
0001e0 46 98 83 3e c5 91 1c 3e 21 da 82 bd ea 42 f2 bd
       0.25702113 0.15289982 -0.06389261 -0.11829169
0001f0 1b 73 9e 3d d7 97 8e bc 74 48 2a 3d 3b 7f c9 bd
       0.077367984 -0.017406387 0.041573003 -0.098387204
000200 6d 5f 45 bd ce b0 53 be 6e 00 39 bd 4b 61 91 3d
       -0.04818671 -0.20672914 -0.045166425 0.07098635
000210 ad 27 2d 3d fe 7b 01 3c 28 58 87 bd d1 81 4e bd
       0.042274166 0.007903097 -0.06608611 -0.05041677
000220 a4 62 9f 3b 16 21 8f 3d 3c e6 d9 bd 8c e4 6e 3d
       0.004864054 0.069887325 -0.10639617 0.058323428
000230 18 17 d1 bd ff 23 a6 3d 2f 82 ea bd f9 fa 4c bd
       -0.10209483 0.081123345 -0.11450612 -0.050044034
000240 20 76 12 be 41 dd 14 bd b1 ca cb 3c d3 2a 12 bd
       -0.14302874 -0.036343817 0.024876924 -0.03568537
000250 be de 45 be 3f b6 a7 bd 46 3a 1e be 4b 8a 46 bd
       -0.1932325 -0.081890576 -0.15451917 -0.04847173
000260 48 ef 38 bd 54 38 30 3d ab a1 86 be 7e c8 b1 bd
       -0.04515007 0.04302247 -0.26295218 -0.08680819
000270 19 56 64 be 88 01 84 38 76 97 05 3e 83 65 46 bd
       -0.22298469 6.294536e-05 0.13046059 -0.048436653
000280 e1 66 24 be 59 70 0a 3e 2d aa fe 3d ec 27 97 3e
       -0.1605487 0.1351942 0.12434802 0.29522645
000290 69 27 da bd f7 8b 2f 3b 97 91 e6 bc 6b 11 01 3e
       -0.10652048 0.0026786306 -0.028145595 0.126043
0002a0 8a db 85 bd 14 78 0c bd 71 f5 4b bc f7 66 dd 3d
       -0.065360144 -0.034294203 -0.0124486545 0.108106546
0002b0 cb 70 5c 3e ac 63 63 3d 67 f2 9a 3e d9 ed 92 3d
       0.21527402 0.055514976 0.30263063 0.07174272
0002c0 a1 4c 8f bd bd 7c 8e bd e9 13 67 be da dd ab 3d
       -0.06997038 -0.06957386 -0.22566189 0.08391924
0002d0 70 6b 0f 3d de 1b 63 be 01 e1 a8 bb d5 45 70 bc
       0.03501457 -0.22178599 -0.0051537757 -0.014665087
0002e0 30 f2 59 3c 07 98 ee 3d 1a 0c 75 3c fc 76 bd 3b
       0.013302371 0.11650091 0.0149564985 0.0057820063
0002f0 8c 2e 70 bd b0 65 b5 bb 84 69 1b 3b 86 17 f4 bc
       -0.05863814 -0.0055358037 0.0023714015 -0.029796373
000300 7f 0c e7 3c a2 5a 18 be 1b 96 3c be a6 0b 7d bd
       0.0282042 -0.14878324 -0.18416636 -0.061778687
000310 f9 cf dd be 07 c3 e6 3c e7 ef 1e bd 1b d6 f7 bd
       -0.43322733 0.028169168 -0.038803007 -0.12101384
000320 53 90 91 3e 19 0d 82 3d e0 7d 3a 3e f2 ef 14 bd
       0.28430423 0.063501544 0.1821208 -0.036361642
000330 5e fe fa 3d 65 b6 96 bd 26 b4 6b be 9a ac fc 3d
       0.12255548 -0.07359008 -0.2301794 0.12337609
000340 7b 49 1f 3e d0 a6 05 3e 17 db 08 be 4e c0 39 be
       0.15555374 0.13051915 -0.13364826 -0.18139765
000350 72 bb 30 3d 9c 63 42 3e 04 55 10 be e6 54 bf 3c
       0.04314751 0.1898331 -0.14094931 0.023355912
000360 0d db 54 be fa 68 c1 3d 27 6f 96 3d 5f b7 7e bd
       -0.20786686 0.09443851 0.073454194 -0.062186595
000370 69 ca 9e bd c5 71 51 3e 53 b7 ff 3d 8c 01 8a 3e
       -0.077534504 0.20453556 0.12486138 0.26954305
000380 c5 55 b0 bd e2 1b 6b 3d 00 92 75 3d 92 92 a9 be
       -0.08610109 0.057399638 0.05995369 -0.33119637
000390 9a 05 7a 3d 0c 05 ea 3d 24 2b 4e 3d 45 e9 55 be
       0.0610405 0.11426744 0.05033411 -0.20889767
0003a0 07 c2 59 3d fd 51 bd 3d 2b 6e 94 bd 8c 37 51 3d
       0.053163555 0.09244154 -0.07247575 0.051078364
0003b0 db a7 de 3d ba 0d 23 3e c7 60 47 3e 9f ec 8a bc
       0.1087186 0.15923205 0.19470511 -0.016958533
0003c0 73 66 d3 3d f3 fa 20 be 8b a5 13 be fe 48 d0 bc
       0.10322275 -0.1572073 -0.14418618 -0.02542543
0003d0 d3 ba 66 be a0 3f 43 be 4c fa da 3d a5 b2 8a 3c
       -0.22532205 -0.1906724 0.106922716 0.016930887
0003e0 ef 25 2d be 49 5d 0c bc eb 2d f1 3d df a9 a1 bd
       -0.16909002 -0.008567163 0.11776336 -0.078937285
0003f0 fc 08 4c 3e 74 fa 44 bd 1e 61 01 3d 2b fb ae bc
       0.19925302 -0.048090413 0.03158676 -0.02136

actor_logit.actor_1.bias f4 [64]
000000 5a a8 2e 3b f3 5a 79 ba 17 85 92 b8 ea e9 1b bb
       0.0026650638 -0.00095121487 -6.9866124e-05 -0.0023790547
000010 6d 28 f7 ba c1 bb 2e bb 85 e2 44 3b ee cc f7 3a
       -0.0018856652 -0.0026662203 0.0030042243 0.0018905678
000020 94 76 43 ba 99 f0 bc ba 99 d4 ed 3a e0 50 b2 3a
       -0.0007456329 -0.0014414965 0.0018145024 0.0013604425
000030 95 25 3e 3b 77 93 fb 3a f4 4c 03 bb 4f cf fd ba
       0.00290141 0.0019193728 -0.0020034881 -0.0019364151
000040 e5 79 ae 3a 5f 2d db 3a d7 ee 73 3b a7 5b f5 3a
       0.0013311474 0.0016721896 0.0037221217 0.0018719331
000050 e4 2b 14 3b 93 ec c1 39 59 6e 85 3a fb 83 c7 38
       0.0022609169 0.0003698809 0.0010179981 9.513643e-05
000060 3c ac 80 3a af 22 41 3a 5d 2d 0c bb cf 00 00 bb
       0.0009816955 0.0007367534 -0.0021389343 -0.0019531732
000070 3a bb 9b ba 22 4b ad ba 41 98 0b 3b c4 11 33 bb
       -0.0011881359 -0.0013221244 0.0021300467 -0.0027323822
000080 7e 15 05 3a 6e a6 db 3a 5c 40 fc b8 58 05 95 3a
       0.000507675 0.0016757974 -0.00012028284 0.001136939
000090 80 44 3a b9 68 ce ba ba 2b 93 07 3b 95 3d ed ba
       -0.0001776386 -0.0014252188 0.0020687084 -0.0018100018
0000a0 1e 95 46 3b 76 cf 6c 3a 3f 1d 86 ba ec 97 19 3b
       0.0030301283 0.00090335996 -0.0010232105 0.00234365
0000b0 3e 6d ab b9 fc 46 d2 b9 90 c3 3c 3b a7 4b 10 bb
       -0.00032697053 -0.0004010721 0.0028803088 -0.0022017749
0000c0 81 0b 0d ba f9 ad 9e ba 43 af 35 3b 3a 9e 29 bb
       -0.00053804374 -0.0012106291 0.0027722872 -0.0025881664
0000d0 43 33 9e ba 0f 50 38 bb eb 23 02 bb 7b 8d 15 3b
       -0.001206972 -0.002812389 -0.0019857835 0.0022819925
0000e0 5d 05 c6 ba f9 58 11 bb 6f 62 8e 3a f2 41 0a bb
       -0.00151078 -0.0022178276 0.0010863076 -0.0021096435
0000f0 55 a1 96 3a db f7 52 3b 1b a3 0e 3b 98 04 0b 3a
       0.0011492172 0.003219119 0.00217647 0.0005303114

actor_logit.actor_2.weight f4 [64, 64]
000000 00 2c 2c 3d 1f 6a 50 3d 1d f1 12 3e 50 ec 0b 3e
       0.04203415 0.050882455 0.1434979 0.13664365
000010 49 16 8f 3e 7b a8 2c bc 79 7d b5 3d 1b dc da bc
       0.2794669 -0.010538216 0.08861823 -0.026716283
000020 9c 50 23 be f8 34 96 bd 38 5b 6d 3d 32 62 4e be
       -0.15948719 -0.07334322 0.05794832 -0.20154646
000030 de 04 6e be 49 7b 4b 3e ba 0f f0 bd 81 cc b3 3d
       -0.23244044 0.19871248 -0.117217496 0.087792404
000040 57 b6 07 3e 23 62 8a 3e e3 a2 5c bd 65 11 39 3d
       0.13253151 0.27027997 -0.05386628 0.045182604
000050 c6 fe 65 3e 73 09 07 3d cb 83 61 3d f4 2b ca 3d
       0.2246047 0.032967996 0.05505733 0.09871665
000060 cd 41 d3 bd 50 bd f0 be 2d a1 16 3e 0b 37 39 3e
       -0.10315285 -0.47019434 0.14709921 0.18087403
000070 2d 06 04 3e ae 1c fe 3d 3d e1 44 be 55 12 0f 3f
       0.12892981 0.12407814 -0.19226547 0.5588735
000080 3d 11 33 3e 11 f2 64 be 78 4b b4 3e 9d d5 53 3e
       0.17487045 -0.22357966 0.35213828 0.20686956
000090 d6 71 2f bc 5d 98 24 be e6 c4 64 3d e1 ce 84 bd
       -0.010708293 -0.16073747 0.05585184 -0.064847715
0000a0 0c 85 40 bd 70 87 b8 bc bf be 3b 3d 00 31 0a bd
       -0.047001883 -0.02252552 0.045836207 -0.033738136
0000b0 34 2a 3d be e9 b1 64 be 35 be f4 3d 83 57 5c 3d
       -0.1847313 -0.22333492 0.119503416 0.053794395
0000c0 1f 16 7e bd 03 15 19 3e 6d a6 96 bd dd d6 14 3d
       -0.062032815 0.14949422 -0.07355962 0.036337722
0000d0 c2 82 23 be 17 7e 8a 3e db f0 2f 3e c8 84 42 bd
       -0.15967849 0.27049324 0.17181723 -0.04748991
0000e0 2c 6e 62 3e 19 bf ca bb e2 fd 70 bd 81 4b a1 be
       0.2211234 -0.0061873314 -0.05883587 -0.31502917
0000f0 54 fc 98 be a4 cf 57 be 7e 87 fa 3d 8b 4e c4 bd
       -0.2988001 -0.21075302 0.12232874 -0.095852934
000100 2b 23 19 be de 4e bc bc 06 be 88 be 8b ae 9b be
       -0.14954822 -0.022986826 -0.26707476 -0.30406603
000110 ef ec 8c bd 85 28 92 3c b9 a7 b8 3e 5b ec b6 3e
       -0.06881129 0.017841587 0.36065462 0.357272
000120 0e a6 b0 bd 10 2d 9c 3e 3c 84 92 3d f9 e3 24 3e
       -0.086254224 0.3050313 0.07154128 0.1610259
000130 35 28 ea 3d 7e 93 c5 bd ca 27 00 bd c5 e0 bb 3d
       0.1143345 -0.096472725 -0.031287946 0.09173731
000140 8d c7 c9 bd c3 32 ff bc d9 75 b8 bd ea 7c f7 3d
       -0.098525144 -0.031152135 -0.09006853 0.12084372
000150 30 b4 58 bc 8e 83 26 3e f1 81 31 be 8d c8 d5 bd
       -0.013226554 0.16261122 -0.17334725 -0.10438643
000160 83 ca 74 be 09 85 10 be 97 f5 1f bd c0 d2 85 3d
       -0.23905377 -0.14113249 -0.039052572 0.06534338
000170 14 0b c8 3d da 7e e8 3d e1 65 f3 bd 84 3c 4a be
       0.09767738 0.1135232 -0.11884666 -0.19749647
000180 96 76 39 3e cf a0 72 bc 1e 5d 32 ba eb 88 12 be
       0.18111643 -0.014808848 -0.00068040367 -0.14310043
000190 c4 99 28 be ba 2c 1c be 43 7a c5 3d 03 ee 9d bd
       -0.16464907 -0.15251437 0.0964246 -0.07711413
0001a0 6c 70 f0 be c7 14 f9 bd 3e b9 31 be 6b 66 4d 3e
       -0.4696077 -0.12162166 -0.1735582 0.200586
0001b0 40 55 05 3e b9 e7 ae 3e 85 2c 4b 3e 85 10 1f be
       0.13020802 0.34161165 0.19841202 -0.15533645
0001c0 4a 32 24 3d 39 49 e1 bd 91 24 87 3e fa f7 58 bb
       0.040087022 -0.11000294 0.26395085 -0.003310679
0001d0 af 03 8d bd 9c 75 d4 3c e5 12 7e bd 14 3b 24 be
       -0.06885468 0.025934987 -0.062029738 -0.16038162
0001e0 eb 1e 9a 3e 6d 37 a4 bd 9c 2c 99 be ae 63 95 bd
       0.30101714 -0.08018384 -0.29916847 -0.07294403
0001f0 59 05 7c be b8 5e d8 3d dd 72 6a 3e 94 60 85 be
       -0.24611415 0.10564941 0.2289538 -0.26050246
000200 2b df a2 bb f2 51 15 bc 5e 57 e6 3d b4 82 16 be
       -0.0049704514 -0.009113776 0.11247133 -0.14698297
000210 55 15 b6 3e 06 2e 09 bd 26 7c 9a bd d9 bf 02 be
       0.3556315 -0.033491157 -0.07543211 -0.12768497
000220 6c 72 e8 3d 2d 43 5c 3e f5 de 61 3d e0 44 8c 3b
       0.11349949 0.2151 0.05514427 0.0042806715
000230 a0 5b 32 3e 44 cf 7b 3a 3a 2e f8 bd c4 9f ee 3d
       0.17417765 0.0009605775 -0.12118192 0.116515666
000240 7d 2e e6 3e 60 6a 14 be 48 69 54 3c 0c 14 07 be
       0.44957343 -0.14493704 0.012964554 -0.13191241
000250 0b fb 43 be 01 03 dc bd 69 55 d0 3d 4f 32 89 be
       -0.19138734 -0.107427604 0.10172541 -0.26796195
000260 a2 cf 92 3d 8b bf 25 3e 59 4d 3f 3d 07 ac 11 be
       0.07168509 0.16186349 0.046704624 -0.1422578
000270 0c 21 04 bc 88 5f 2b be 08 9e f2 bb 58 17 4b be
       -0.00806452 -0.16735661 -0.0074040927 -0.19833124
000280 44 d9 9c be 3d eb 84 be b0 f1 7e be dd a9 a4 3e
       -0.3063451 -0.25960723 -0.24896884 0.32160845
000290 8f 02 e6 3d 3c 32 7a 3d 24 67 5f 3e 71 c8 88 be
       0.11230957 0.061083063 0.21816689 -0.26715425
0002a0 e1 a5 f6 bd 07 a4 9b 3d b1 7d 8d 3e 19 7d e1 3c
       -0.12043358 0.07599645 0.27634957 0.027525472
0002b0 ab 41 42 be 4a b6 90 3d a3 70 40 3e 8f 75 42 3e
       -0.18970363 0.07066019 0.18792967 0.18990158
0002c0 79 5a 46 be 72 7a 8b 3c eb 8b 7f 3d cb 7e 87 be
       -0.1937045 0.01702616 0.062389296 -0.26463923
0002d0 bb 3d a1 be 8f 7e 18 be 16 95 22 3e c6 fd 0a bd
       -0.3149241 -0.14892028 0.15877184 -0.033933423
0002e0 b5 ec 6c be b5 96 09 be 06 d0 0a be 99 4f 36 bd
       -0.23137172 -0.13436396 -0.13555917 -0.044509504
0002f0 ba 98 b5 be c4 8c 01 be 49 30 27 3e 9d 58 fe bd
       -0.35468084 -0.12651354 0.16327013 -0.124192454
000300 aa ac ad bd 40 d1 43 3e 06 18 d7 bc ce f1 b2 3d
       -0.08480199 0.19122791 -0.026256572 0.08737527
000310 80 84 58 3e 1c 40 64 3c a4 ea 73 3e 2d 25 a2 bd
       0.21144295 0.0139313005 0.23819977 -0.07917247
000320 39 70 25 3e 45 4d 98 bd 94 c3 a1 3b 45 4e 10 3d
       0.16156091 -0.07436613 0.004936645 0.035230894
000330 b5 7a 33 3e 09 e9 4a bd 2d dc d3 3d 57 6a 2f 3d
       0.17527278 -0.049538646 0.103447296 0.042826023
000340 c7 a1 fd bd 15 4e f1 3b 4a a3 de 3e 24 a4 b0 3e
       -0.12384372 0.0073640444 0.43483955 0.3450023
000350 74 2e fe bd 1c f3 d5 3d 60 18 9f bd b9 22 13 bd
       -0.12411204 0.1044676 -0.07768321 -0.035921786
000360 14 4b 94 be 64 ab 00 3e 4b d8 2b 3d 9f d4 8d be
       -0.2896353 0.1256538 0.04195432 -0.2770128
000370 ef 41 0f 3e ae bd 3a be f4 8a 03 3d 9b ee f2 bb
       0.13989995 -0.1823642 0.032114938 -0.007413698
000380 78 7d 2b be 13 17 78 3d 29 e9 77 bd f3 ac c5 bd
       -0.16747081 0.06056888 -0.060525093 -0.09652128
000390 05 b0 3f 3b f3 95 19 bd 87 dd 0f 3e 73 37 35 3e
       0.0029249203 -0.03749652 0.1404935 0.17696933
0003a0 b5 4b 6f be dc ce 27 be 07 ad 03 3f 2e 09 38 be
       -0.23368724 -0.16387504 0.51435894 -0.17972252
0003b0 47 09 d6 3d 94 8f 9d be 68 0c be be 6d 6b 19 3e
       0.10450988 -0.30773604 -0.3711884 0.14982386
0003c0 d2 f9 f8 bd 57 0f 08 3e 61 96 22 be 95 1c f3 3d
       -0.121570244 0.13287102 -0.15877678 0.11870686
0003d0 5b 22 75 3d 61 55 c6 bd 05 e2 ed bd db b1 63 3d
       0.059847217 -0.096842535 -0.116153754 0.055589538
0003e0 28 53 00 3f 5d d5 fd bd c9 52 37 3c 4b b4 59 be
       0.50126886 -0.123942114 0.011189171 -0.21260183
0003f0 1f a6 98 3c bb 05 88 bb 8b d3 8c 3d 64 af 74 3d
       0.0186339 -0.0041510738 0.06876286 0.059737578

actor_logit.actor_2.bias f4 [64]
000000 02 42 f7 ba f8 fd 40 3b 6d 99 46 ba 37 4b 0e bb
       -0.0018864276 0.0029448252 -0.0007575963 -0.0021712312
000010 70 92 ac 3a 9c ab 16 bb 87 fd c6 3a 20 a2 c2 3a
       0.00131662 -0.002299047 0.0015181758 0.0014849342
000020 2c 08 40 3b 12 d7 24 3a 93 25 40 3b 5e f8 6b 39
       0.0029301746 0.00062881515 0.002931927 0.0002250387
000030 c8 3a 19 3b 8f 21 13 3b 80 bd bb ba 25 b2 3c 39
       0.0023380984 0.0022450422 -0.0014323443 0.00017995441
000040 8d 22 6e 3a c6 a7 16 bb 5b 38 2d b9 0f 41 d3 3a
       0.0009084128 -0.0022988184 -0.0001651956 0.0016117411
000050 46 50 bb 3a 32 48 2c 3b a0 8c 70 b9 17 5e 32 ba
       0.0014290891 0.002628815 -0.0002294057 -0.00068041816
000060 4e fb c0 3a 68 70 53 3b 73 0d 0f b9 77 26 da ba
       0.0014723332 0.0032263044 -0.00013642553 -0.0016643543
000070 ae 71 2c bb 00 00 00 00 ed 9f 4c 3a 8e 03 e4 39
       -0.0026312876 0.0 0.0007805813 0.00043490197
000080 4e 97 10 3b 18 b1 3a 3b f6 94 cd b9 ce 7a e9 3a
       0.002206284 0.0028486904 -0.00039211632 0.0017813088
000090 6c e0 d2 ba 26 b2 bc 39 e3 1c 2c bb b4 18 a0 ba
       -0.0016088611 0.00035990885 -0.0026262335 -0.0012214393
0000a0 af 91 33 bb 83 85 47 3a 84 b9 cf ba 0e 5b ba ba
       -0.0027400067 0.00076111424 -0.0015848135 -0.001421781
0000b0 6c 84 e7 ba 33 75 ce 38 ba f7 6f b8 4e 0f 07 3b
       -0.0017663366 9.8446755e-05 -5.7212754e-05 0.0020608488
0000c0 7b d6 ee 3a 41 69 ca 39 8c f9 08 3a e0 84 f8 39
       0.0018221879 0.00038606863 0.00052251737 0.00047401246
0000d0 f8 16 dc b9 1f f1 24 39 04 90 bf 3a 2b c9 31 ba
       -0.00041978783 0.00015730083 0.0014615064 -0.00067819905
0000e0 ba 63 98 ba 84 79 31 bb 62 9b 93 ba d5 6a 24 3b
       -0.00116264 -0.0027080486 -0.0011261518 0.002508809
0000f0 6e 0f 20 3b 81 93 11 bb df 6d 1d 3b 16 3d 83 3a
       0.002442326 -0.0022213163 0.0024021787 0.0010012712

actor_logit.actor_3.weight f4 [64, 64]
000000 21 9d 22 3e e1 36 1a be 62 b9 a3 bd 13 bd 8f 3e
       0.15880252 -0.15059997 -0.07994343 0.2807394
000010 0e 91 d8 bd fb a3 31 3e f6 db 25 3d e9 bd c6 bd
       -0.10574542 0.1734771 0.040492974 -0.09704191
000020 b1 3a 5c 3e 82 a8 40 be 4e 90 0d be 32 e1 64 3e
       0.21506764 -0.1881428 -0.13824579 0.2235153
000030 a8 95 8e 3d 7c d2 74 bb 9c d1 2d bd 4a 9a 80 be
       0.069621384 -0.0037356904 -0.042436227 -0.25117713
000040 3c dc 49 be 7a 0b 76 be d1 5a 19 3e 0e fa 02 3d
       -0.19712919 -0.24027815 0.1497605 0.031976752
000050 e4 07 e0 bd f4 dc 34 be e3 01 53 bd 19 e6 17 3e
       -0.10939005 -0.17662412 -0.05151547 0.14833869
000060 63 00 3f be 3a 56 43 3d 21 ba 04 3e 15 2e df ba
       -0.18652491 0.047689654 0.12961628 -0.0017027283
000070 39 c9 46 be 9b 7c ee 3d bb fe 59 3d e7 bf 30 3c
       -0.19412698 0.1164486 0.053221446 0.010787941
000080 25 ce 10 3e 63 a8 15 be b3 8a 97 be ae 8c fa 3d
       0.14141138 -0.14615016 -0.29598007 0.12233864
000090 1e a0 18 be 56 bd 0f be 10 c9 49 3d f1 8f a3 be
       -0.1490483 -0.1403707 0.049264014 -0.31945756
0000a0 45 2e cd 3d 71 b3 a5 3d 01 ae 20 bd 09 5a be 3d
       0.10018591 0.08090866 -0.039228443 0.092945166
0000b0 9f bd df 3d d2 84 7d 3c 00 49 02 be 7b f1 a8 be
       0.10924839 0.015473561 -0.1272316 -0.32996735
0000c0 69 1d 69 bd e5 9c ae be df 0a c5 be c0 af 69 3e
       -0.056912813 -0.34104076 -0.38484856 0.2282095
0000d0 32 ea a9 bd 48 2b dc 3c 65 9c 8e 3e b3 f7 8c be
       -0.08296622 0.026876107 0.27853695 -0.2753273
0000e0 8d d7 7f 3e ca 1d 62 be de 21 31 bd 20 b4 7c 3d
       0.2498457 -0.22081676 -0.04324519 0.061695218
0000f0 5a ad 28 3e 56 6c 85 bd 54 d8 d5 3e a7 72 3b be
       0.16472378 -0.06514804 0.41766608 -0.18305455
000100 8f 84 1b be 84 23 68 3d 8b e9 43 be 99 9c 4e be
       -0.15187286 0.056674495 -0.19132058 -0.20176925
000110 d0 4c 1f 3e 01 1c 84 be b3 2a 48 be c8 1f 8d 3d
       0.15556645 -0.25802615 -0.19547538 0.068908274
000120 0f 35 71 3e e2 1f a8 bd 3e 33 86 3d cd 3f 88 3b
       0.23555396 -0.08209206 0.065527424 0.0041579963
000130 5f 5b 04 3e 8c 95 d7 3e c2 d9 8f 3d 6b bb 98 3e
       0.1292548 0.42106283 0.07023956 0.2983049
000140 47 90 6c 3e a9 27 3b 3d d6 86 38 3e 72 5a 00 3e
       0.23101912 0.04569212 0.18020186 0.12534502
000150 1d 4b 73 3d a9 07 2b bd b0 96 92 3d fc 29 46 bd
       0.059397805 -0.041755352 0.071576476 -0.048379883
000160 f7 34 b4 be 5c 8c 7e 3e 41 be 06 bd f1 44 16 bd
       -0.3519666 0.2485823 -0.032896284 -0.03668684
000170 ef 31 0e bd d5 98 dd 3d ea 14 55 be b8 3c fd 3b
       -0.03471559 0.10820166 -0.2080876 0.0077281855
000180 b6 ea a2 bc f9 fa 35 3d 8b d6 4b be 2c 59 69 3e
       -0.01988731 0.0444288 -0.1990606 0.22787923
000190 e4 ba 9b be 31 96 1a be 0e 8f 0e 3e 34 31 30 be
       -0.30416024 -0.15096356 0.13921759 -0.1720627
0001a0 28 3c 8c 3e 86 2b 8d 3d a2 ad c4 3d db 56 30 3e
       0.27389646 0.06893067 0.0960343 0.17220633
0001b0 65 ec 40 3e c9 ad 93 3d 79 24 d4 3d 6d 71 c8 3e
       0.18840177 0.07210881 0.10358519 0.39149037
0001c0 cc 1e 5c be 2b d4 ae 3d 5c 40 5c bd d8 0a 27 be
       -0.21496123 0.085365616 -0.053772315 -0.1631273
0001d0 29 7a ba be 35 5e d0 ba e0 9d bf 3d c8 20 08 be
       -0.36421326 -0.0015897217 0.09356284 -0.13293755
0001e0 6f 50 15 be 53 0b bd 3d 03 30 2c be 73 c0 40 be
       -0.14581464 0.092306755 -0.1681519 -0.18823414
0001f0 c3 67 eb bd e1 3a 78 be a0 bc 9c 3d 8e 25 73 3e
       -0.114944 -0.2424121 0.07653165 0.23744795
000200 f0 a1 5f 3e e1 14 4e 3e d5 f1 a4 3e cc 0a 91 3d
       0.21839118 0.20125152 0.32215753 0.070821375
000210 22 f2 c6 3e f3 36 4d 3d b3 3c e9 bd f7 d0 ae be
       0.38856608 0.05010123 -0.113885306 -0.34143803
000220 5a 1f a8 3c 91 25 25 be f2 92 aa 3d 33 de 37 bb
       0.020522762 -0.16127612 0.08328809 -0.0028056025
000230 f3 57 83 3e 11 6c 80 be 60 6a 9a be 7a dd 95 bd
       0.25653037 -0.25082448 -0.30159283 -0.07317634
000240 78 83 99 bd 65 55 ce 3d 0f d3 55 be 48 83 39 bd
       -0.07495779 0.100748815 -0.20881294 -0.045291215
000250 b5 f5 3e 3e c8 2a 52 3e 82 df cf 3d 38 f2 05 3e
       0.18648417 0.20524132 0.101500526 0.1308068
000260 b9 a6 9f 3b 11 b8 58 be 49 83 9c 3e 30 5c 85 bd
       0.00487217 -0.21163966 0.30568913 -0.06511724
000270 7e a4 55 be f2 4b e9 3d 69 32 33 be 9c 0e c6 bd
       -0.2086353 0.113914385 -0.17499699 -0.09670755
000280 21 1d 18 be f3 ed 33 3e 21 c0 14 3c 1f 98 fd 3d
       -0.14854862 0.17571239 0.00907901 0.123825304
000290 af 18 75 bd 3f 76 68 3e 72 d4 2a be 59 3b a8 be
       -0.059837993 0.22701357 -0.16682604 -0.3285778
0002a0 65 52 29 3d 3a 5a ae 3d 70 22 cc 3e ea f9 4f 3c
       0.041338343 0.08513303 0.39870024 0.0126938615
0002b0 24 a6 ac be 6a 09 ba 3c 09 12 a3 bd 37 32 84 3d
       -0.33720505 0.022709567 -0.07962424 0.0645489
0002c0 23 d6 3d 3d 9f c8 74 bd cd 96 63 3e fd e4 a6 bc
       0.046346795 -0.05976164 0.22225495 -0.020372862
0002d0 70 ba 41 be ff 82 45 3e b5 d6 fa bd 2d 1c d8 bc
       -0.18918777 0.19288252 -0.12247983 -0.026380623
0002e0 7c f6 fa bd 1e 31 5c 3e fc c2 84 bd 36 d5 d1 bc
       -0.122540444 0.21503112 -0.06482503 -0.025614362
0002f0 0b 21 aa bd 7f 0b e2 bd a2 7e 8a 3e f8 66 41 bd
       -0.08307084 -0.11037349 0.27049738 -0.04721734
000300 99 b1 95 3d 94 f8 62 3d 2e c3 f2 3e e5 36 15 be
       0.07309265 0.055412844 0.47414535 -0.14571722
000310 b2 0e 27 be a5 09 6c 3d 2e 1b 8d be 3d 4a 7d 3d
       -0.163142 0.057626385 -0.275598 0.061838377
000320 30 aa 2e 3e 0f ce 1f be 6e 3c 41 3e 98 b5 5b bd
       0.17057109 -0.15605949 0.18870708 -0.05363998
000330 83 62 03 be 9c fa ae 3e 5b 8a 4a 3e ed d1 06 3d
       -0.12830548 0.34175575 0.19779341 0.032915045
000340 21 8c c5 3b f3 f1 3a 3e 8e 91 51 3d 08 bf 4e bd
       0.0060286676 0.18256359 0.051164202 -0.05047515
000350 d0 7e a9 3d 8a d7 b8 bc b7 78 eb 3d ee 9d d4 3d
       0.08276141 -0.022563715 0.11497634 0.10381685
000360 3e 6d 29 bd 1a 60 b6 3e 01 3c d2 bd 07 59 b9 bd
       -0.041363947 0.35620195 -0.10265351 -0.09050184
000370 5e e7 71 3e f0 e6 12 be d7 47 91 bd 66 12 a1 be
       0.23623416 -0.14345908 -0.070937805 -0.3145935
000380 3b ab a3 3e 2b d0 9a 3e 2d b6 f3 3d d0 b5 c7 bd
       0.31966576 0.30236945 0.11899982 -0.09751475
000390 d2 cc f3 3d d2 31 02 be f6 f7 30 bd 95 2e c8 bd
       0.11904301 -0.12714317 -0.043205224 -0.0977451
0003a0 c6 1c 82 bd 9d ad 6c 3e 7e ce 9f 3d 6d 87 b5 3d
       -0.06353144 0.23113103 0.07803057 0.08863721
0003b0 ec db 33 bd c8 6e 04 bd 9e cb 2e be bd a8 33 be
       -0.043910906 -0.03233221 -0.17069861 -0.17544837
0003c0 be 89 87 3d 92 3b b2 be 8d 94 86 3e 3e 3e 05 3e
       0.06618069 -0.34811074 0.2628521 0.13012025
0003d0 8b 61 d6 3d 11 c3 8b be 13 ee 5e be dc 1c 82 be
       0.104678236 -0.2729726 -0.21770506 -0.25412643
0003e0 3b 9e 78 3e 6b dd bb 3d 38 20 27 be f3 f0 3f 3d
       0.2427911 0.091730915 -0.16320884 0.046860646
0003f0 56 e0 0a bd cb ee 37 bd dc 8c dd bd 87 7c 84 be
       -0.03390535 -0.044905465 -0.108178824 -0.25876257

actor_logit.actor_3.bias f4 [64]
000000 59 74 e3 3a 88 4c c4 3a 92 07 4c 3b 59 81 87 3a
       0.00173534 0.0014976421 0.0031132442 0.0010338231
000010 21 9d a8 ba 2d 8b d3 3a 40 12 29 bb ce db 0a 3b
       -0.0012864211 0.00161395 -0.0025798231 0.0021188143
000020 08 ce 81 ba c1 e0 12 3b 7f 63 d6 ba 00 00 00 00
       -0.0009903321 0.0022411796 -0.0016356556 0.0
000030 58 4d 7e 39 d4 cd 02 3b 3d dc a3 ba ef a4 1c bb
       0.0002425214 0.001995911 -0.0012501549 -0.002390202
000040 4c d4 4d ba 6c 53 e9 3a ca e5 99 ba 21 b8 00 bb
       -0.0007851764 0.0017801351 -0.0011741456 -0.0019641
000050 e8 57 33 bb 5c 00 37 3b 2c 31 1f ba 33 b9 d9 b9
       -0.0027365629 0.0027923798 -0.0006072696 -0.0004152745
000060 2c 3a db ba a6 e7 b7 3a 14 5f a4 b8 8f 26 1c 3b
       -0.0016725711 0.0014030829 -7.837839e-05 0.0023826694
000070 ad e3 9a 3a db 60 b2 ba d2 8d 1a 3b 39 62 3c b8
       0.001181712 -0.0013609187 0.0023583067 -4.491417e-05
000080 cd 8a b8 39 a3 d6 dc ba 77 16 63 3b 8e 0f 0b 3b
       0.0003519863 -0.0016848635 0.0034650841 0.0021218988
000090 10 c9 10 bb 5d dc 79 bb c5 0f a4 b8 2f d1 f7 ba
       -0.00220925 -0.0038125732 -7.823067e-05 -0.0018906946
0000a0 a5 4b 1a bb c7 37 99 3a 3c 04 f0 3a 59 b9 f9 b9
       -0.0023543623 0.0011689597 0.0018311809 -0.00047631076
0000b0 db ce 3d bb 95 49 19 3b 77 2a bd 3a 4e b6 ee 3a
       -0.0028962407 0.0023389806 0.0014432211 0.001821229
0000c0 88 56 ee 38 39 16 16 3b 6a 3a aa 38 d0 13 71 ba
       0.00011364842 0.002290143 8.117112e-05 -0.00091963727
0000d0 a1 b1 2b b9 a7 39 30 bb 8a b5 c7 39 3f b6 47 3a
       -0.00016374003 -0.0026889832 0.00038091495 0.00076184043
0000e0 00 00 00 00 5c fe ae ba 19 08 24 3b f6 ca aa 3a
       0.0 -0.0013350951 0.002502924 0.0013030458
0000f0 02 d2 a0 ba 7d af f5 ba 00 00 00 00 62 b1 a6 3a
       -0.0012269618 -0.0018744316 0.0 0.0012717659

critic_value.critic_1.weight f4 [64, 110]
000000 c4 3f ca 3d c5 23 a4 bc 1f cf a4 3d c5 6e c7 3d
       0.098754436 -0.020036587 0.08047318 0.097379245
000010 c6 2a cd bd b6 07 8c 3e c5 87 b4 be ca a5 19 bd
       -0.10017924 0.27349633 -0.35259834 -0.037511624
000020 cd 0b ef ba dc 31 a9 bd aa 41 97 bd a5 97 6e 3d
       -0.001823777 -0.08261463 -0.07385571 0.05825009
000030 f5 27 48 be 92 44 0b bd b4 ac 68 bd 1d ac c4 3d
       -0.19546492 -0.03400094 -0.056805328 0.096031405
000040 1c 84 d5 3d 17 e8 20 bb 2c 61 1d 3e 55 de cf bd
       0.104255885 -0.0024552399 0.153691 -0.10149828
000050 4c 5b 12 3e 05 95 62 bc 7c 95 e2 bd fe 07 fd bd
       0.1429264 -0.013829474 -0.11063668 -0.1235504
000060 48 18 37 be a9 e3 a2 bd 9e d3 10 3e 0c c1 0f 3e
       -0.17880356 -0.07953579 0.14143226 0.14038485
000070 e5 09 91 bd 28 06 6e be f5 03 4d be 6e c9 0a 3d
       -0.07081965 -0.23244536 -0.2002104 0.033883505
000080 51 51 08 3c 09 5f 17 3c fc 53 98 3d 3f c9 1f be
       0.008320169 0.009238967 0.07437894 -0.15604113
000090 91 e2 9d bd ea 95 85 be 92 a5 00 3d d5 ed 49 bc
       -0.0770923 -0.26090938 0.0314079 -0.01232477
0000a0 6f d9 4c bd 61 c8 25 3d 90 0a 04 3e 04 07 5b 3e
       -0.05001205 0.0404743 0.12894654 0.21389395
0000b0 54 68 3f 3d 40 21 b4 3d 82 06 48 3e 07 10 e9 3e
       0.046730354 0.087954044 0.19533733 0.4552004
0000c0 d4 4f 66 3e c2 27 35 3d 2a 70 64 be 7f 7b a6 bd
       0.2249139 0.04422737 -0.22308412 -0.08129024
0000d0 59 0b a5 3d 4e 3e 19 be ce e7 a0 bd a5 07 a5 bd
       0.08058805 -0.14965174 -0.07856713 -0.08058099
0000e0 78 2b 80 bd e9 e2 a3 3d fc f3 01 3e c1 1b 80 3e
       -0.06258291 0.08002264 0.12690729 0.25021175
0000f0 ac 2b 87 3d ac 00 01 3d 4d cb 0c bd 60 f2 99 3d
       0.066001266 0.03149478 -0.03437357 0.075169325
000100 17 19 28 bc 46 cd 00 3e d6 32 87 be 7a 5d 71 bd
       -0.010259888 0.12578306 -0.26405972 -0.058927037
000110 eb 75 57 be 4f 23 ea 3d b8 5e 0e 3e 98 a7 1d 3e
       -0.21041076 0.11432516 0.1390332 0.15395963
000120 96 96 a4 bb 53 ad 89 b9 9d 0d 37 bc 3c af c7 bd
       -0.005022834 -0.00026259813 -0.011172679 -0.0975022
000130 c4 85 2e 3e f6 71 0a 3d 10 c9 2f be 2d 10 17 be
       0.17043215 0.033800088 -0.17166543 -0.14752264
000140 75 0c 3e bd bd 6b 20 3e 76 89 f8 3d e5 08 17 3e
       -0.0463986 0.15666099 0.121355936 0.14749487
000150 0e 6a 6f 3c e8 fc 91 3d 12 02 26 3e 41 be 35 be
       0.014612688 0.07128316 0.16211727 -0.17748357
000160 5e 41 2f bc 32 3f 00 bd 08 5e a0 3e 4f f5 26 3e
       -0.010696737 -0.031310268 0.3132174 0.16304515
000170 62 9b 66 3e 2d 29 56 3e a8 53 5b 3d 35 fe cf 3b
       0.22520211 0.20914145 0.053546578 0.0063474425
000180 2a 00 28 be b3 37 29 3d b5 c6 09 3e cf 7b ec bc
       -0.16406313 0.041312885 0.13454707 -0.02886763
000190 5e f7 d2 bc b6 77 0d bd 9d f3 22 3d 5b 29 7a bd
       -0.02575272 -0.034537993 0.03978311 -0.061074596
0001a0 81 b1 04 3d ce c0 e4 bd 67 0a 90 3b e6 21 62 be
       0.032395843 -0.11169587 0.0043957713 -0.22083244
0001b0 cb 9f e0 bc 1e a0 07 3c 07 f2 9b 3e 29 30 fb 3d
       -0.027419945 0.008277921 0.3045809 0.12265045
0001c0 90 82 78 bc 8d 45 00 3e 2f 37 86 3d ea 59 c9 3c
       -0.015167847 0.12526532 0.06553494 0.024579007
0001d0 49 ef f6 bd f3 2b 41 3d 86 88 d9 3d a5 0e b0 3d
       -0.12057359 0.047161054 0.10621743 0.08596543
0001e0 8b f2 b3 bd d8 9e 41 be 3e 46 66 bd ff e3 36 3e
       -0.08786496 -0.1890825 -0.056219332 0.17860411
0001f0 ce 61 14 be bd 96 ca bd 5e 81 8a 3c 29 d8 80 3e
       -0.14490435 -0.09892032 0.01690739 0.25164917
000200 2e cb 6a bd bb de 6b bd 62 15 72 3d 4d 23 1b be
       -0.057322673 -0.05758546 0.059102423 -0.15150185
000210 27 d5 fd 3d 58 93 1e 3d ff 51 e6 3d 37 7f 19 3d
       0.12394171 0.038714737 0.11246108 0.037474837
000220 26 2a c5 3c 42 c4 95 bd dd 74 a7 3d 6b 42 77 bb
       0.02406795 -0.07312824 0.08176587 -0.0037728797
000230 80 b3 b9 3d 2e 66 f8 bd c4 76 85 3e 4f 33 25 3e
       0.0906744 -0.12128864 0.26067173 0.16132854
000240 9f 8d 61 3e 42 5b 9b 3d 2d 51 f5 bc 19 ac d1 3d
       0.2202668 0.075857654 -0.029945934 0.10237903
000250 3a 75 71 be 5f 69 4b bd a4 4e 92 be 0f 66 8c be
       -0.23579875 -0.049661037 -0.28575623 -0.27421615
000260 d9 e9 d7 bd 22 b2 2b 3d f6 a5 b2 bc 38 ff 61 3e
       -0.1054265 0.041917928 -0.021807652 0.22070014
000270 0b 33 29 bd 65 bf 00 3d dd f5 a6 3d bc 2b 3d bd
       -0.041308444 0.031432528 0.081523634 -0.046184286
000280 64 4e bd 3d 9e 06 f0 3b 52 0e bb 3c 16 db db 3d
       0.092434675 0.0073250076 0.022833977 0.10735147
000290 32 b5 91 3d 40 6b a6 bd 19 76 83 be 0e 0e 45 3e
       0.071146384 -0.08125925 -0.2567604 0.19243643
0002a0 42 a6 82 bd 89 c2 bf bc eb c0 24 3e b6 ba 8e be
       -0.063793674 -0.023408191 0.16089217 -0.27876824
0002b0 62 f5 33 be ce 0f 32 be 34 e0 0a be 3d 8c 6c be
       -0.17574075 -0.17388842 -0.13562089 -0.23100372
0002c0 96 b1 64 be db 98 24 be 4b 57 36 3d b8 0e 88 3d
       -0.22333369 -0.16073935 0.044516843 0.066434324
0002d0 4a d1 0b be 1d f3 5f be 06 4d 61 bd bf 23 56 be
       -0.13654056 -0.21870084 -0.055005096 -0.20912074
0002e0 c6 62 aa 3d 1a 1a c9 bd 8a f4 4b 3d 08 11 3b bd
       0.08319621 -0.098194316 0.049793757 -0.04567054
0002f0 bc 67 50 be e8 1e 85 bd a1 d9 2a 3e bc 99 35 be
       -0.20352072 -0.065000355 0.16684581 -0.17734426
000300 a8 6b c8 bc b1 96 c8 3d 38 1d 13 3e 32 d6 58 3e
       -0.024465397 0.09794367 0.14366615 0.21175459
000310 c1 79 04 3d a1 97 21 3d c4 cb 17 bc 7c be 60 bd
       0.032342676 0.039451245 -0.00926489 -0.05486916
000320 24 47 92 3d c8 20 bd 3d 40 61 3a be 77 f1 94 bd
       0.07142475 0.09234768 -0.1820116 -0.07272618
000330 75 87 4f 3e 4e 34 fa bd 99 cc da 3c 44 ee e0 3d
       0.20266517 -0.122170076 0.026708888 0.109829456
000340 81 ce b8 bb 41 f5 a3 3e 7f ae 11 bd f5 24 72 3d
       -0.0056398516 0.3202305 -0.035566803 0.059117276
000350 d7 b0 f5 3d 4c 75 86 3d 7b c7 55 3e 61 fd 11 3e
       0.1199662 0.06565341 0.20876877 0.14256813
000360 7d 46 02 3e 0c 0d 68 3d 45 a3 07 3d 0e f3 db 3d
       0.12722202 0.056653067 0.03311469 0.107397184
000370 9e b6 e1 3d d4 5e 95 be 60 47 ac bd 24 2b c2 bd
       0.110211596 -0.2917391 -0.08412051 -0.09480885
000380 cd 1c 63 3e ac b8 6a 3e a1 48 b3 3c 6e e2 8a 3d
       0.22178955 0.22922009 0.021885218 0.06781469
000390 95 d4 55 3d 24 80 2b 3d 58 16 a0 be b4 3e 30 be
       0.052204687 0.04187025 -0.31267047 -0.1721142
0003a0 5d 89 88 bc 9c 3d 86 3e 4c 83 36 bb 57 0b 65 bc
       -0.016667062 0.2621888 -0.0027849255 -0.013979754
0003b0 b5 a4 3d bb b2 c0 5b bd 18 4c bc 3d a4 3a ca 3d
       -0.0028937284 -0.053650565 0.09194201 0.09874466
0003c0 6b 82 83 3d dc 6e 1e 3e a3 d7 1d be a4 0e 12 39
       0.0642136 0.15471977 -0.1541429 0.00013929099
0003d0 1c c6 76 bd 13 8f 66 bd ca 76 cb 3c 23 a2 ad bd
       -0.060247526 -0.05628879 0.024836916 -0.08478191
0003e0 bb 8a 55 3e 53 6f 65 3e 61 6a 47 3c 4c 96 29 bb
       0.20853703 0.22405748 0.012171359 -0.0025876937
0003f0 cf f2 01 3e 57 cd a8 be cc a8 6c bb b5 bf 4a be
       0.1269028 -0.32969162 -0.0036111353 -0.19799693

critic_value.critic_1.bias f4 [64]
000000 98 33 84 3b e7 c4 89 3b 4e 6a 73 bb 99 a5 7e 3b
       0.0040344708 0.004204381 -0.003714222 0.0038856028
000010 7a 2c 86 3b cf 34 78 bb ee 95 28 bb a7 9c 83 3b
       0.0040946575 -0.0037873273 -0.002572413 0.004016477
000020 f3 f0 8c 3b f1 68 7e bb 2e 09 37 39 d2 c8 83 3b
       0.0043011843 -0.0038819874 0.0001745566 0.0040217424
000030 78 50 84 3b 58 39 85 3b 6e 77 85 3b 73 7d 8b 3b
       0.004037913 0.004065674 0.004073075 0.004256898
000040 01 a4 75 bb 7d 0e 82 bb ef 96 81 bb fe a6 30 bb
       -0.0037481787 -0.0039690123 -0.0039547603 -0.0026955004
000050 cf 7b 91 3b 14 f3 84 3b 62 5e 87 3b 90 f5 68 bb
       0.004439808 0.0040572975 0.0041311244 -0.0035546757
000060 f2 bc 1d bb 96 f4 82 3b 66 69 84 bb 68 8f 77 bb
       -0.002406892 0.003996442 -0.004040885 -0.0037774686
000070 25 52 88 3b 8c d3 81 3b 94 95 84 bb 08 ca 8a 3b
       0.004160183 0.003961986 -0.0040461514 0.00423551
000080 a2 ec 81 bb a5 ec 33 3b 0c 3c 39 3b 2f 8e 8a 3b
       -0.0039649764 0.0027454284 0.002826455 0.0042283754
000090 3b 10 8b 3b 29 47 6a bb 1c df 3d bb 95 19 5c bb
       0.004243878 -0.0035747981 -0.0028972095 -0.0033584584
0000a0 be f2 2d 3b 59 08 6e bb 6e 0d 82 bb c6 6f 80 bb
       0.002654239 -0.0036320894 -0.003968886 -0.0039195744
0000b0 6d 48 87 bb fa 58 67 bb 97 cd 82 3b 1e f5 7e 3b
       -0.004128507 -0.0035300837 0.0039917934 0.0038903425
0000c0 4f 38 68 bb 70 07 5d bb f4 66 7c bb a2 2e 81 ba
       -0.0035433953 -0.0033726357 -0.0038513513 -0.0009855817
0000d0 33 2d 36 3a d0 88 7d bb a4 41 77 bb 1f 96 89 3b
       0.0006949484 -0.0038686283 -0.0037728334 0.004198804
0000e0 76 a0 67 bb d8 bb 80 3b 3b 10 7e 3b ae 22 6e bb
       -0.0035343445 0.0039286427 0.0038766998 -0.0036336589
0000f0 f5 3d 66 bb 9a 04 ec ba a5 18 86 3b e5 0d 81 bb
       -0.0035132144 -0.0018006742 0.0040922933 -0.003938424

critic_value.critic_2.weight f4 [64, 64]
000000 39 85 4a 3d 69 78 43 be fe 1d dc bd 7c eb 4b 3b
       0.049443457 -0.19088902 -0.10747908 0.0031115701
000010 5a 34 73 3d e7 97 10 be 72 38 7b 3d fb 1f 71 bd
       0.0593761 -0.14120446 0.061333127 -0.05886839
000020 5f b6 3f be c1 0b 8b ba 8c bf 7c be b9 73 53 3e
       -0.18721913 -0.0010608361 -0.24682444 0.20649613
000030 7c bc c0 3d 19 90 85 be 52 b8 80 be 21 34 b7 3d
       0.094109505 -0.260865 -0.25140625 0.0894549
000040 02 85 cc be a8 95 9f bd 5a 63 51 be 67 d3 8f 3e
       -0.39945227 -0.077922165 -0.20448056 0.28090975
000050 23 bf 86 bd 03 9c 54 be 54 ea 48 bd e9 b9 c0 3d
       -0.06579425 -0.20762639 -0.049051598 0.094104595
000060 c9 9d 51 3e 39 f9 b9 3d 42 eb 54 3d ff 06 97 3e
       0.20470347 0.090807386 0.05198217 0.29497525
000070 1b bf fd 3d 3e 0d 87 be 33 8c b7 bd 14 b7 02 be
       0.12389966 -0.2637729 -0.08962288 -0.12765151
000080 f7 3e 2d be 86 2c e6 3e 44 3f b0 3c 6c 91 8e be
       -0.1691855 0.44955844 0.021514542 -0.27845323
000090 e1 ac e3 3d 89 2c c2 3d 16 d6 83 bd 1e 18 fc bd
       0.111169584 0.09481151 -0.06437318 -0.123092875
0000a0 09 f5 b4 be a2 a0 7b bd 5c 48 63 bd 48 28 5f bd
       -0.35343197 -0.06143249 -0.05548893 -0.054481775
0000b0 a4 49 78 be df ac 89 be 38 ce a8 3d 6f 59 24 be
       -0.24246842 -0.26889703 0.08242458 -0.16049741
0000c0 f3 e6 1a 3e 37 3a f4 3d 62 65 39 3e e8 4b 93 3d
       0.15127163 0.11925166 0.1810508 0.07192212
0000d0 71 5b 21 3d c5 12 8b be 3f 64 1d be e6 b6 e3 bb
       0.039393846 -0.27162758 -0.15370272 -0.0069492934
0000e0 02 51 13 bc 63 24 55 3e 93 6b f1 3c 07 9e 5b 3e
       -0.008991482 0.20814662 0.02947024 0.21447001
0000f0 72 0f 4c be a3 35 15 be 20 cd 81 be 3c 1e d2 3c
       -0.19927767 -0.14571242 -0.2535181 0.025649182
000100 2f a7 5e 3e 3d ea c6 bd 96 63 23 3e a9 a2 94 3c
       0.21743463 -0.09712646 0.15955958 0.018143969
000110 e3 2f 72 3d f1 55 39 3d 7c 25 28 bd 3f 77 b0 3e
       0.0591277 0.045247976 -0.041051373 0.34465978
000120 52 34 ce bd b9 8c 89 3e bd 4d 7b 3d 35 6b 85 be
       -0.10068573 0.26865175 0.061353434 -0.26058355
000130 a9 3a 1f bd e6 31 f3 bd 12 e8 b7 bd c6 b9 5e 3a
       -0.038874302 -0.11874752 -0.08979811 0.00084963103
000140 0e ef 36 3e de 86 06 bd 3c 64 88 3e c7 90 fa 3d
       0.1786463 -0.032843463 0.26638973 0.12234645
000150 49 cf f0 3e 4e f3 a1 be 2f 14 1c 3d e6 89 b9 3e
       0.47033146 -0.3163094 0.038105186 0.3623802
000160 5c f8 02 be bd 43 0e 3e 4f ab 9c 3e 0f e6 72 be
       -0.12790054 0.13893028 0.30599448 -0.23720573
000170 60 6e cf 3d 15 95 82 3d 11 34 9f 3d a9 99 62 3e
       0.10128474 0.063760914 0.07773603 0.22128929
000180 98 76 52 be 0d 1c 70 3d 01 20 f1 bd ec c9 29 3d
       -0.20553052 0.0586205 -0.117736824 0.041452333
000190 27 e1 d6 3d 7e 9f 54 3d 7c ab 81 bd 94 4f 2d 3d
       0.10492163 0.051909916 -0.06331536 0.04231222
0001a0 b9 04 37 3d 8b c5 d5 3d 4e 1c fd bd 7a d0 f4 bb
       0.04468224 0.10438069 -0.12358914 -0.0074711414
0001b0 4a 84 67 be 92 a1 85 bd 03 4e 89 be 81 56 03 3e
       -0.22609058 -0.06524958 -0.2681733 0.12825967
0001c0 14 09 63 bd b0 05 a9 3e 67 8a 52 bd 37 ae 07 be
       -0.05542858 0.33012152 -0.051401522 -0.13250051
0001d0 62 b9 fb be 31 39 03 be e9 c8 bf bb 27 e9 79 bd
       -0.49164873 -0.12814786 -0.005852808 -0.061013367
0001e0 85 ef 4f 3d 3b c2 7d 3e e9 48 e8 bd e5 17 03 3e
       0.050765533 0.24781124 -0.113420315 0.12802084
0001f0 77 7d af bd 2b 6e ce 3d 05 a3 35 3e d9 bc 44 bd
       -0.085688524 0.100796066 0.17737968 -0.04803166
000200 fa 9c 33 3e d5 7d 0a 3d ba ba f4 bd c7 1d 7c be
       0.1754035 0.03381141 -0.11949678 -0.24620734
000210 08 55 87 3e 70 e8 99 3e 30 5d 25 3e 0d d4 aa 3e
       0.2643206 0.30060148 0.1614883 0.33364907
000220 9b 08 28 3d c7 d2 54 3e ef 3e 8d be a9 4a 80 3e
       0.04102383 0.2078353 -0.27587077 0.2505696
000230 c4 93 2f bd 21 df c2 bd a0 80 0a 3e c9 73 88 bc
       -0.04286553 -0.09515215 0.13525629 -0.016656773
000240 dd 10 1c 3e 12 fc eb 3c 12 9f 5d 3d 5b 26 cf 3d
       0.15240808 0.02880672 0.05410678 0.101147376
000250 f9 49 c6 3d eb f1 ca 3d 82 43 09 3d 91 26 fc bd
       0.09682078 0.099094234 0.033511646 -0.123120435
000260 11 f9 84 be 6e dc 76 3d 94 a5 32 bc 91 09 95 bd
       -0.25971273 0.060268812 -0.010903735 -0.07277215
000270 28 ce 5b 3d d8 6c ca bd de c7 46 3e 8b 2c 98 bd
       0.053663403 -0.098840415 0.19412181 -0.07430371
000280 9f d1 04 be 26 73 05 3d fd df aa 3d 52 1d e4 bc
       -0.12970589 0.032580517 0.083435036 -0.027846012
000290 f7 04 e0 3d ff af d7 3d 13 48 94 3e cc 9d ed 3c
       0.10938447 0.105316155 0.28961238 0.029005907
0002a0 f3 54 87 3d b7 f2 14 be cb 00 af 3d e0 5a 2d 3e
       0.06608 -0.14545713 0.08545073 0.16929197
0002b0 fa 29 f6 bd 7b d9 e9 ba 19 d3 78 3e 53 f1 b1 be
       -0.12019725 -0.0017841303 0.24299277 -0.34754428
0002c0 5a 63 c6 bd ea 07 4b be eb 06 9e be 6d 99 83 3c
       -0.096869186 -0.19827238 -0.30864653 0.01606437
0002d0 6d 20 9a 3e a3 00 3a 3e d8 75 50 3e 0b cc 6e be
       0.30102864 0.18164305 0.20357454 -0.23320024
0002e0 b1 24 80 3d 65 05 6a 3e 92 58 14 be 0d b6 b7 bd
       0.06256998 0.2285362 -0.14486912 -0.0897027
0002f0 54 46 88 be ce d2 a6 be 9d d2 e9 3d ef 6c ca be
       -0.26616156 -0.32582706 0.114171244 -0.39536235
000300 4f 20 8b be ea b0 29 3e ca 50 48 be 05 c4 cd 3d
       -0.27173087 0.16571394 -0.19562069 0.100471534
000310 4f 5b 8e 3d a2 2f 86 be 75 57 fd bd 53 d5 9c 3e
       0.069510095 -0.26208216 -0.12370197 0.30631503
000320 64 3a 3d 3e d9 dc 80 3d d9 44 b2 3c 2b 2d 8e 3d
       0.18479306 0.06292123 0.021761345 0.06942209
000330 88 db b1 bd c5 ff 36 3e d5 00 fc 3d e8 84 93 be
       -0.086844504 0.17871006 0.12304846 -0.28812337
000340 0d 2c e5 bc 42 73 48 be 6f 2c ab 3e 09 cc 12 be
       -0.027975107 -0.19575217 0.33432338 -0.14335646
000350 d8 d3 8e be eb 58 c7 bb 17 cf 0c bf c5 4a 98 3e
       -0.27896 -0.006083598 -0.55003494 0.29744545
000360 d8 48 74 bd 8f 7f 89 bd 6d 2c 57 3e 56 7b 37 be
       -0.05963978 -0.06713783 0.21013041 -0.17918143
000370 ce 0a 24 bd 1e 06 49 3c 45 95 30 3e b6 e9 73 be
       -0.040049367 0.012269525 0.17244442 -0.23819622
000380 90 3a 88 be c2 78 23 3d a2 ec 18 bd f7 ac b2 bd
       -0.2660718 0.039910085 -0.037335046 -0.08724397
000390 60 77 0b be 13 ad 96 3c 6a 2f d3 3d 17 c3 c4 bd
       -0.13619757 0.018393075 0.10311778 -0.09607523
0003a0 9d db 0e be 4e cd 44 3e c0 1e 1f bd 4e a1 9a 3e
       -0.13950963 0.19218943 -0.038847685 0.3020119
0003b0 1b 8e 46 be 27 f2 a3 bc 1e 0c 07 bc a6 2e d9 bb
       -0.19390146 -0.020012928 -0.008242635 -0.0066278754
0003c0 76 86 a8 bd 41 64 45 3e d5 51 31 3e bd 48 65 bb
       -0.082287714 0.19276525 0.17316373 -0.0034985982
0003d0 e8 a0 89 3e 35 de 56 3e ee d9 99 be b3 16 91 3d
       0.26880574 0.20983203 -0.3004908 0.07084408
0003e0 91 0b 56 bd 50 05 41 3d 19 a2 cc 3b 06 82 a7 bc
       -0.052257124 0.047124207 0.0062449095 -0.020447742
0003f0 b7 97 56 3e 38 51 16 bc 0c 38 2a be c7 ea 12 bd
       0.20956312 -0.0091746375 -0.16622943 -0.035868432

critic_value.critic_2.bias f4 [64]
000000 00 00 00 00 a8 a2 7f 3b 8d b8 83 3b 55 4c 79 bb
       0.0 0.0039006863 0.004019803 -0.0038039882
000010 cd b7 81 bb 53 10 81 bb 64 a6 2c bb 00 00 00 00
       -0.0039586783 -0.0039387136 -0.0026344294 0.0
000020 8b b4 7f bb 51 f9 80 3b b8 01 80 3b 13 d4 70 bb
       -0.0039017524 0.003935971 0.003906455 -0.00367475
000030 16 36 86 3b d4 74 84 3b 61 4e 37 bb 94 01 71 bb
       0.004095803 0.0040422473 -0.0027970301 -0.0036774622
000040 3a fe 7a 3b d7 7c 63 3b 98 28 8b 3b 0a 39 9d ba
       0.0038298503 0.0034711862 0.0042467825 -0.0011995148
000050 a2 77 7e bb cc 44 88 3b 5c 04 27 b9 c3 85 79 3b
       -0.003882863 0.004158592 -0.00015927985 0.0038074113
000060 2a 2d 81 3b 97 ea 54 bb ce 41 86 3b 00 00 00 00
       0.0039421516 -0.003248846 0.0040972 0.0
000070 fa e4 85 3b 6c 3a 82 bb 00 00 00 00 57 78 82 bb
       0.004086134 -0.0039742496 0.0 -0.003981631
000080 1c 74 84 3b 1d 64 8a 3b f6 5d 7c bb b3 22 7b 3b
       0.0040421616 0.00422336 -0.0038508154 0.0038320243
000090 78 9c 86 bb 2f 52 8d 3b e5 2f 87 3b 6e df 5e b9
       -0.004108008 0.0043127756 0.0041255825 -0.00021254804
0000a0 f2 5e 60 bb 1c 18 7f 3b 16 99 85 3b 2e 53 7f 3b
       -0.003423628 0.0038924282 0.004077087 0.003895949
0000b0 48 c7 71 bb bb d9 84 3b 65 7d 72 3b e8 35 87 3b
       -0.0036892463 0.004054276 0.003700101 0.004126299
0000c0 62 1b 85 3b ec 8a 67 bb 3b e0 79 bb 95 4b 89 3b
       0.004062102 -0.0035330607 -0.0038128037 0.0041899183
0000d0 00 2e 26 bb 00 00 00 00 7e 20 86 3b f4 ac 78 3b
       -0.0025357008 0.0 0.004093229 0.0037944885
0000e0 dc b1 81 bb 2f a6 86 3b 51 49 fe ba d5 16 7b 3b
       -0.00395797 0.004109166 -0.0019400512 0.003831317
0000f0 62 15 58 39 ee 05 88 3b da 3e 82 3b a2 10 87 3b
       0.00020607331 0.0041510975 0.0039747776 0.004121856
