results/model_1661329274.4224856/network_0.pth (torch, 130543 bytes, 16 tensors)

feature_net.act_cnn1.weight f4 [1, 1, 5, 1]
0	0x3ef20d2e	0.4727568
1	0x3f0cdf86	0.5502857
2	0x3d176468	0.03696099
3	0xbf979665	-1.1842772
4	0x3ea42d1a	0.3206566

actor_logit.actor_1.weight f4 [64, 110]
0	0x3df3b56d	0.118998386
1	0xbe1c7163	-0.15277629
2	0xbdf726aa	-0.120679215
3	0xbc0d5630	-0.008626506
4	0x3d79f8d4	0.061028317
5	0xbd6d6839	-0.057960723
6	0xbe17d83e	-0.14828584
7	0x3c4bfbff	0.012450217
8	0x3e0ff11e	0.14056823
9	0x3d94311a	0.07235928
10	0x3e0b4813	0.13601713
11	0xbf0a2fd0	-0.53979206
12	0x3d25ec42	0.040508516
13	0xbe0d03d6	-0.13770995
14	0xbdf7f62c	-0.121075004
15	0xbe76fcd4	-0.24119884
16	0x3d6daee5	0.05802812
17	0x3ea37101	0.31922153
18	0xbea7662b	-0.32695135
19	0xbbcd43f5	-0.0062642046
20	0x3ccd6d0c	0.025076412
21	0xbd22c460	-0.03973806
22	0x3e0648ce	0.1311371
23	0x3dacf663	0.08445432
24	0xbd5e453a	-0.05426524
25	0x3d87c0df	0.06628584
26	0x3d2cc2db	0.042178016
27	0x3da420ce	0.080140695
28	0xbe3dba8c	-0.18528193
29	0xbe1a31ce	-0.15058061
30	0x3d7d5f85	0.061858673
31	0x3c8dd24f	0.017312197
32	0x3bf529c3	0.007481785
33	0x3c9858b8	0.018596992
34	0x3d8e6b80	0.06954098
35	0x3de6506c	0.11245808
36	0x3c9aba5a	0.018887687
37	0xbdc5d4c2	-0.09659721
38	0x3d89eb0e	0.06734286
39	0x3e1cef3e	0.15325639
40	0x3d91e2c6	0.07123332
41	0xbe7d2a92	-0.2472327
42	0xbe8d144f	-0.27554557
43	0xbc32d8c0	-0.010915935
44	0xbe1edeac	-0.1551463
45	0xbe131d89	-0.14366736
46	0xba21f1f6	-0.00061777176
47	0xbd5f7b60	-0.05456102
48	0xbe169c79	-0.14708127
49	0x3d2b7ac8	0.04186514
50	0xbb223399	-0.0024749993
51	0xbe395bd8	-0.18101442
52	0x3e0a3173	0.13495426
53	0xbdf972d9	-0.121801086
54	0x3d43c9d1	0.04779989
55	0xbde0a38a	-0.109686926
56	0x3df608d8	0.120134056
57	0xbb93d692	-0.0045116628
58	0xb90711a8	-0.00012881181
59	0xbd3710b0	-0.04469365
60	0xbd28bfd0	-0.04119855
61	0x3d11c14b	0.03558473
62	0x3dfa2e5f	0.12215876
63	0x3d3efb6e	0.0466265
64	0x3e1101c7	0.14160834
65	0xbc8db79d	-0.017299468
66	0x3e8a8f66	0.2706253
67	0x3ceed843	0.029155856
68	0x3dbb116f	0.091341846
69	0xbe7586d8	-0.2397722
70	0xbe0b259c	-0.13588566
71	0x3e6b2917	0.22964893
72	0x3e7e4f3e	0.24834916
73	0x3e486caf	0.1957271
74	0x3dec36e2	0.115339056
75	0x3caa5345	0.02079166
76	0x3dc3b1d5	0.09555403
77	0xbe317142	-0.1732836
78	0x3e11e987	0.1424924
79	0x3d03ffb3	0.032226276
80	0xbdce1af6	-0.10063736
81	0x3e3f5172	0.18683413
82	0x3c464cd9	0.012103283
83	0xbd1c755f	-0.03819787
84	0xbe2bb455	-0.1676801
85	0xbd8995f9	-0.06718058
86	0xbd9c30d4	-0.07626501
87	0xbe8908d5	-0.2676455
88	0x3db47ee8	0.08813268
89	0x3d4e7afe	0.050410263
90	0x3d97ed4e	0.07418309
91	0xbdb483c4	-0.08814195
92	0xbda7d060	-0.08194041
93	0xbd9dd986	-0.07707505
94	0xbca4fc1c	-0.020139746
95	0xbc384bc7	-0.0112485355
96	0xbe318d76	-0.1733912
97	0x3de469a4	0.11152962
98	0xbdbf99cf	-0.093555085
99	0xbd301576	-0.042989217
100	0xbe54ef87	-0.20794497
101	0xbdb4f536	-0.08835833
102	0x3dab73a8	0.08371669
103	0xbd014bfe	-0.031566612
104	0xbdfb28a3	-0.1226361
105	0x3cf30e1c	0.029669814
106	0xbd9a7681	-0.07542134
107	0x3e28d6fa	0.16488257
108	0xbe285db5	-0.16441996
109	0xbd2f0906	-0.042733215
110	0x3e10df10	0.14147592
111	0x3e1fd45d	0.15608354
112	0x39ed138e	0.00045218732
113	0x3e7a7c96	0.24461588
114	0xbb247bc9	-0.0025098196
115	0xbe6ad932	-0.22934416
116	0xbd30ae22	-0.043134816
117	0xbb2161e5	-0.0024625
118	0xbed3e268	-0.41383672
119	0x3e27d263	0.1638885
120	0x3e83eaa7	0.25764963
121	0x3e1cf767	0.15328752
122	0xbd820eef	-0.063505046
123	0xbdf1774d	-0.11790333
124	0x3d9ecb71	0.07753647
125	0xbc8b5f66	-0.017013263
126	0x3d2bdf19	0.04196081
127	0xbdc8a8fc	-0.09797856
128	0xbd43c716	-0.047797285
129	0xbe534b2e	-0.20634148
130	0xbd3769ef	-0.04477876
131	0x3d91ba29	0.07115585
132	0x3d2ec2fb	0.042666417
133	0x3c07d662	0.008290859
134	0xbd868b3a	-0.06569524
135	0xbd4ceb8c	-0.050029323
136	0x3bac1030	0.005250953
137	0x3d8fec44	0.07027486
138	0xbdd99180	-0.10623455
139	0x3d70810f	0.05871683
140	0xbdd04b48	-0.10170609
141	0x3da7833e	0.08179329
142	0xbde9b6a8	-0.11411792
143	0xbd4b6522	-0.049656995
144	0xbe12106c	-0.14264077
145	0xbd13f6f2	-0.036124177
146	0x3ccf0268	0.025269702
147	0xbd1093f9	-0.035297368
148	0xbe45940c	-0.19294757
149	0xbda6eb32	-0.08150329
150	0xbe1dd485	-0.15413101
151	0xbd44f365	-0.04808368
152	0xbd383b57	-0.044978466
153	0x3d31d36c	0.04341452
154	0xbe866ecd	-0.2625641
155	0xbdaf3cdc	-0.0855653
156	0xbe63f03a	-0.22259608
157	0x39ecfa9a	0.0004520014
158	0x3e05fdac	0.1308505
159	0xbd46134c	-0.048358247
160	0xbe23fff2	-0.16015604
161	0x3e0ad5fc	0.13558191
162	0x3e002871	0.12515427
163	0x3e975a94	0.29561293
164	0xbdd95ba4	-0.10613182
165	0x3b48f958	0.0030666199
166	0xbce631c8	-0.02809991
167	0x3e017885	0.12643631
168	0xbd850f1e	-0.06497024
169	0xbd0b6cff	-0.034039494
170	0xbc45a28a	-0.012062678
171	0x3dde31db	0.10849353
172	0x3e5cd674	0.21566182
173	0x3d63b114	0.055588797
174	0x3e9b25e5	0.3030235
175	0x3d93b967	0.07213097
176	0xbd8dfd48	-0.06933075
177	0xbd8db0be	-0.069184765
178	0xbe66addf	-0.22527264
179	0x3dacaa59	0.08430929
180	0x3d0c92bb	0.03431962
181	0xbe660788	-0.2246381
182	0xbbc05e43	-0.005870612
183	0xbc7045f7	-0.014665118
184	0x3c59f159	0.013302171
185	0x3dee97fb	0.11650082
186	0x3c87d642	0.016581658
187	0x3bbd77ab	0.005782088
188	0xbd724ca6	-0.05915513
189	0xbb5214fc	-0.0032055965
190	0x3af34ce5	0.0018562345
191	0xbcf41579	-0.029795395
192	0x3ce70a82	0.028203253
193	0xbe185aec	-0.14878434
194	0xbe3be6cb	-0.1834976
195	0xbd7d0bfb	-0.061779004
196	0xbede39dc	-0.43403518
197	0x3cd6558d	0.02616384
198	0xbd223fae	-0.03961151
199	0xbdf7d63a	-0.12101407
200	0x3e919037	0.2843034
201	0x3d820c61	0.06350017
202	0x3e3b698f	0.18301986
203	0xbd14f092	-0.03636224
204	0x3dfb7fef	0.12280261
205	0xbd92c4ea	-0.071664646
206	0xbe6b80e2	-0.22998384
207	0x3dfcabd0	0.12337458
208	0x3e1f4931	0.15555264
209	0x3e05a6bb	0.13051884
210	0xbe0928f8	-0.13394535
211	0xbe39c066	-0.181398
212	0x3d341c0e	0.043972068
213	0x3e407997	0.18796383
214	0xbe0fa890	-0.14029145
215	0x3cbf5491	0.023355754
216	0xbe54db5f	-0.20786808
217	0x3dc168cc	0.094438165
218	0x3d95ad85	0.07308487
219	0xbd7eb6bb	-0.062185984
220	0xbd9eb674	-0.07749644
221	0x3e515f26	0.20446452
222	0x3dfeb982	0.124377266
223	0x3e89c0d1	0.2690492
224	0xbdb154dd	-0.086587645
225	0x3d6920e1	0.05691612
226	0x3d7398e4	0.05947198
227	0xbea9fcb6	-0.33200616
228	0x3d79c15a	0.06097541
229	0x3de906ef	0.113782756
230	0x3d4ad8c5	0.049523134
231	0xbe5667bd	-0.2093801
232	0x3d57c6ca	0.052679814
233	0x3dbc54b5	0.09195844
234	0xbd9457fe	-0.07243346
235	0x3d50f24e	0.05101233
236	0x3dddaa29	0.10823471
237	0x3e230c83	0.15922742
238	0x3e46e2de	0.1942248
239	0xbc8ee1e8	-0.017441705
240	0x3dd268b5	0.102738775
241	0xbe20ef79	-0.15716352
242	0xbe13b71f	-0.14425324
243	0xbcd440db	-0.025909832
244	0xbe66be8f	-0.2253363
245	0xbe43be0b	-0.19115464
246	0x3dd9fb05	0.10643581
247	0x3c86ba5c	0.016446285
248	0xbe2d1c1f	-0.16905259
249	0xbc0d6f19	-0.008632445
250	0x3df0312f	0.11728131
251	0xbda354fd	-0.079751946
252	0x3e4b8a03	0.19876866
253	0xbd46f533	-0.048573684
254	0x3cfecbe0	0.031103075
255	0xbca95e8a	-0.020674963

actor_logit.actor_1.bias f4 [64]
0	0x3b6a8f8a	0.0035791122
1	0xba4ffa4e	-0.00079337216
2	0xba6e69d3	-0.00090947485
3	0xba986514	-0.0011626803
4	0xb8e40b35	-0.00010873975
5	0xbb128636	-0.0022357828
6	0x3bbf8c53	0.0058455854
7	0x3ae16e49	0.0017199005
8	0xbac4f454	-0.0015026429
9	0xbb8767ef	-0.004132263
10	0x3b23f45e	0.002501748
11	0x396c444d	0.00022532158
12	0x3b43ee72	0.0029896763
13	0x3b66dd02	0.0035226946
14	0xbadc1689	-0.0016791384
15	0x3a720607	0.00092324655
16	0x3a53a6bd	0.0008073857
17	0x3b5ae239	0.0033399
18	0x3bbfa377	0.005848344
19	0xba8e5019	-0.0010857611
20	0x3b4062a4	0.002935567
21	0x3b2e468a	0.0026592338
22	0x3a90de07	0.0011052497
23	0x3b0f5477	0.0021870413
24	0x3a492942	0.00076736894
25	0xba0b00e5	-0.00053025625
26	0xb880c0e1	-6.139442e-05
27	0xbb88b7b8	-0.0041722916
28	0xbaa96020	-0.0012922324
29	0xb9ad75f4	-0.00033085013
30	0x3b74b667	0.0037340166
31	0xbb9cab6a	-0.0047811763
32	0x3a96f84e	0.0011518092
33	0x3a1cf456	0.00059873366
34	0xb7df8ff1	-2.66507e-05
35	0x3a93e935	0.0011284711
36	0x388b6287	6.646389e-05
37	0x3aa18053	0.0012321569
38	0x3b34ac7e	0.0027568634
39	0xb961fbd0	-0.0002155148
40	0x3aec57c0	0.0018031523
41	0x3b22389e	0.0024752985
42	0x39076626	0.00012912657
43	0x3af6909e	0.001881141
44	0xba650c9f	-0.00087375374
45	0xb9c2d622	-0.00037162105
46	0x3ace8702	0.0015756788
47	0xbadaf98b	-0.001670645
48	0x3ae852f1	0.0017724914
49	0x37e9796f	2.7832311e-05
50	0x3ad34680	0.0016119033
51	0xbade6fdf	-0.0016970596
52	0x39eb1a2a	0.00044842187
53	0xbb4f689d	-0.0031648048
54	0xba54d2e0	-0.0008118581
55	0xb9f2a79d	-0.00046282719
56	0xbb1d0ed4	-0.0023965137
57	0xba0bd2a5	-0.00053338177
58	0xba3fd015	-0.00073170784
59	0xbb83f3e0	-0.004026875
60	0xba0560e1	-0.00050879834
61	0x3b679aea	0.0035340139
62	0x3b884c14	0.00415946
63	0x39cc7b64	0.00039001845

actor_logit.actor_2.weight f4 [64, 64]
0	0x3d31a67a	0.043371655
1	0x3d53b7f9	0.051689122
2	0x3e120e07	0.14263164
3	0x3e0c044b	0.13673513
4	0x3e8f41c9	0.27979878
5	0xbc59541b	-0.013264681
6	0x3db7b14e	0.08969365
7	0xbcd5b7e9	-0.026088672
8	0xbe23c342	-0.15992454
9	0xbd9a1404	-0.07523349
10	0x3d6c479a	0.057685472
11	0xbe4dc2da	-0.20093861
12	0xbe6db044	-0.23211771
13	0x3e4d6a44	0.20060068
14	0xbdf16a95	-0.11787907
15	0x3db1092f	0.0864433
16	0x3e0a67ed	0.13516207
17	0x3e8beee0	0.27330685
18	0xbd581fee	-0.052764826
19	0x3d424fcb	0.047439378
20	0x3e655cc3	0.22398667
21	0x3d072a5e	0.03299939
22	0x3d68f450	0.05687362
23	0x3dcc0cca	0.09963377
24	0xbdd345b9	-0.10316033
25	0xbeef8c85	-0.46786895
26	0x3e16deb0	0.14733386
27	0x3e391fb5	0.18078502
28	0x3e04415d	0.12915559
29	0x3dfb6814	0.12275711
30	0xbe442c2c	-0.19157475
31	0x3f0f3738	0.5594363
32	0x3e323fd4	0.17407161
33	0xbe65006e	-0.22363445
34	0x3eb44e22	0.3521586
35	0x3e531bde	0.20616099
36	0xbc328bda	-0.010897601
37	0xbe259db1	-0.16173436
38	0x3d5ae767	0.05344334
39	0xbd8287fe	-0.06373595
40	0xbd38aedd	-0.045088638
41	0xbcb2bcad	-0.021818483
42	0x3d38bf13	0.045104098
43	0xbd142fdb	-0.03617845
44	0xbe3c1cfe	-0.18370435
45	0xbe658c3a	-0.22416773
46	0x3df343e1	0.11878181
47	0x3d61d143	0.05513121
48	0xbd815ee9	-0.06316931
49	0x3e198738	0.14992988
50	0xbd9607c6	-0.073257014
51	0x3d0c5141	0.034257177
52	0xbe22929b	-0.15876238
53	0x3e89e59f	0.26933
54	0x3e2f2ce5	0.1710697
55	0xbd3f34bd	-0.046681155
56	0x3e643b20	0.2228818
57	0xbba25183	-0.0049535646
58	0xbd6cb716	-0.05779179
59	0xbea28c1c	-0.3174752
60	0xbe983393	-0.29726848
61	0xbe547f3f	-0.20751666
62	0x3dfa98dc	0.12236187
63	0xbdc64411	-0.096809514
64	0xbe19911f	-0.14996766
65	0xbcbe51db	-0.023232391
66	0xbe88be59	-0.26707724
67	0xbe9c1a8a	-0.30488998
68	0xbd8fbb0d	-0.07018099
69	0x3c9aeba6	0.018911194
70	0x3eb8842c	0.3603834
71	0x3eb70d98	0.3575256
72	0xbdb176af	-0.08665215
73	0x3e9ba60f	0.3040013
74	0x3d92e8d7	0.07173317
75	0x3e23f3b6	0.16010937
76	0x3def2c34	0.11678353
77	0xbdc7f52c	-0.0976356
78	0xbcf7e8b2	-0.030262325
79	0x3dbc684f	0.09199583
80	0xbdc91341	-0.098181255
81	0xbcfddb06	-0.030988228
82	0xbdba0944	-0.090837985
83	0x3dfdd918	0.12394923
84	0xbc6a7054	-0.014309008
85	0x3e26e890	0.16299653
86	0xbe31a052	-0.17346314
87	0xbdd4f07c	-0.10397431
88	0xbe74623c	-0.23865598
89	0xbe1091eb	-0.14118163
90	0xbd221434	-0.03957005
91	0x3d84a5d7	0.06476944
92	0x3dc8d10a	0.09805496
93	0x3de7b827	0.11314421
94	0xbdf6c874	-0.12049952
95	0xbe4d5daf	-0.20055269
96	0x3e3a5ee9	0.18200268
97	0xbc6ebbdc	-0.014571156
98	0xba5b2bff	-0.0008360743
99	0xbe11f411	-0.1425326
100	0xbe2be615	-0.16786988
101	0xbe1b9904	-0.1519509
102	0x3dc9e969	0.098589726
103	0xbd9dfa88	-0.07713801
104	0xbef10203	-0.47071847
105	0xbdfa5165	-0.12222556
106	0xbe303b39	-0.17210092
107	0x3e4d6e23	0.20061545
108	0x3e049587	0.12947665
109	0x3eae73b1	0.3407264
110	0x3e4a6b28	0.1976744
111	0xbe1ff795	-0.15621789
112	0x3d2d6e85	0.042341728
113	0xbde21948	-0.11039978
114	0x3e874b66	0.26424712
115	0xbb5cae51	-0.0033673237
116	0xbd8dced6	-0.069242164
117	0x3ccf6a23	0.025319165
118	0xbd7f279a	-0.062293626
119	0xbe241e4f	-0.16027187
120	0x3e9a1edf	0.30101678
121	0xbda6b320	-0.08139634
122	0xbe994f61	-0.29943374
123	0xbd97b432	-0.074074164
124	0xbe7c5ec5	-0.24645527
125	0x3dda1f36	0.10650484
126	0x3e6932b8	0.22773254
127	0xbe841427	-0.25796625
128	0xbb7a106b	-0.0038156759
129	0xbc0d5050	-0.008625105
130	0x3de657e9	0.11247236
131	0xbe154165	-0.14575727
132	0x3eb6ee57	0.35728714
133	0xbcf324a0	-0.02968055
134	0xbd97ab14	-0.074056774
135	0xbe02d12a	-0.12775102
136	0x3dece0b1	0.11566294
137	0x3e5dec09	0.21672072
138	0x3d6ddc11	0.0580712
139	0x3b4cefcc	0.003127086
140	0x3e31c2f9	0.17359532
141	0x3b0831b5	0.002078158
142	0xbdf1eb46	-0.11812453
143	0x3ded464f	0.11585676
144	0x3ee6be4d	0.45067063
145	0xbe155266	-0.14582214
146	0x3c696bff	0.01424694
147	0xbe08638b	-0.13319223
148	0xbe40f1bd	-0.18842216
149	0xbddc0c2b	-0.10744508
150	0x3dd03298	0.101659
151	0xbe899243	-0.268694
152	0x3d90db1a	0.0707304
153	0x3e25af5d	0.16180177
154	0x3d49fe79	0.04931495
155	0xbe0fba37	-0.14035879
156	0xbbce1b2c	-0.0062898602
157	0xbe2bdeca	-0.16784206
158	0xbbae8145	-0.0053254687
159	0xbe4b16a3	-0.19832854
160	0xbe9b7ff6	-0.30371064
161	0xbe84b4c3	-0.2591916
162	0xbe7e03d0	-0.24806142
163	0x3ea6c386	0.32571048
164	0x3dec263d	0.11530731
165	0x3d828436	0.063728735
166	0x3e5ec115	0.21753342
167	0xbe88c850	-0.26715326
168	0xbdf46ff5	-0.119354166
169	0x3d9e6999	0.07734985
170	0x3e8f5c87	0.2800028
171	0x3cee7a15	0.029110948
172	0xbe434f7b	-0.19073288
173	0x3d959359	0.07303495
174	0x3e42a898	0.19009626
175	0x3e437b5f	0.19090031
176	0xbe435c2c	-0.1907813
177	0x3c95381c	0.018215232
178	0x3d7c994c	0.061669633
179	0xbe85e541	-0.2615147
180	0xbea09d68	-0.3137009
181	0xbe167338	-0.1469239
182	0x3e23abac	0.15983456
183	0xbd0d0eb3	-0.034437846
184	0xbe6ced07	-0.23137294
185	0xbe0885f2	-0.13332346
186	0xbe0af59d	-0.13570257
187	0xbd322773	-0.043494653
188	0xbeb50a44	-0.35359395
189	0xbdfd1c06	-0.12358861
190	0x3e28d6a7	0.16488133
191	0xbe00c3ba	-0.12574664
192	0xbdadc10a	-0.08484085
193	0x3e444185	0.19165619
194	0xbcd10a00	-0.025517464
195	0x3db03dff	0.08605575
196	0x3e588a3c	0.21146482
197	0x3c88627f	0.01664853
198	0x3e72dada	0.23716298
199	0xbda4484d	-0.08021603
200	0x3e258c51	0.16166808
201	0xbd9c1fb9	-0.07623238
202	0x3b21f57a	0.0024712966
203	0x3d0f0e54	0.034925774
204	0x3e337589	0.17525305
205	0xbd46eb5c	-0.0485643
206	0x3dd44391	0.1036445
207	0x3d261752	0.040549584
208	0xbdfff845	-0.124985255
209	0x3bedae1f	0.007253423
210	0x3edf9fe2	0.43676668
211	0x3eb10b07	0.34578726
212	0xbdfe46c3	-0.124158405
213	0x3dd81c05	0.10552219
214	0xbd9d5500	-0.07682228
215	0xbd12713f	-0.03575253
216	0xbe956ac8	-0.2918303
217	0x3dfe6436	0.124214575
218	0x3d250a99	0.04029331
219	0xbe8dcc84	-0.27695096
220	0x3e114165	0.14185102
221	0xbe3c6f0a	-0.18401733
222	0x3d0182fc	0.031619057
223	0xbc1eea42	-0.009699406
224	0xbe2d560c	-0.16927356
225	0x3d786a32	0.06064815
226	0xbd7df0fe	-0.061997406
227	0xbdc8c922	-0.09803988
228	0x3b468905	0.0030294072
229	0xbd227709	-0.039664302
230	0x3e0f3472	0.1398485
231	0x3e34ee34	0.17668992
232	0xbe6e565e	-0.23275134
233	0xbe286d5b	-0.16447966
234	0x3f03955d	0.51399785
235	0xbe376655	-0.1791013
236	0x3dd54d4a	0.10415132
237	0xbe9e7167	-0.30945894
238	0xbebf02cf	-0.3730683
239	0x3e1abdf5	0.15111525
240	0xbdf9867f	-0.12183856
241	0x3e0877be	0.13326928
242	0xbe22ecb8	-0.15910614
243	0x3df5b6fb	0.119977914
244	0x3d708e52	0.058729477
245	0xbdc4bf74	-0.09606829
246	0xbded12ce	-0.11575852
247	0x3d61f350	0.05516368
248	0x3f007986	0.5018543
249	0xbe00de61	-0.12584831
250	0x3c3cf215	0.011532326
251	0xbe5a0ad6	-0.21293196
252	0x3c949eb4	0.018142082
253	0xbb057935	-0.0020366434
254	0x3d8f7d79	0.07006354
255	0x3d792bac	0.060832664

actor_logit.actor_2.bias f4 [64]
0	0xbb0d9943	-0.0021606244
1	0x3b1a9449	0.002358692
2	0x3a8acd90	0.0010589827
3	0xbb0dc553	-0.0021632507
4	0x37a1cb69	1.9287416e-05
5	0xbb6e6e02	-0.0036381488
6	0x3b9ee148	0.004848633
7	0x3af8fbfb	0.0018995994
8	0xba193710	-0.0005844692
9	0xbb099191	-0.0020991305
10	0x3b39f3b3	0.0028374016
11	0x394a6948	0.00019303442
12	0x3a40e09f	0.000735769
13	0x3be3b37f	0.006948888
14	0xbacdb697	-0.0015694675
15	0x3a0b9882	0.00053251546
16	0xbabb082b	-0.0014269402
17	0xbb2e09ae	-0.0026556063
18	0x3b38bc47	0.0028188394
19	0xb9b01a79	-0.0003358906
20	0xb9b01a57	-0.0003358896
21	0x3b61992f	0.003442358
22	0x3b012326	0.0019704788
23	0xbab609ed	-0.0013888456
24	0xb8731c68	-5.796217e-05
25	0xba96f316	-0.0011516537
26	0x3b1305a5	0.0022433784
27	0x3a6ba5e6	0.00089892594
28	0xbba55388	-0.005045358
29	0xba45cf9c	-0.000754589
30	0x39aa16a3	0.00032441792
31	0x38ec0433	0.00011254139
32	0x3b302440	0.0026877075
33	0x3b4d1c0d	0.0031297237
34	0x3a82f3d9	0.0009990885
35	0x3a903315	0.0011001552
36	0x39bb32ec	0.0003570536
37	0x3b8edfcb	0.0043601743
38	0xbb847665	-0.004042434
39	0x35dd7707	1.6500425e-06
40	0xbb8d4a3b	-0.0043118275
41	0x3aaa9704	0.0013014977
42	0xb9e2c928	-0.00043255952
43	0x398d25c2	0.00026921747
44	0xba39a1ff	-0.0007081329
45	0xba925f7c	-0.0011167373
46	0x394745cc	0.0001900412
47	0x3b6af66f	0.0035852452
48	0x3a888e1a	0.0010418326
49	0xb918d2d8	-0.00014574395
50	0x3a4d665b	0.00078353815
51	0x3a533a24	0.0008057675
52	0xbb4ade20	-0.003095515
53	0x3ae3364d	0.0017334908
54	0xba9c7158	-0.0011935635
55	0xba5f4c14	-0.00085181114
56	0xba8ef3c4	-0.0010906388
57	0xbb6ed8f7	-0.003644524
58	0xba8ff7aa	-0.0010983844
59	0x3b3d7afa	0.002891241
60	0x3b4ee083	0.0031566925
61	0xbb0b77c8	-0.0021281112
62	0x3a8d9e74	0.0010804669
63	0x39bdd897	0.0003621026

actor_logit.actor_3.weight f4 [64, 64]
0	0x3e23a5c6	0.15981206
1	0xbe1a65a9	-0.15077843
2	0xbda0fae9	-0.07860357
3	0x3e8fbdef	0.28074595
4	0xbdd5157e	-0.1040449
5	0x3e33c0d5	0.17554028
6	0x3d295353	0.04133923
7	0xbdc4e0fa	-0.096132234
8	0x3e5b025b	0.21387617
9	0xbe413687	-0.18868457
10	0xbe0dd5f3	-0.13851146
11	0x3e63d3ca	0.2224876
12	0x3d944de7	0.07241421
13	0xbb04e9cf	-0.0020280962
14	0xbd2deaef	-0.04246038
15	0xbe803bd1	-0.25045636
16	0xbe4cfe30	-0.2001884
17	0xbe734a29	-0.23758759
18	0x3e1819ec	0.14853638
19	0x3d00adbb	0.031415682
20	0xbdde0cbf	-0.10842275
21	0xbe346dca	-0.17620006
22	0xbd5b0af0	-0.053477228
23	0x3e18e72f	0.1493194
24	0xbe3f8df3	-0.18706493
25	0x3d4a8628	0.049444348
26	0x3e01968a	0.12655082
27	0xbac57208	-0.0015063891
28	0xbe4400ae	-0.19140884
29	0x3dee7ccd	0.116448976
30	0x3d555a82	0.052088268
31	0x3c2176ed	0.009855014
32	0x3e0fc3c9	0.1403953
33	0xbe14ec3b	-0.1454324
34	0xbe969405	-0.29409805
35	0x3dff5ebe	0.124692425
36	0xbe19ad6f	-0.15007566
37	0xbe0dd2ba	-0.13849917
38	0x3d4af9ce	0.04955464
39	0xbea41c3d	-0.32052794
40	0x3dcd41ca	0.10022314
41	0x3da48e51	0.08034957
42	0xbd20e8ee	-0.03928464
43	0x3dbc910c	0.09207353
44	0x3de31262	0.110874906
45	0x3c7f71d7	0.015591106
46	0xbe04fef2	-0.12987879
47	0xbea9793f	-0.33100316
48	0xbd70f8b6	-0.05883094
49	0xbeaea99c	-0.34113777
50	0xbec5c024	-0.38623154
51	0x3e69c6b6	0.22829708
52	0xbda9b042	-0.08285572
53	0x3cdbf473	0.02684996
54	0x3e8e982f	0.27850482
55	0xbe8bfaa5	-0.27339664
56	0x3e80549e	0.25064558
57	0xbe623717	-0.22091328
58	0xbd2d6ff6	-0.042343102
59	0x3d770715	0.06030949
60	0x3e263f2a	0.16235033
61	0xbd834be6	-0.06410961
62	0x3ed6ba2c	0.41938913
63	0xbe3b514e	-0.18292734
64	0xbe2073dc	-0.15669197
65	0x3d4a806c	0.04943888
66	0xbe471d6d	-0.19444819
67	0xbe4ed596	-0.20198664
68	0x3e202a36	0.15641102
69	0xbe8405db	-0.25785717
70	0xbe4b7884	-0.19870192
71	0x3d89af9d	0.06722949
72	0x3e6eca43	0.23319344
73	0xbdaad5d7	-0.08341568
74	0x3d718ec9	0.05897406
75	0x3b890309	0.00418127
76	0x3e043c37	0.12913595
77	0x3ed5e5bd	0.4177684
78	0x3d8db1e0	0.069186926
79	0x3e989546	0.29801387
80	0x3e6b739e	0.22993323
81	0x3d3d3a39	0.046198104
82	0x3e370962	0.17874673
83	0x3dff70e0	0.12472701
84	0x3d7b148f	0.061298903
85	0xbd332a20	-0.043741345
86	0x3d91454a	0.07093294
87	0xbd526293	-0.05136354
88	0xbeb44a21	-0.35212806
89	0x3e7a5d9d	0.24449773
90	0xbd0d31f4	-0.034471467
91	0xbd1690d0	-0.036759198
92	0xbd170063	-0.036865603
93	0x3ddd989b	0.10820123
94	0xbe530c42	-0.20610145
95	0x3bfd092c	0.0077220406
96	0xbca8bcdc	-0.020597868
97	0x3d3c3fed	0.045959402
98	0xbe4dd33b	-0.2010011
99	0x3e69e85a	0.22842541
100	0xbe9e4190	-0.30909395
101	0xbe1a002d	-0.1503913
102	0x3e0e3219	0.13886298
103	0xbe3195c6	-0.1734229
104	0x3e8c26d4	0.27373374
105	0x3d8c37ed	0.068466045
106	0x3dc68b53	0.09694543
107	0x3e2df79f	0.16988991
108	0x3e401ea1	0.18761684
109	0x3d962248	0.073307574
110	0x3dd2f9c9	0.10301549
111	0x3ec94d07	0.3931658
112	0xbe5a1ed9	-0.2130083
113	0x3dae56a4	0.08512619
114	0xbd6292cb	-0.055315774
115	0xbe2812f3	-0.16413479
116	0xbeba7a2d	-0.36421338
117	0x39a93b41	0.0003227834
118	0x3dbf9dc2	0.09356262
119	0xbe07ca14	-0.1326068
120	0xbe15e067	-0.14636384
121	0x3dba99f6	0.09111397
122	0xbe2a70fa	-0.1664466
123	0xbe400a1c	-0.18753856
124	0xbdefb492	-0.11704363
125	0xbe7a1b86	-0.24424562
126	0x3d9954a8	0.0748685
127	0x3e716d10	0.2357676
128	0x3e5fa1f3	0.21839122
129	0x3e4e07bb	0.20120136
130	0x3ea4f169	0.3221543
131	0x3d910d9a	0.070826724
132	0x3ec6ea32	0.38850552
133	0x3d4d3682	0.05010081
134	0xbde95083	-0.113923095
135	0xbeaed340	-0.34145546
136	0x3ca77426	0.020441126
137	0xbe253a2c	-0.16135472
138	0x3daa6f5c	0.08322021
139	0xbb37d572	-0.0028050807
140	0x3e8353c4	0.25649846
141	0xbe8070b4	-0.25085986
142	0xbe9a6ab3	-0.3015953
143	0xbd95f48b	-0.073220335
144	0xbd999f84	-0.07501128
145	0x3dce4964	0.10072592
146	0xbe55d435	-0.20881732
147	0xbd3a05c9	-0.045415673
148	0x3e3ef0f1	0.186466
149	0x3e520129	0.20508255
150	0x3dcfde86	0.10149865
151	0x3e05f147	0.13080321
152	0x3b9c7413	0.0047745793
153	0xbe58cddf	-0.21172284
154	0x3e9c8344	0.30568898
155	0xbd855cd2	-0.06511845
156	0xbe55a441	-0.20863439
157	0x3de94bee	0.113914356
158	0xbe333697	-0.17501293
159	0xbdc62460	-0.09674907
160	0xbe184d9c	-0.14873356
161	0x3e33e168	0.17566454
162	0x3c14bbe3	0.009077999
163	0x3dfd6ced	0.123742916
164	0xbd7517df	-0.05983722
165	0x3e68767f	0.22701453
166	0xbe2ad40a	-0.16682449
167	0xbea83b62	-0.32857805
168	0x3d2950ba	0.041336752
169	0x3dae3c88	0.08507639
170	0x3ecc228e	0.39870113
171	0x3c4facc0	0.012675464
172	0xbeaca66a	-0.33720714
173	0x3cba02e7	0.022706462
174	0xbda311c0	-0.0796237
175	0x3d84203e	0.06451462
176	0x3d3d56d2	0.046225376
177	0xbd74c8c6	-0.059761785
178	0x3e639632	0.22225264
179	0xbca7ae60	-0.02046889
180	0xbe41ba9d	-0.18918844
181	0x3e458303	0.19288258
182	0xbdfad6c6	-0.12247996
183	0xbcd81822	-0.026378695
184	0xbdfaf6a1	-0.12254072
185	0x3e5c313e	0.2150316
186	0xbd84c360	-0.06482577
187	0xbcd282a4	-0.02569706
188	0xbdaa686d	-0.08320699
189	0xbde20b1c	-0.11037275
190	0x3e8a7121	0.27039436
191	0xbd419093	-0.047257017
192	0x3d9201c3	0.07129242
193	0x3d5fec9c	0.054669008
194	0x3ef4a95a	0.47785455
195	0xbe13619c	-0.14392704
196	0xbe27855f	-0.16359471
197	0x3d6388c7	0.055550363
198	0xbe8cde5f	-0.27513406
199	0x3d7be774	0.061500028
200	0x3e300778	0.17190349
201	0xbe1fc0a0	-0.15600824
202	0x3e3fc847	0.18728743
203	0xbd585c5c	-0.052822456
204	0xbe05d68b	-0.13070123
205	0x3eaded9f	0.33970353
206	0x3e48e91c	0.19620174
207	0x3cfc0b72	0.030767176
208	0x3c0d0145	0.00860626
209	0x3e39620e	0.18103811
210	0x3d52637d	0.05136441
211	0xbd4af9f5	-0.049554784
212	0x3dadbc5c	0.08483192
213	0xbcd40eb1	-0.025885912
214	0x3df07ac3	0.11742165
215	0x3dd09fee	0.10186754
216	0xbd26fac2	-0.040766485
217	0x3eb4adff	0.35288998
218	0xbdd20ba6	-0.10256128
219	0xbdb92883	-0.0904093
220	0x3e6defc8	0.23236
221	0xbe12e6fc	-0.14345926
222	0xbd8b4ddc	-0.0680196
223	0xbea0b1b5	-0.3138558
224	0x3ea399e0	0.31953335
225	0x3e9b723e	0.30360597
226	0x3df2fe31	0.118648894
227	0xbdcd3b8f	-0.100211255
228	0x3df6b77a	0.12046714
229	0xbe034e4d	-0.12822838
230	0xbd3726e0	-0.04471481
231	0xbdc98a08	-0.098407805
232	0xbd77fbc9	-0.060542855
233	0x3e6da895	0.2320884
234	0x3d9eaa5b	0.077473365
235	0x3db060ca	0.08612211
236	0xbd3f7ac8	-0.046747953
237	0xbceeee97	-0.029166503
238	0xbe2c95c4	-0.16854006
239	0xbe312982	-0.1730099
240	0x3d8ed564	0.06974295
241	0xbeb35d08	-0.35031915
242	0x3e87b761	0.26507095
243	0x3e03b2e6	0.12861213
244	0x3dd8c3b0	0.105841994
245	0xbe8af706	-0.2714159
246	0xbe5e05bc	-0.21681875
247	0xbe81d122	-0.25354868
248	0x3e7802aa	0.24219766
249	0x3dbfa186	0.0935698
250	0xbe26bccd	-0.1628296
251	0x3d4890f8	0.048966378
252	0xbd089b3e	-0.033351175
253	0xbd434563	-0.047673594
254	0xbde50ae4	-0.11183718
255	0xbe85b01b	-0.2611092

actor_logit.actor_3.bias f4 [64]
0	0x3aeeae72	0.0018209948
1	0x3a12cbb2	0.0005599811
2	0x00000000	0.0
3	0xba77b51f	-0.00094492914
4	0xb995f926	-0.00028605125
5	0x3b2003d1	0.0024416337
6	0xbba0e4d7	-0.0049100923
7	0x00000000	0.0
8	0x3acf01b4	0.0015793354
9	0x3a84fd29	0.0010146248
10	0xb9da5dfb	-0.0004165022
11	0x00000000	0.0
12	0x39a77d29	0.00031945974
13	0x3b35cac1	0.002773926
14	0xb97af2c8	-0.00023932301
15	0xbb2510b2	-0.0025186953
16	0xba2639a6	-0.0006340988
17	0x3a27abb5	0.0006396131
18	0xba82cb74	-0.0009978847
19	0xba99a144	-0.0011721035
20	0xbab61a9b	-0.0013893427
21	0x3b7a7a39	0.0038219823
22	0xbb19aa94	-0.002344762
23	0xbac8c36d	-0.001531703
24	0xb8be3a58	-9.0707734e-05
25	0x3b02fee8	0.0019988362
26	0xba6694b8	-0.00087959645
27	0x3a4ffda4	0.0007934219
28	0x3a5ee8b5	0.0008503304
29	0xba54a871	-0.0008112258
30	0x3b3a73e8	0.0028450433
31	0x3a24dee5	0.00062893174
32	0x3a8c71ca	0.0010715064
33	0x398c8dca	0.00026808522
34	0x3b4a4ece	0.0030869725
35	0x399e0f1b	0.00030147363
36	0xbb0e118c	-0.002167794
37	0xbbe53807	-0.0069952044
38	0x3b33bd19	0.0027425943
39	0xb9e02c20	-0.00042757485
40	0xbadcb54b	-0.0016838697
41	0x3aaae73c	0.0013038884
42	0x3afc94ab	0.0019270381
43	0xba19bf4d	-0.0005864993
44	0xbb35970b	-0.0027708437
45	0x3b239d82	0.0024965708
46	0x39c0f056	0.00036800158
47	0x3ad93801	0.0016572477
48	0x394f6bfa	0.00019781283
49	0x3b23a9f4	0.0024973126
50	0x3a77949a	0.00094444456
51	0xbab9ce93	-0.0014175944
52	0xbb014a3a	-0.001972808
53	0xbbc44f26	-0.0059908805
54	0xba7e9565	-0.00097115926
55	0xb9e8cf71	-0.00044405044
56	0x00000000	0.0
57	0x384c8c98	4.876833e-05
58	0x3b62aa02	0.0034586196
59	0x3aa7dfdc	0.0012807804
60	0xba2b545f	-0.00065357046
61	0xbb0beb8e	-0.0021350118
62	0x00000000	0.0
63	0x3a54651c	0.00081022247

critic_value.critic_1.weight f4 [64, 110]
0	0x3dde47e9	0.108535595
1	0xbc1af2d2	-0.009457307
2	0x3dcfa24d	0.10138378
3	0x3dde5300	0.10855675
4	0xbda25762	-0.07926823
5	0x3e96bc83	0.29440698
6	0xbea9d2ff	-0.3316879
7	0xbccb5a72	-0.024823401
8	0x3c0f7538	0.0087559745
9	0xbd7cbcd3	-0.061703514
10	0xbd74f393	-0.059802603
11	0x3da21ed9	0.0791604
12	0xbe32be47	-0.17455398
13	0xbc567450	-0.0130892545
14	0xbd40b26c	-0.047045156
15	0x3dda5679	0.106610246
16	0x3e002bb4	0.12516671
17	0x3c02a3cd	0.007973623
18	0x3e32caba	0.17460147
19	0xbda50abf	-0.0805869
20	0x3e27c4e9	0.16383709
21	0xbb857418	-0.0040726773
22	0xbdccea9d	-0.100056864
23	0xbdd234b9	-0.10263962
24	0xbe2c6b4b	-0.16837804
25	0xbd7020ba	-0.05862496
26	0x3e263d5b	0.16234343
27	0x3e252a9e	0.16129538
28	0xbd7a09e7	-0.0610446
29	0xbe6330d3	-0.22186594
30	0xbe379a3e	-0.17929932
31	0x3d45681a	0.048194982
32	0x3cef76e8	0.029231504
33	0x3cf6fc87	0.030149711
34	0x3dc32770	0.095290065
35	0xbe0fd6fe	-0.14046857
36	0xbd8837e8	-0.06651288
37	0xbe75c237	-0.23999868
38	0x3d2ac236	0.04168912
39	0x3c0cab34	0.00858574
40	0xbcee6752	-0.029102001
41	0x3d7b6e60	0.06138456
42	0x3e0e0832	0.13870314
43	0x3e65dc5d	0.22447343
44	0x3d8a876e	0.067641124
45	0x3dcee2d1	0.101018555
46	0x3e5d702a	0.21624818
47	0x3ef3c4d8	0.47611117
48	0x3e7bb990	0.24582505
49	0x3d6064dd	0.05478369
50	0xbe599ae2	-0.2125049
51	0xbd7750bd	-0.060379732
52	0x3dc5c7ee	0.09657274
53	0xbe03d4a0	-0.12874079
54	0xbd6c28c8	-0.05765608
55	0xbd746914	-0.059670523
56	0xbd4eae08	-0.050458938
57	0x3db98db8	0.09060234
58	0x3e175d8f	0.14781784
59	0x3e855319	0.2603996
60	0x3db1ff3e	0.08691262
61	0x3d56a664	0.052404776
62	0xbc5c95d2	-0.013463454
63	0x3daed5b2	0.08536853
64	0x39a743ef	0.00031903337
65	0x3e1636bb	0.14669316
66	0xbe7f91ee	-0.24958012
67	0xbd1bb72b	-0.03801648
68	0xbe420c32	-0.18949965
69	0x3e0a7b50	0.13523602
70	0x3e006dff	0.1254196
71	0x3e0de255	0.1385587
72	0xbc99e0ce	-0.018783953
73	0xb98a127c	-0.00026335183
74	0xbc370dec	-0.011172753
75	0xbdc7af54	-0.09750238
76	0x3e3dc4ac	0.18532056
77	0x3d0a71ce	0.03379994
78	0xbe3dd021	-0.18536426
79	0xbe068ba7	-0.1313921
80	0xbd7798e5	-0.060448546
81	0x3e206bc6	0.15666112
82	0x3df8893f	0.121355526
83	0x3e1708e9	0.14749493
84	0x3ce252d5	0.027627388
85	0x3d91fd11	0.07128347
86	0x3e1bcb4f	0.15214275
87	0xbe46a6ab	-0.19399516
88	0xbcb00a7a	-0.02148937
89	0xbd003ef9	-0.031310055
90	0x3ea05e15	0.3132178
91	0x3e26f54e	0.16304514
92	0x3e764b7d	0.24052234
93	0x3e56293c	0.20914167
94	0x3d388943	0.045052778
95	0x3cb11cb1	0.021620126
96	0xbe312e78	-0.17302883
97	0x3d29381b	0.041313272
98	0x3e09c6b5	0.13454707
99	0xbcec7a39	-0.028866874
100	0xbc80de86	-0.015731107
101	0xbd0d7756	-0.034537636
102	0x3d17ce4b	0.03706197
103	0xbd9c3175	-0.07626621
104	0x3ceb4af9	0.028722273
105	0xbde4c095	-0.111695446
106	0x3b900d27	0.004396099
107	0xbe6221d9	-0.22083224
108	0xbca04cc4	-0.019567855
109	0x3c07a141	0.008278192
110	0x3e994e05	0.29942337
111	0x3e0b5f4e	0.13610575
112	0x3b93c3d6	0.0045094294
113	0x3e0e932b	0.13923328
114	0x3dae8408	0.08521277
115	0x3d354693	0.044256758
116	0xbdcea23e	-0.10089539
117	0x3d735a2f	0.059412178
118	0x3df516d9	0.119672485
119	0x3dd85b71	0.10564316
120	0xbd99597c	-0.07487771
121	0xbe2d7891	-0.16940524
122	0xbd15ac28	-0.036541134
123	0x3e4b0a6f	0.19828199
124	0xbe19cc4a	-0.15019336
125	0xbdaf08b7	-0.08546584
126	0x3d15d982	0.036584385
127	0x3e87a1d6	0.2649066
128	0xbd1a31b9	-0.037645075
129	0xbd1b451d	-0.03790771
130	0x3da1573a	0.07877965
131	0xbe2092d2	-0.15681008
132	0x3e0cb1b5	0.13739665
133	0x3d6f2d04	0.05839254
134	0x3e00b83d	0.12570281
135	0x3d6a18b8	0.05715248
136	0x3d332d93	0.043744635
137	0xbd5aef90	-0.05345112
138	0x3d9cca49	0.0765577
139	0x3c1ea4dc	0.00968286
140	0x3de200a4	0.110352784
141	0xbdde7776	-0.10862629
142	0x3e8f89ee	0.2803492
143	0x3e395978	0.18100536
144	0x3e75b3ed	0.23994417
145	0x3db3def2	0.08782758
146	0xbc8717c5	-0.016490826
147	0x3df9f917	0.12205713
148	0xbe6452b3	-0.22297172
149	0xbcf59fe6	-0.029983472
150	0xbe883b72	-0.26607853
151	0xbe825314	-0.2545401
152	0xbde2ccc6	-0.11074214
153	0x3d62cd14	0.05537136
154	0xbb0ba42b	-0.0021307569
155	0x3e6eaa87	0.23307239
156	0xbcb1333d	-0.021630878
157	0x3d515753	0.05110867
158	0x3dcf426c	0.10120091
159	0xbd1c5a0a	-0.038171805
160	0x3dd8dc6f	0.10588919
161	0x3cdd35b1	0.027003141
162	0x3d1268bb	0.03574441
163	0x3e0213d5	0.12702878
164	0x3dba020b	0.09082421
165	0xbd7c3c23	-0.06158079
166	0xbe7a98d0	-0.24472356
167	0x3e52d53d	0.20589156
168	0xbd34b3ab	-0.044116657
169	0xbc343b42	-0.011000456
170	0x3e38e767	0.18057023
171	0xbe84a787	-0.25909063
172	0xbe1fcf46	-0.15606412
173	0xbe3319d3	-0.1749032
174	0xbdfa324e	-0.12216626
175	0xbe5865ed	-0.21132632
176	0xbe57ceef	-0.21075033
177	0xbe10727e	-0.14106175
178	0x3d83789b	0.06419488
179	0x3db05b16	0.08611123
180	0xbe18ca5d	-0.14920945
181	0xbe6cbdd9	-0.23119296
182	0xbd8a7e39	-0.06762356
183	0xbe5623c2	-0.20912078
184	0x3daa632c	0.08319697
185	0xbdc919d3	-0.09819379
186	0x3d7dda63	0.061975848
187	0xbd3b11e2	-0.04567135
188	0xbe5f0e1a	-0.21782723
189	0xbd5510ce	-0.05201798
190	0x3e1c6eea	0.15276685
191	0xbe3599c0	-0.17734432
192	0xbcc86bc0	-0.024465442
193	0x3dc896a0	0.097943544
194	0x3e204653	0.15651827
195	0x3e58d614	0.21175414
196	0x3cc91ef4	0.024550892
197	0x3cd864a7	0.026415182
198	0xbcc9779b	-0.024593165
199	0xbd60be39	-0.05486891
200	0x3d92471d	0.0714247
201	0x3dbd206f	0.09234702
202	0xbe2d254f	-0.16908763
203	0xbd94f167	-0.07272606
204	0x3e5a8f45	0.21343715
205	0xbddf6692	-0.109082356
206	0x3d175f0b	0.036955874
207	0x3de0ee81	0.10982991
208	0xbbb8cf88	-0.005639974
209	0x3ea3f537	0.32023022
210	0xbd11d1a1	-0.03560031
211	0x3d722499	0.059116933
212	0x3e0715d6	0.13191923
213	0x3d577f32	0.052611537
214	0x3e61de69	0.22057499
215	0x3e11fd53	0.14256792
216	0x3e024668	0.1272217
217	0x3d680ddb	0.05665384
218	0x3cbf2279	0.023331868
219	0x3ddbf303	0.1073971
220	0x3dedb6e8	0.11607152
221	0xbe99efc5	-0.30065742
222	0xbdb09c71	-0.08623589
223	0xbdafaaae	-0.085774764
224	0x3e60f249	0.21967424
225	0x3e688dfa	0.2271041
226	0x3ca1f5e0	0.019770563
227	0x3d8658fa	0.0655994
228	0x3d314cd1	0.04328615
229	0x3d22d57c	0.039754376
230	0xbea1e7db	-0.31622204
231	0xbe32690d	-0.17422886
232	0xbc99df82	-0.018783335
233	0x3e852869	0.26007393
234	0x3b493195	0.003069972
235	0xbcbb940a	-0.022897739
236	0xbba42065	-0.0050087445
237	0xbd3cc65d	-0.04608761
238	0x3db7f771	0.089827426
239	0x3dc5e5d2	0.09662975
240	0x3d7e5ab3	0.062098216
241	0x3e246c84	0.1605702
242	0xbe26f995	-0.16306145
243	0xbb016c8d	-0.001974854
244	0xbd58139e	-0.052753083
245	0xbd6f3890	-0.05840355
246	0x3cba253b	0.022722831
247	0xbdb1f701	-0.086896904
248	0x3e5b8e47	0.21440993
249	0x3e5c4d52	0.2151387
250	0x3c24c380	0.010056376
251	0xbbe6f1ca	-0.0070478665
252	0x3dff9112	0.12478842
253	0xbea9e2b7	-0.33180782
254	0xbbbba590	-0.0057265237
255	0xbe4b3acf	-0.19846652

critic_value.critic_1.bias f4 [64]
0	0x3c9acfd3	0.018897926
1	0x3c8b5346	0.017007481
2	0xbbf74d42	-0.0075470516
3	0x3c7ce38c	0.015435111
4	0x3c93d937	0.018047912
5	0xbc330814	-0.010927219
6	0x3c1626b4	0.009164501
7	0x3c8ec1c2	0.017426375
8	0x3c82d11b	0.01596885
9	0xbaef741f	-0.001826886
10	0x3c8f9762	0.01752824
11	0x3c857e2b	0.016295513
12	0x3c8c46a8	0.017123535
13	0x3c8a34c1	0.016870858
14	0x3c65401f	0.013992338
15	0x3c80f8e5	0.015743682
16	0xbc371fcc	-0.011177015
17	0xbc5ddb7c	-0.013541099
18	0xbc2690a3	-0.01016632
19	0x3bc97ded	0.0061490447
20	0x3c8dcd88	0.017309919
21	0x3c0d87c2	0.008638324
22	0x3c8547ca	0.016269583
23	0xbbc4297a	-0.0059863897
24	0xbbd7be45	-0.006583961
25	0x3c884bb9	0.01663767
26	0xbc216b9b	-0.009852315
27	0xbc05dacf	-0.008169844
28	0x3c9a286b	0.0188181
29	0x3c5066e9	0.012719848
30	0xbc54f90a	-0.012998829
31	0x3c9e5a0d	0.019330049
32	0xbc30d9c5	-0.010794108
33	0xbb85f2bf	-0.0040877755
34	0x3c8867a3	0.01665098
35	0x3c85463d	0.016268844
36	0x3c83ffcd	0.016113186
37	0xbbe93124	-0.0071164537
38	0x3bf2bf91	0.0074080904
39	0x3c086700	0.008325338
40	0x3c5c4fc7	0.013446755
41	0x3be0b812	0.0068578804
42	0xbc57ffb2	-0.013183521
43	0xbbfb8ae4	-0.007676469
44	0xbc40d5ee	-0.011769755
45	0xbc51a73b	-0.0127962185
46	0x3c6a9252	0.014317112
47	0x3c5e1690	0.013555184
48	0xbc0c6abe	-0.008570371
49	0x3b5def2d	0.0033864484
50	0xbc1c9f4b	-0.009559463
51	0x3c834262	0.016022865
52	0xbadf8ce5	-0.001705554
53	0xbc138e5d	-0.00900611
54	0xbbe26a67	-0.006909657
55	0x3c8bb4d9	0.017054008
56	0xbb5d549a	-0.003377235
57	0x3c836351	0.016038569
58	0x3c646f4f	0.013942554
59	0x3ba26858	0.0049562864
60	0xbc21d10b	-0.0098765
61	0xbb17d924	-0.0023170197
62	0x3c82551c	0.015909724
63	0xbc8e4b91	-0.017370017

critic_value.critic_2.weight f4 [64, 64]
0	0x3d4a856c	0.049443647
1	0xbe43787b	-0.19088928
2	0xbddc1dfe	-0.10747908
3	0x3b4be672	0.0031112698
4	0x3d7334e2	0.059376605
5	0xbe1097f7	-0.1412047
6	0x3d7b388e	0.06133323
7	0xbd7124a9	-0.058872852
8	0xbe3fb694	-0.18721992
9	0xba8b2481	-0.0010615737
10	0xbe7cbf24	-0.2468229
11	0x3e53738f	0.20649551
12	0x3dc0b5ae	0.09409653
13	0xbe8590ba	-0.2608698
14	0xbe80b820	-0.25140476
15	0x3db7353b	0.089457
16	0xbecc857f	-0.399456
17	0xbd9f89fd	-0.07789991
18	0xbe51641d	-0.20448346
19	0x3e8fd367	0.28090975
20	0xbd86bf11	-0.06579412
21	0xbe549bd8	-0.20762575
22	0xbd48ec3a	-0.04905341
23	0x3dc0b6df	0.0940988
24	0x3e519e51	0.20470549
25	0x3db9f977	0.09080785
26	0x3d54e92c	0.051980183
27	0x3e9706f9	0.29497507
28	0x3dfdbf3c	0.12389991
29	0xbe870d81	-0.2637749
30	0xbdb78b31	-0.089620955
31	0xbe02b701	-0.12765123
32	0xbe2d3f56	-0.16918692
33	0x3ee62c47	0.44955656
34	0x3cb04127	0.021515442
35	0xbe8e9187	-0.27845404
36	0x3de3ad04	0.111169845
37	0x3dc22c4d	0.09481106
38	0xbd83d69b	-0.06437417
39	0xbdfc1486	-0.12308602
40	0xbeb4f551	-0.35343412
41	0xbd7ba13d	-0.061433066
42	0xbd634760	-0.05548799
43	0xbd5f2a30	-0.054483593
44	0xbe784975	-0.24246772
45	0xbe89acea	-0.26889735
46	0x3da8ce64	0.08242491
47	0xbe245967	-0.1604973
48	0x3e1ae6d3	0.15127115
49	0x3df43aa7	0.119252495
50	0x3e396587	0.18105136
51	0x3d934ba1	0.071921594
52	0x3d215d71	0.039395753
53	0xbe8b12cc	-0.27162778
54	0xbe1d640c	-0.15370196
55	0xbbe3b0e1	-0.006948576
56	0xbc134e34	-0.008990813
57	0x3e55243d	0.20814605
58	0x3cf16bf3	0.02947042
59	0x3e5b9e18	0.21447027
60	0xbe4c0f91	-0.19927813
61	0xbe1535d6	-0.14571318
62	0xbe81cd0f	-0.2535176
63	0x3cd21bea	0.025648076
64	0x3e6f4a5b	0.23368208
65	0xbda4fe15	-0.08056275
66	0x3e21ab8b	0.15788095
67	0x3d0b7dd3	0.034055542
68	0x3d9745cf	0.07386362
69	0x3d6b09f3	0.057382535
70	0xbccbff3a	-0.024901975
71	0x3eb8e2cf	0.3611054
72	0xbdb2dd34	-0.087335974
73	0x3e8c69b3	0.27424392
74	0x3d95850e	0.07300769
75	0xbe7a3da6	-0.2443758
76	0xbcb9466f	-0.022616593
77	0xbde543e5	-0.111945905
78	0xbdc6fff1	-0.09716786
79	0x3b513472	0.003192213
80	0x3e4489cf	0.19193195
81	0xbcc78f8a	-0.024360437
82	0x3e8c7304	0.274315
83	0x3dfc32b7	0.123143606
84	0x3efa1f7d	0.4885215
85	0xbe9adc95	-0.30246416
86	0x3d4a296d	0.049355913
87	0x3ec16506	0.37772387
88	0xbe005a78	-0.12534511
89	0x3e1bf291	0.1522925
90	0x3ea3a915	0.31964937
91	0xbe6407af	-0.22268556
92	0x3de6aa13	0.11262908
93	0x3da1c937	0.07899707
94	0x3dbb83c9	0.091559954
95	0x3e71965d	0.23592515
96	0xbe43ed78	-0.19133556
97	0x3d91eef9	0.071256585
98	0xbdd5d4e4	-0.10440996
99	0x3d632623	0.055456292
100	0x3def2f8c	0.11678991
101	0x3d52e55d	0.05148827
102	0xbd523f66	-0.051329993
103	0x3d66302d	0.056198288
104	0x3d7ae1ab	0.06125037
105	0x3dc03604	0.09385303
106	0xbde3d5f7	-0.11124795
107	0xbb6c1274	-0.003602174
108	0xbe5c8fe9	-0.21539272
109	0xbd9959e7	-0.07487851
110	0xbe817b5e	-0.25289434
111	0x3e154cf1	0.14580132
112	0xbd287933	-0.04113121
113	0x3eae4219	0.34034804
114	0xbd6f1c20	-0.05837643
115	0xbdf7c82e	-0.12098728
116	0xbefbe530	-0.49198294
117	0xbe00a3f3	-0.12562542
118	0x3c2825bb	0.010262902
119	0xbd239e34	-0.039945796
120	0x3d774f03	0.060378086
121	0x3e85ebac	0.26156366
122	0xbdcf98ee	-0.10136591
123	0x3e0ebd24	0.13939339
124	0xbd8f394a	-0.06993349
125	0x3de56948	0.112017214
126	0x3e459036	0.19293293
127	0xbd32dc77	-0.043667283
128	0x3e4287dd	0.1899714
129	0x3ce0f16e	0.027458873
130	0xbe00ed49	-0.12590517
131	0xbe71221c	-0.23548168
132	0x3e868d11	0.262795
133	0x3e9e4f43	0.30919847
134	0x3e2d48d0	0.16922307
135	0x3eb0b2a8	0.34511304
136	0x3d6599c3	0.05605484
137	0x3e5511ca	0.20807567
138	0xbe8f9728	-0.2804501
139	0x3e85f9f2	0.26167256
140	0xbcf5d6f3	-0.030009722
141	0xbdc1a068	-0.09454423
142	0x3e083c62	0.13304284
143	0xbc9a3b10	-0.018826991
144	0x3e23f986	0.16013154
145	0x3d1df7d7	0.038566437
146	0x3d6a8240	0.057253122
147	0x3db341e3	0.08752801
148	0x3ddba4e3	0.10724809
149	0x3de5db50	0.11223471
150	0x3d3ddee3	0.04635514
151	0xbdeda5ca	-0.116038874
152	0xbe827857	-0.25482437
153	0x3d919bff	0.07109832
154	0xbb1a46b8	-0.0023540687
155	0xbd83a797	-0.064284496
156	0x3d87064d	0.06592999
157	0xbdb141c5	-0.08655123
158	0x3e508b63	0.20365672
159	0xbd81569f	-0.0631535
160	0xbdf859d0	-0.121265054
161	0x3d105e2b	0.035246056
162	0x3dc846df	0.097791426
163	0xbc973059	-0.018455671
164	0x3df25088	0.11831766
165	0x3ddb2cef	0.1070193
166	0x3e9a4735	0.30132452
167	0x3d1bdca1	0.038052205
168	0x3d9ad1f6	0.07559578
169	0xbe22b9a7	-0.15891133
170	0x3dc8602a	0.09783967
171	0x3e33170e	0.17489263
172	0xbdf7e8f2	-0.12104978
173	0xbc33e27f	-0.010979294
174	0x3e827fb7	0.25488064
175	0xbeac3ac2	-0.3363858
176	0xbdb6ec21	-0.08931757
177	0xbe4033b8	-0.18769729
178	0xbea2f907	-0.31830618
179	0x3cee1355	0.029061953
180	0x3e95503e	0.29162782
181	0x3e3da738	0.1852082
182	0x3e57fb88	0.21092045
183	0xbe622982	-0.22086146
184	0x3d94464d	0.07239971
185	0x3e753577	0.23946176
186	0xbe06ca1e	-0.13163039
187	0xbda29adb	-0.079396926
188	0xbe837c56	-0.25680798
189	0xbea529c2	-0.3225842
190	0x3dfe0a42	0.124043
191	0xbeca826a	-0.39552623
192	0xbe83ae96	-0.25719136
193	0x3e3710eb	0.17877547
194	0xbe41d88c	-0.18930262
195	0x3dbfc4f9	0.093637414
196	0x3d90ae49	0.07064492
197	0xbe895f43	-0.2683049
198	0xbdedb05f	-0.11605906
199	0x3e99630e	0.29958385
200	0x3e35b90b	0.1774637
201	0x3d8fad89	0.07015521
202	0x3d12c412	0.03583152
203	0x3d7f38f1	0.062310163
204	0xbda36e5d	-0.079800345
205	0x3e37012f	0.17871545
206	0x3e0c676f	0.13711332
207	0xbe8ce206	-0.27516192
208	0xbc8a4827	-0.016880108
209	0xbe4eb3ca	-0.20185772
210	0x3ea8f9b3	0.33003005
211	0xbe03d374	-0.12873632
212	0xbe91ea8a	-0.28499252
213	0xbc4312ee	-0.011906369
214	0xbf0e46b9	-0.55576664
215	0x3e96cc13	0.2945257
216	0xbd743ff3	-0.0596313
217	0xbd9632ce	-0.07333909
218	0x3e62290b	0.22085969
219	0xbe377b2e	-0.17918083
220	0xbd3fe949	-0.046853337
221	0x3baecfb9	0.005334821
222	0x3e2a817a	0.16650954
223	0xbe5f2d54	-0.21794635
224	0xbe8b5823	-0.2721568
225	0x3d0aee86	0.03391888
226	0xbd32c545	-0.043645162
227	0xbdc614e2	-0.09671952
228	0xbe15184c	-0.1456005
229	0x3cca7aa6	0.024716686
230	0x3dc641ce	0.0968052
231	0xbdd090f9	-0.10183901
232	0xbe029eb4	-0.12755853
233	0x3e5421da	0.20716038
234	0xbd38c791	-0.045112196
235	0x3e9e1c2c	0.30880868
236	0xbe4b0a6c	-0.19828194
237	0xbbd2aa8b	-0.0064290217
238	0xbaabac24	-0.0013097567
239	0xbc5be83a	-0.013422066
240	0xbd8eaf38	-0.06967014
241	0x3e3f4769	0.18679585
242	0x3e3cfee9	0.18456616
243	0xbc255b28	-0.010092534
244	0x3e8fc2ab	0.28078207
245	0x3e5dc567	0.21657334
246	0xbe964948	-0.29352784
247	0x3d81674e	0.06318532
248	0xbd6f73a8	-0.058459908
249	0x3d25eced	0.040509153
250	0xb882916c	-6.22597e-05
251	0xbcda92fc	-0.026681416
252	0x3e5014f0	0.20320487
253	0x3bbe54e8	0.0058084615
254	0xbe21be78	-0.15795314
255	0xbceebd55	-0.029143015

critic_value.critic_2.bias f4 [64]
0	0x00000000	0.0
1	0x3c9c892a	0.019108374
2	0x3c77165a	0.015081013
3	0xbc0b7c84	-0.008513574
4	0xbc3f3af9	-0.011671775
5	0xbb398d38	-0.0028312933
6	0x3c1d7d3b	0.009612377
7	0x00000000	0.0
8	0xbc247f8e	-0.010040177
9	0x3c38afde	0.011272399
10	0x3c2ce003	0.010551455
11	0xbbf1b4ba	-0.0073762806
12	0x3c3ff532	0.011716174
13	0x3c7c603c	0.015403803
14	0xbc0a1080	-0.0084267855
15	0xbc2c9104	-0.010532621
16	0x3c983e49	0.018584387
17	0xbbdff245	-0.0068343007
18	0x3c99c28e	0.018769529
19	0x3c3a33e4	0.011364911
20	0xbba7fd6a	-0.005126645
21	0x3ca91683	0.020640617
22	0x3bde44d8	0.006783109
23	0x3a81a80d	0.0009892002
24	0x3c5775a6	0.013150608
25	0xbbc0c6d4	-0.005883077
26	0x3c7018dd	0.014654365
27	0x00000000	0.0
28	0x3c6ac5dc	0.0143294
29	0xbc1e47e3	-0.009660694
30	0x00000000	0.0
31	0xbc5f05e7	-0.013612247
32	0x3c89dad0	0.01682797
33	0x3c97511c	0.018471293
34	0xbb5ef1f2	-0.0034018722
35	0x3c8a6f21	0.016898694
36	0xbb3d5b90	-0.0028893687
37	0x3ca3134e	0.019906666
38	0x3c6c0d38	0.0144074485
39	0x3c397c32	0.011321114
40	0xbc1905b0	-0.009339735
41	0x3c34c1d9	0.011032545
42	0x3c92d821	0.017925324
43	0x3bca68ea	0.0061770575
44	0xbc0a7ed0	-0.008453086
45	0x3c835308	0.016030803
46	0x3c5337fa	0.012891764
47	0x3c73faac	0.014891308
48	0x3c65f0a8	0.014034428
49	0xbc4a6c20	-0.012354881
50	0xbc4b0991	-0.0123924175
51	0x3c96c35c	0.018403701
52	0x3b8c9b30	0.0042909607
53	0x00000000	0.0
54	0x3c863e74	0.016387202
55	0x3c6d7462	0.01449308
56	0xbc627cf8	-0.01382374
57	0x3c8c4ae1	0.017125549
58	0x3b9f615a	0.0048639
59	0x3c69d716	0.014272472
60	0xbbc0e3ee	-0.0058865463
61	0x3c93cfb0	0.018043369
62	0x3c58fbf5	0.013243665
63	0x3c8fd932	0.017559621

critic_value.critic_3.weight f4 [64, 64]
0	0x3edc6f21	0.43053535
1	0x3d047412	0.032337256
2	0xbda014da	-0.07816477
3	0x3dd5d896	0.10441701
4	0x3ce7b266	0.02828331
5	0xbea0d8e9	-0.3141549
6	0xbd73064b	-0.059332173
7	0xbd16a45e	-0.036777847
8	0x3d22b397	0.03972205
9	0x3e7f6061	0.2493911
10	0x3de46782	0.11152555
11	0x3ce54884	0.02798868
12	0xbe2804de	-0.16408107
13	0x3e5b07c5	0.21389683
14	0xbdd0965a	-0.10184927
15	0xbe2da5e7	-0.16957818
16	0x3d54e302	0.051974304
17	0xbebb6c5d	-0.36606112
18	0x3e517284	0.2045384
19	0x3e909888	0.28241372
20	0x3e1d7199	0.15375365
21	0xbdc627b8	-0.096755445
22	0xbc9e1892	-0.019298825
23	0x3d0b0413	0.033939432
24	0x3e40344d	0.18769951
25	0x3e55fd1b	0.20897333
26	0xbdb348b3	-0.08754101
27	0xbea3ae23	-0.31968793
28	0xbd02f483	-0.031971466
29	0xbe08301c	-0.13299602
30	0x3caa50cd	0.020790482
31	0xbe76834e	-0.24073526
32	0x3e60c170	0.2194879
33	0x3dffc318	0.12488383
34	0x3d87504e	0.06607114
35	0x3bf51405	0.007479193
36	0xbe68b810	-0.22726464
37	0x3e9859ad	0.29755917
38	0xbe5d9ab4	-0.21641046
39	0x3db17407	0.086647086
40	0x3a454926	0.00075258536
41	0xbe2cdecf	-0.1688187
42	0x3e85c834	0.26129305
43	0x3e7ade94	0.2449897
44	0x3daff9de	0.0859258
45	0x3d12d12c	0.035844013
46	0xbca806e9	-0.020511108
47	0x3e8c74a1	0.2743273
48	0x3c5f1f80	0.01361835
49	0xbe538685	-0.20656784
50	0xbe7e616a	-0.24841848
51	0x3e7644d5	0.24049695
52	0x3ea0cab1	0.3140464
53	0xba7be28c	-0.0009608648
54	0xbe597540	-0.21236134
55	0xbe28d196	-0.164862
56	0xbd001192	-0.031266756
57	0x3e2f42e5	0.17115362
58	0x3bf13d93	0.0073620765
59	0xbe3f53b9	-0.18684281
60	0xbda3b791	-0.07993997
61	0x3e4e6969	0.20157398
62	0xbdaca8bf	-0.08430623
63	0x3de11564	0.10990408
64	0xbd98098b	-0.07423695
65	0xbd62bd60	-0.055356383
66	0xbd444828	-0.047920376
67	0xbe4af985	-0.19821747
68	0x3ceb1c78	0.028700098
69	0xbe5f9c22	-0.21836904
70	0x3e340963	0.17581706
71	0xbc9c6526	-0.0190912
72	0x3e375949	0.17905153
73	0xbe0bfc0d	-0.13670368
74	0x3c4bb9f0	0.012434468
75	0x3ca8ca0b	0.020604154
76	0xbd8bfe90	-0.06835663
77	0xbdb82643	-0.08991673
78	0x3e1ab7bd	0.15109153
79	0x3dd65124	0.10464695
80	0xbd417f9c	-0.04724084
81	0x3e008c72	0.12553576
82	0x3cc08b74	0.023503996
83	0xbe78cfcf	-0.24298023
84	0x3e3004ea	0.17189375
85	0xbe16faec	-0.14744157
86	0x3d566d84	0.052350536
87	0xbe14dc41	-0.14537145
88	0x3e18980b	0.1490175
89	0xbd119d77	-0.03555056
90	0xbdf53aa8	-0.119740784
91	0x3daff0a0	0.085908175
92	0xbe369ee2	-0.17834046
93	0xbe3a3fc9	-0.18188395
94	0xbeecf6ba	-0.46281987
95	0xbd32e9cf	-0.04368001
96	0x3e4a194b	0.19736211
97	0x3ce363c4	0.027757533
98	0x3d8b19b9	0.067920156
99	0xbe42066e	-0.18947765
100	0xbd78192c	-0.06057088
101	0x3d3bc21e	0.04583942
102	0xbe80d166	-0.25159758
103	0xbe100536	-0.14064488
104	0x3ee61f34	0.4494568
105	0xbe67bd20	-0.22630739
106	0x3d9cb5f3	0.076518916
107	0x3dd39612	0.10331358
108	0xbd540a37	-0.051767554
109	0x3f1c9d92	0.61177933
110	0x3ea0c893	0.31403026
111	0xbdd8c91d	-0.10585234
112	0x3e19d3b3	0.15022163
113	0x3da10549	0.07862336
114	0xbdf47379	-0.11936087
115	0xbdca09de	-0.09865163
116	0x3d45bf7d	0.04827832
117	0xbee8afef	-0.45446727
118	0x3e6dd129	0.2322432
119	0xbd829a44	-0.0637708
120	0x3c40dd69	0.011771538
121	0x3e0cf7f4	0.13766462
122	0x3cbb0e7f	0.02283406
123	0x3e34102d	0.17584296
124	0x3d7ca46a	0.061680235
125	0xbd892a94	-0.06697574
126	0xbc5af2b0	-0.013363525
127	0xbc58b14b	-0.013225864
128	0x3c8ee5fe	0.017443653
129	0xbdbcde07	-0.09222036
130	0x3ce27f69	0.027648645
131	0xbe6e6f76	-0.23284706
132	0xbe8fe6ac	-0.28105676
133	0x3d9de640	0.07709932
134	0x3e054300	0.1301384
135	0x3e53cdfc	0.20684046
136	0x3cc0a05d	0.023513967
137	0xbe5de46e	-0.2166917
138	0x3e220d92	0.15825489
139	0xbe5b9366	-0.21442947
140	0x3c9c51d0	0.01908198
141	0x3dc130eb	0.094331585
142	0x3e021e9a	0.12706986
143	0x3e1a473e	0.15066239
144	0x3edd4805	0.4321901
145	0xbe4af572	-0.19820192
146	0xbdceeacf	-0.1010338
147	0x3e5c3275	0.21503623
148	0xbe56452d	-0.20924826
149	0x3e8eca57	0.27888748
150	0xbc774820	-0.0150928795
151	0xbdbf4bd4	-0.09340635
152	0x3eaadca5	0.33371463
153	0x3eabb8f0	0.33539534
154	0x3ead7df2	0.3388515
155	0x3c8c81a3	0.01715166
156	0x3d903c17	0.07042711
157	0x3e5d5a05	0.21616371
158	0x3dc7aa83	0.097493194
159	0x3e1376df	0.14400814
160	0x3d63030d	0.05542283
161	0xbe4a4744	-0.19753748
162	0xbdc7673d	-0.09736488
163	0xbe40fa5a	-0.18845502
164	0xbd8e97db	-0.06962558
165	0xbe8372a1	-0.25673392
166	0xbe80d44d	-0.25161973
167	0xbdd68de3	-0.104762815
168	0xbe1641d8	-0.14673555
169	0x3e4630d6	0.19354567
170	0x3e5f9462	0.21833947
171	0xbcb538bd	-0.022121781
172	0x3de51922	0.11186434
173	0x3dbbfab1	0.09178675
174	0x3e76a183	0.2408505
175	0x3e545708	0.20736325
176	0x3d975aea	0.07390387
177	0xbe0532ce	-0.13007662
178	0x3e5fd2b4	0.2185772
179	0x3d0e9784	0.034812465
180	0x3e0f69ec	0.1400525
181	0xbdaf9225	-0.08572797
182	0x3d75efed	0.060043264
183	0xbddae4f5	-0.10688201
184	0x3e03ab8b	0.12858407
185	0x3d360b5e	0.044444434
186	0x3e07cf20	0.13262606
187	0xbda40a4f	-0.08009779
188	0x3ec22c7b	0.3792456
189	0x3e3abd08	0.18236172
190	0x3d9bc83c	0.07606551
191	0xbe1e0fbe	-0.15435693
192	0x3de74667	0.11292725
193	0xbc0229c0	-0.007944524
194	0xbd23440b	-0.039859813
195	0xbe039592	-0.12850025
196	0xbdf3ea33	-0.11909904
197	0x3df02b11	0.11726964
198	0x3ddd5eaf	0.10809075
199	0x3dcc6203	0.09979632
200	0x3c00abe5	0.007853483
201	0x3e70dead	0.23522444
202	0xbe842d16	-0.25815648
203	0xbdf4b04d	-0.11947689
204	0xbe0894c5	-0.13338001
205	0xbd2bbc62	-0.041927703
206	0xbe345679	-0.17611112
207	0x3e28338f	0.16425918
208	0x3e9ebe38	0.310045
209	0xbd64b759	-0.055838916
210	0x3e4dd6af	0.20101427
211	0xbd7a2a78	-0.061075658
212	0xbe8b2d41	-0.27182963
213	0xbe883672	-0.26604038
214	0x3e23177e	0.1592693
215	0x3eab0a09	0.33406094
216	0x3d3a1eb2	0.04543943
217	0x3e306770	0.17226958
218	0x3dd78e2f	0.10525166
219	0x3e64b22d	0.22333594
220	0x3eaafda6	0.33396643
221	0x3d9401b8	0.0722689
222	0xbe42de51	-0.1903012
223	0xbe58d08a	-0.21173301
224	0x3e566b71	0.20939423
225	0xbe19abd5	-0.15006955
226	0x3e7d036d	0.24708338
227	0x3e48d64d	0.19613
228	0x3ee5983d	0.4484271
229	0x3df9035a	0.121588424
230	0x3c8f6fb7	0.017509324
231	0x3c1ebdf2	0.009688841
232	0x3dcf338e	0.10117255
233	0xbc85fb7a	-0.016355265
234	0x3e093705	0.13399895
235	0xbdfdc34c	-0.123907655
236	0x3ea7b6ee	0.32756752
237	0xbd05d95e	-0.032678
238	0xbe26a4e3	-0.16273837
239	0x3d936488	0.07196909
240	0xbd42f941	-0.04760099
241	0x3dfda800	0.12385559
242	0xbcde8105	-0.02716113
243	0xbc956bac	-0.018239819
244	0x3e19da21	0.15024616
245	0x3da82ca5	0.0821164
246	0x3dd35a2d	0.10319934
247	0x3d90efd2	0.07076992
248	0xbe120cfb	-0.14262764
249	0x3e256de8	0.16155207
250	0x3e38c407	0.18043528
251	0x3f0a6b54	0.5407002
252	0xbdd9b281	-0.1062975
253	0x3cb243b0	0.021760792
254	0xbe175094	-0.14776832
255	0xbc5fcfa5	-0.013660346
